2lsaved100.model (torch, 960039 bytes, 12 tensors)

gc1.weight f4 [3, 64]
-0.10076558 0.051348235 -0.047584835 0.0022534076 -2.898176e-21 -0.0117908595 -0.0024680162 -0.0069350246
0.0006988022 -5.7489848e-05 0.0018165217 -0.006155383 0.00034190156 -0.020564562 -3.2400638e-10 -2.1564397e-10
0.0084107425 -0.026488774 -0.009999262 -0.0046495195 -0.016896196 -0.023012048 -3.306497e-08 -0.020129997
-0.0168016 -0.036989678 -0.002494499 -6.2173355e-09 -0.013098028 -0.00051239174 0.0103418445 -0.16648127
0.056802873 -0.037773132 -0.0031738966 0.0064310567 -3.3775563e-05 -0.055079177 3.6513577e-19 -0.016716937
-0.0059637967 -0.030405814 -6.521756e-05 0.016791536 -0.004224483 -0.011570329 -0.00051904825 -0.033529464
-0.0017637867 -0.0001869105 -0.026891468 -0.021354763 -5.362084e-17 -7.6103544e-07 -0.023217455 -0.0029562316
-0.0018495036 -0.04407771 0.015608882 -0.0019785806 -0.00045435107 -0.042417448 -0.0001519181 -0.10840818
-0.07665636 0.14489031 0.032907665 -0.0025112135 2.6529197e-35 -0.0009884204 0.0030338943 -0.008960668
0.0007447185 -2.1598625e-07 -0.07187383 -0.0045107575 -0.0004707537 -0.010289115 -2.0667416e-10 -5.387253e-26
-0.0063531874 -0.013858551 -0.00056978525 -0.007931336 -0.010305665 -0.0036423975 2.2828463e-08 -0.053717718
-0.0019589402 -0.026551377 -0.0004617736 -2.1954253e-11 -0.0008372685 -0.0024468938 -0.015389357 -0.025225015
0.060171213 -0.033511665 -0.001486608 -0.13859709 -3.853274e-05 -0.13472573 -1.1410084e-32 -0.00042514413
-0.017990677 -0.03553206 -3.655163e-05 -0.124605544 -0.027539581 -0.005408333 0.0044444026 -0.012879642
-0.013707623 -1.3374179e-06 -0.0036614225 -0.005517154 -8.294714e-12 -3.03087e-06 -0.008960818 -0.027815323
-0.00285744 -0.056808967 -0.029011734 -2.1411612e-05 -4.8740603e-05 -0.019800663 -1.1750926e-11 -0.12939805
0.7960919 -2.9074008 0.00029145918 8.2454515e-36 7.45456e-37 -5.215958e-18 -1.847299e-27 -3.7272088e-09
-2.868877e-26 4.716328e-37 -1.7345186e-05 -5.1259186e-10 6.248209e-37 -2.7514508e-09 -8.80283e-39 8.010576e-38
-5.336288e-13 -9.375862e-06 -3.0212815e-17 1.6706169e-30 -7.912101e-05 -1.012911e-05 -3.433065e-37 -5.1876873e-06
-1.928045e-14 -0.00046206408 5.5264363e-36 3.5818848e-38 4.1161297e-28 7.7123356e-26 -3.1489544e-27 -0.09372755
0.004213271 5.8148522e-08 7.921189e-34 -0.0493902 -5.773464e-34 -1.6759791e-06 -7.133325e-39 2.947739e-22
-2.7087935e-06 1.5540676e-18 1.0389632e-35 -0.0035541914 1.3665172e-05 -8.242083e-11 -8.109599e-19 -1.364907e-05
-2.1803711e-05 -2.2011799e-36 -6.0979465e-07 -4.952482e-10 1.1555995e-37 1.25966885e-17 -6.8365064e-10 -1.8786586e-09
8.170665e-31 -0.00015395477 -1.791149e-06 -2.3487594e-35 -3.280022e-35 -0.000108752465 -4.7005121e-32 0.010659242
00000000: 2f5e cebd 8752 523d 51e8 42bd e8ad 133b
00000010: e0fa 5a9d 732e 41bc 71be 21bb 343f e3bb
00000020: d22f 373a 4121 71b8 5b18 ee3a 18b3 c9bb
00000030: 4041 b339 0377 a8bc d81f b2af 621a 6daf
00000040: 36cd 093c fcfe d8bc f2d3 23bc ff5a 98bb
00000050: e469 8abc c383 bcbc 5203 0eb3 aae7 a4bc
00000060: 82a3 89bc 7d82 17bd c07a 23bb 43a0 d5b1
00000070: 1c99 56bc 0752 06ba d770 293c 117a 2abe
00000080: 21aa 683d 00b8 1abd 2601 50bb 9dbb d23b
00000090: 3caa 0db8 b49a 61bd c289 d720 f5f1 88bc
000000a0: f46b c3bb 9d15 f9bc 69c5 88b8 678e 893c
000000b0: 886d 8abb 7a91 3dbc bd10 08ba 3156 09bd
000000c0: dc2e e7ba 68fd 43b9 7f4b dcbc 2ff0 aebc
000000d0: 5048 77a4 f549 4cb5 8832 bebc 56bd 41bb
000000e0: 0b6b f2ba d48a 34bd 65bc 7f3c 13ab 01bb
000000f0: f835 eeb9 ebbd 2dbd 344c 1fb9 1c05 debd
00000100: 02fe 9cbd 205e 143e 30ca 063d 2c93 24bb
00000110: ac0d 0d06 e38d 81ba 4dd4 463b c4cf 12bc
00000120: 3639 433a d9e9 67b4 9632 93bd face 93bb
00000130: 7ecf f6b9 ad93 28bc 9b3d 63af c661 8595
00000140: 662e d0bb fa0e 63bc a45d 15ba 6ff2 01bc
00000150: 18d9 28bc 4ab5 6ebb 5218 c432 1c07 5cbd
00000160: 9061 00bb 4682 d9bc 341a f2b9 951c c1ad
00000170: 237c 5bba 115c 20bb a423 7cbc b1a4 cebc
00000180: 1776 763d 8743 09bd 49da c2ba 65ec 0dbe
00000190: 379e 21b8 8bf5 09be 6afa 6c8a e1e5 deb9
000001a0: 2f61 93bc 118a 11bd 044f 19b8 3131 ffbd
000001b0: b09a e1bc 6338 b1bb 5aa2 913b 2205 53bc
000001c0: f095 60bc 5481 b3b5 7af4 6fbb 3ec9 b4bb
000001d0: 12ec 11ad f365 4bb6 65d0 12bc f6dc e3bc
000001e0: e343 3bbb 85b0 68bd 04aa edbc 169d b3b7
000001f0: d36e 4cb8 0035 a2bc 77b9 4ead ec80 04be
00000200: aecc 4b3f db12 3ac0 fdce 9839 825c 2f05
00000210: 60aa 7d03 556f c0a2 ad5b 1293 e010 80b1
00000220: 560f 0e95 037d 2003 8180 91b7 72e6 0cb0
00000230: 949d 5403 0914 3db1 b5da 5f80 9111 da01
00000240: 0234 16ab 054d 1db7 ff54 0ba4 5b89 070e
00000250: c5ed a5b8 32f0 29b7 6ea4 e982 e511 aeb6
00000260: b1a9 ada8 3141 f2b9 9011 eb04 3004 4301
00000270: 0372 0212 bcf2 be15 627c 7993 3bf4 bfbd
00000280: 7b0f 8a3b fabe 7933 039d 8308 614d 4abd
00000290: 33db 3f88 34f2 e0b5 cfac 4d80 0d2e b21b
000002a0: b8c8 35b6 0457 e521 89f6 5c05 70ed 68bb
000002b0: 7843 6537 cd3e b5ae 665a 6fa1 4ffe 64b7
000002c0: 1de7 b6b7 7441 3b84 c5b0 23b5 fe21 08b0
000002d0: c44a 1d02 2e5e 6823 a3eb 3bb0 b619 01b1
000002e0: 9d93 840d eb6e 21b9 6967 f0b5 50c3 f985
000002f0: 5965 2e86 0912 e4b8 8610 748b 1aa4 2e3c

gc1.bias f4 [64]
-0.09593241 0.067762814 -0.05011366 -0.0045772656 -2.4381028e-15 -0.010801676 -0.0036013937 -0.018926417
-0.025299631 -8.402778e-05 -6.403334e-05 -0.010251743 -0.0009317594 -0.017337978 -2.7602204e-07 -1.2351911e-10
-0.023344934 -0.03335683 -0.0018479959 -0.0019925325 -0.013481161 -0.025714329 -4.994734e-07 -0.00068778195
-0.013654907 -0.030446904 -0.0006546575 -3.5476088e-08 -0.015029205 -0.0027733447 -0.022145249 -0.17542909
-0.1278728 -0.0024575829 0.0008315731 -0.012740002 -0.00012861431 -0.13491273 -1.1285374e-18 -0.018492507
0.0068426025 0.015632689 -7.565361e-05 -0.043532304 -0.029799644 -0.021593668 -0.026102278 -0.027803542
-0.016202005 -0.00027479941 -0.021163847 -0.02911724 -7.1015305e-11 -1.6298838e-05 -0.025065191 -0.0070333625
-0.010014385 0.02814429 -0.051384557 -0.002401145 -0.00030160215 -0.034829125 -0.00017599117 -0.10422288
00000000: 3678 c4bd 3bc7 8a3d fb43 4dbd e3fc 95bb
00000010: 0faf 2fa7 83f9 30bc 5c05 6cbb 930b 9bbc
00000020: 2c41 cfbc 1238 b0b8 a349 86b8 edf6 27bc
00000030: 5141 74ba 6008 8ebc 2e30 94b4 8acf 07af
00000040: e03d bfbc 2ca1 08bd 7438 f2ba 2695 02bb
00000050: 16e0 5cbc dba6 d2bc 8d13 06b5 444c 34ba
00000060: d5b8 5fbc c96b f9bc 529d 2bba 5f5e 18b3
00000070: 0e3d 76bc 01c1 35bb f469 b5bc afa3 33be
00000080: 16f1 02be 660f 21bb edfd 593a 71bb 50bc
00000090: a4dc 06b9 9026 0abe f08a a6a1 997d 97bc
000000a0: e937 e03b 2010 803c 39a8 9eb8 ee4e 32bd
000000b0: 621e f4bc 34e5 b0bc 72d4 d5bc 41c4 e3bc
000000c0: 11ba 84bc f412 90b9 ce5f adbc 4787 eebc
000000d0: 102a 9cae 7db9 88b7 8455 cdbc 1f78 e6bb
000000e0: 6013 24bc db8e e63c 9d78 52bd 875c 1dbb
000000f0: 5b20 9eb9 fca8 0ebd 458a 38b9 ce72 d5bd

gc2.weight f4 [64, 128]
1.6046175e-05 -0.19511439 -0.012081417 -0.004144825 -2.7537404e-32 0.039024238 -4.558492e-07 -0.00010420773
-9.332e-12 1.2652979e-05 -0.0006169486 5.447949e-07 -2.0358817e-09 0.029600771 0.10275704 -1.0859437e-05
0.099627115 -0.008055846 -1.4026658e-33 -1.2717372e-31 -0.11347801 -1.3640448e-37 0.05097552 0.017894132
-2.6393544e-22 -2.4624515e-12 0.11516531 2.671736e-36 -0.20665379 1.2706888e-33 -0.28536415 1.439811e-12
0.10503617 -0.03500156 0.00887515 3.9330036e-36 -9.274743e-21 -3.74663e-06 0.002120261 -0.10237292
-4.2792425e-33 -0.001225148 2.6617653e-33 -0.08645235 -4.3348973e-31 0.08919344 -0.07006782 -1.1687971e-10
-3.3970964e-38 8.1968216e-10 -3.6170989e-38 2.4764345e-32 -4.2330927e-07 -0.028092874 0.022411585 6.150188e-09
-0.012379921 0.059232436 3.3071692e-07 0.0049749366 -4.0883115e-09 0.051896803 -0.00019727272 -0.06910638
-4.2713834e-36 1.3108156e-06 0.12723559 0.033825934 -2.5413693e-26 -0.21472254 -2.630718e-13 -1.8669391e-10
-6.905105e-37 -0.123687476 0.024844436 4.9132685e-38 -8.0035534e-17 -5.6467414e-08 -5.366689e-05 -1.9120522e-21
-0.10084641 0.027841317 1.1040214e-25 -1.880853e-05 -0.10744829 -4.255236e-08 -0.15417676 -0.18107082
5.4483364e-34 -0.0014207953 0.11696018 -2.3053342e-15 2.8438508e-06 0.038358383 4.9490745e-07 -1.835249e-09
0.005632095 0.0029571098 -0.08991052 -8.2442115e-13 -2.6093405e-06 0.06745465 -0.19802478 8.5002974e-13
-0.08149568 1.3254091e-37 -0.023642816 -2.3424288e-06 -4.77188e-31 -9.087327e-15 -2.795742e-28 -0.1996666
-3.8645916e-07 -0.00856048 0.06227353 2.3235222e-08 -0.14850655 0.009228146 -0.22055079 5.0393757e-22
-3.1386943e-13 -0.018490441 7.189527e-13 -1.0184976e-05 -1.1919252e-35 6.1764214e-38 -1.9320994e-07 0.088119395
-0.0005363666 0.034902737 -0.8185146 -0.03669365 -1.5049931e-33 -0.4568626 -1.900588e-05 -0.00025172599
-2.6414099e-12 -0.0004361247 -0.00015241625 -1.774115e-08 -3.336883e-10 0.12470892 0.1592971 -0.00016331035
-0.7613502 -0.019650182 -0.010515292 -5.520259e-31 0.116768196 -2.4071087e-32 -0.82050633 0.102462955
-1.0251119e-23 -1.6107866e-10 0.07759111 -4.460409e-38 0.08697685 9.1304425e-32 0.12510839 -3.4977105e-13
-0.6629344 -0.027458351 0.0002118158 2.5062437e-34 -3.0008452e-15 -9.2306625e-05 0.10881649 0.0063309763
-5.168829e-29 -0.00065788685 -2.7260446e-37 -0.7695217 -9.798613e-37 0.06777962 0.0006382591 3.0216683e-16
-7.314708e-16 -2.2943472e-11 9.8534006e-36 -1.7822489e-33 -3.7052473e-07 -0.5353906 -0.51052403 -6.9650863e-09
-0.7241405 0.16016327 -2.1434946e-08 -0.00582134 2.805719e-07 -0.20284142 -0.0009516346 0.10479214
-0.0033903047 -3.3687706e-05 -0.5063398 -0.59030455 8.815616e-27 -0.41057438 -3.478187e-14 -4.839414e-09
-0.08582539 0.17554814 0.11694034 0.0015557767 -6.310664e-21 -5.0156254e-06 -0.00040025273 -5.7473112e-24
0.030905347 -0.67630565 -6.175557e-21 -2.1877465e-06 0.147371 3.754958e-08 0.13924436 0.1384625
7.225665e-32 -0.010479343 -0.7494778 -5.6859496e-11 -0.000102475984 -0.65955704 -9.0187456e-07 -1.913248e-10
0.12784088 -0.00054493017 0.06917109 2.766465e-36 -8.284826e-05 -0.37802744 0.098407425 8.0343096e-19
0.13437586 -0.17500278 -0.014181778 -0.00037025588 1.2018295e-22 8.8132656e-20 -7.598309e-37 0.010848789
-3.4864304e-05 0.17480567 -0.5725156 -6.9995046e-08 0.058191035 -0.51189363 -0.029227229 -3.072209e-12
8.301184e-12 0.14391766 -2.4946842e-10 4.117753e-06 1.1011374e-36 5.9538006e-37 -1.4817962e-07 -0.780163
00000000: e69a 8637 11cc 47be 23f1 45bc 50d1 87bb
00000010: 7dfb 0e8b e1d7 1f3d 70bb f4b4 198a dab8
00000020: 972b 24ad 2248 5437 b8ba 21ba 053e 1235
00000030: 9ce7 0bb1 517d f23c 4872 d23d ed30 36b7
00000040: 4d09 cc3d abfc 03bc ce0e e988 b814 258c
00000050: 2967 e8bd 06aa 3982 b5cb 503d b796 923c
00000060: 088a 9f9b 9547 2dac cadb eb3d 4249 6304
00000070: 0d9d 53be 2021 d308 401b 92be a9a2 ca2b
00000080: 341d d73d cc5d 0fbd 1469 113c 9e4a a704
00000090: e831 2f9e 9d6e 7bb6 14f4 0a3b e5a8 d1bd
000000a0: b6c0 b189 2595 a0ba 7d21 5d09 ee0d b1bd
000000b0: ebac 0c8d 0dab b63d b87f 8fbd b782 00af
000000c0: 9df4 3881 0150 6130 00ef 4481 7695 000b
000000d0: 2f43 e3b4 0723 e6bc 8098 b73c a051 d331
000000e0: 27d5 4abc b69d 723d 638d b134 cb04 a33b
000000f0: 2b79 8cb1 be91 543d feda 4eb9 a587 8dbd
00000100: 3faf b584 48ef af35 0c4a 023e 108d 0a3d
00000110: 5eaf fb94 3ae0 5bbe a418 94aa aa45 4daf
00000120: f3f7 6a83 dc4f fdbd 8f86 cb3c 7cc0 8501
00000130: a48c b8a4 9486 72b3 6218 61b8 7878 109d
00000140: 9088 cebd 7913 e43c d6ab 0816 03c7 9db7
00000150: d90d dcbd d1c2 36b3 83e0 1dbe a16a 39be
00000160: 520d 3508 fb39 baba d288 ef3d e91d 26a7
00000170: fcd8 3e36 ae1d 1d3d c8d9 0435 153c fcb0
00000180: 708d b83b 12cc 413b 0223 b8bd ce0d 68ab
00000190: 211c 2fb6 aa25 8a3d 02c7 4abe 1943 6f2b
000001a0: 35e7 a6bd c467 3402 94ae c1bc 9f32 1db6
000001b0: 3adb 1a8d e6b3 23a8 8233 b191 6775 4cbe
000001c0: 8b7a cfb4 4141 0cbc 8712 7f3d cb96 c732
000001d0: 1a12 18be a631 173c 11d8 61be 484e 181c
000001e0: 5ab1 b0aa 4479 97bc 005e 4a2b 24e0 2ab7
000001f0: 957e 7d85 6023 a801 2575 4fb4 f177 b43d
00000200: f49a 0cba 2cf6 0e3d 2c8a 51bf 154c 16bd
00000210: 540f fa88 e5e9 e9be d16e 9fb7 17fa 83b9
00000220: 69df 39ac aba7 e4b9 edd1 1fb9 3465 98b2
00000230: 7472 b7af 6467 ff3d c71e 233e 4a3e 2bb9
00000240: d9e7 42bf 6bf9 a0bc 5548 2cbc 8424 338d
00000250: 2a24 ef3d edf7 f98a b40c 52bf 19d8 d13d
00000260: 1549 4699 9d1b 31af 16e8 9e3d 07d9 7281
00000270: eb20 b23d 330a ed0b 6a1c 003e 52e7 c4aa
00000280: 12b6 29bf 56f0 e0bc df1a 5e39 8791 a607
00000290: d33b 58a7 be94 c1b8 2edb de3d 1474 cf3b
000002a0: 9e0b 8390 0a76 2cba 6586 b982 60ff 44bf
000002b0: fbb6 a683 0bd0 8a3d d850 273a f42f ae25
000002c0: 05d5 52a6 1bd0 c9ad 048f 5105 3e10 1489
000002d0: 88ec c6b4 5c0f 09bf b4b1 02bf 8c51 efb1
000002e0: 4661 39bf d701 243e f21f b8b2 f0c0 bebb
000002f0: 82a1 9634 a9b5 4fbe 1e77 79ba 439d d63d
00000300: e02f 5ebb e64b 0db8 7c9f 01bf 331e 17bf
00000310: 7c9c 2e14 ce36 d2be c4a4 1ca9 f047 a6b1
00000320: 39c5 afbd e4c2 333e 6b7e ef3d 34eb cb3a
00000330: ff68 ee9d e54b a8b6 03d9 d1b9 9d56 de98
00000340: 362d fd3c 5e22 2dbf 534e e99d 33d1 12b6
00000350: 6ce8 163e 3346 2133 1396 0e3e 1dc9 0d3e
00000360: c896 bb0b 8db1 2bbc c7dd 3fbf 1a12 7aae
00000370: 60e8 d6b8 bbd8 28bf 5918 72b5 255d 52af
00000380: b8e8 023e a5d9 0eba 93a9 8d3d 4658 6b04
00000390: d2be adb8 d08c c1be d589 c93d 8721 6d21
000003a0: d399 093e ee33 33be b05a 68bc e71e c2b9
000003b0: d24a 111b ec18 d01f 4e47 8183 1ebf 313c
000003c0: 433b 12b8 4200 333e 6290 12bf 2f50 96b3
000003d0: b959 6e3d 760b 03bf f16d efbc ff2f 58ac
000003e0: 3609 122d 275f 133e 8f25 89af 3b2b 8a36
000003f0: 4c59 bb03 eb98 4a03 4e1b 1fb4 c3b8 47bf

gc2.bias f4 [128]
-0.008063388 0.043874484 0.047403917 -0.0055439216 -7.165742e-08 0.069831766 -0.007693901 -0.00833665
-0.00074917905 -0.010868985 -0.00035648796 -0.0038318508 -0.0011691959 0.04866698 -0.082634695 -0.007472205
0.052470174 -0.036222003 -0.12794031 -5.7080747e-06 0.04415995 -1.6436388e-12 0.047399264 0.039400607
-0.00020563685 -0.001522804 0.045897245 -1.2939886e-09 0.03845153 -2.8539438e-07 0.042867865 -0.0012772558
0.048676614 0.045392886 -0.04230184 -2.2964151e-08 -0.00093253184 -0.012835537 0.038356487 0.044363435
-1.1440085e-06 -0.0017215096 -4.99674e-07 0.066850156 -1.5314887e-07 0.040368393 0.054469887 -0.0012309297
-6.593766e-15 -0.0021724629 -8.125328e-12 -4.049777e-08 -0.0185792 0.061486118 0.05784175 -0.0041897497
0.049062703 0.03164036 -0.0046376423 -0.007376662 -0.008160452 -0.0033738655 -0.007058838 0.037971202
-0.19931842 -0.004970379 0.0453081 0.072606914 -3.2505646e-05 0.06505466 -0.0010556105 -0.0017198336
-0.11499302 0.039480645 0.035484105 -0.011022463 -8.819389e-05 -0.0069757095 -0.0149075175 -0.00010204076
0.043440368 0.060586736 -2.7504135e-05 -0.04427665 0.041653384 -0.0030592813 0.03420545 0.035163745
-4.990328e-06 -0.048258085 0.061449036 -0.0013501899 -0.013823556 0.058895558 -0.0057404884 -0.0021316612
0.036565762 -0.030526167 0.034891326 -2.815649e-07 -0.012942998 0.054980505 0.034497835 -0.00055044814
0.039540898 -0.2142069 -0.049558535 -0.008651095 -5.148195e-05 -0.00014174152 -1.4164867e-09 0.045049638
-0.006003667 0.030343162 0.031206017 -0.0021436273 0.03946415 0.02225694 0.043838263 -0.00046768918
-0.0020470945 0.03345724 -0.0031785641 -0.011460579 -2.3443294e-11 -8.8687555e-14 -0.0025063492 0.057845376
00000000: 4d1c 04bc bbb5 333d 9c2a 423d c9a9 b5bb
00000010: 15e2 99b3 f503 8f3d 1f1d fcbb 7296 08bc
00000020: 8e64 44ba d413 32bc 01e7 bab9 ca1f 7bbb
00000030: b43f 99ba 0757 473d 613c a9bd 66d9 f4bb
00000040: f7ea 563d 865d 14bd c902 03be fd87 bfb6
00000050: 10e1 343d 5452 e7ab bb25 423d 8862 213d
00000060: 39a0 57b9 d398 c7ba c0fe 3b3d 2dd8 b1b0
00000070: 5a7f 1d3d 4e38 99b4 3796 2f3d 9869 a7ba
00000080: 2161 473d e4ed 393d b244 2dbd b442 c5b2
00000090: 2775 74ba 254c 52bc b11b 1d3d 6fb6 353d
000000a0: d58b 99b5 47a4 e1ba 5621 06b5 bce8 883d
000000b0: 3e71 24b4 5459 253d d11b 5f3d 2657 a1ba
000000c0: c290 eda7 e15f 0ebb 39f1 0ead c5ef 2db3
000000d0: 6833 98bc ded8 7b3d 79eb 6c3d 2b4a 89bb
000000e0: f9f5 483d 5299 013d 5df7 97bb edb7 f1bb
000000f0: 6bb3 05bc 121c 5dbb d34d e7bb b187 1b3d
00000100: 211a 4cbe 90de a2bb fc94 393d efb2 943d
00000110: ac56 08b8 613b 853d 695c 8aba 0a6c e1ba
00000120: 7681 ebbd 75b6 213d c857 113d 9097 34bc
00000130: bcf4 b8b8 7e94 e4bb a93e 74bc b7fe d5b8
00000140: 87ee 313d cc29 783d aeb8 e6b7 6f5b 35bd
00000150: bd9c 2a3d 397e 48bb 041b 0c3d dc07 103d
00000160: 9772 a7b6 45aa 45bd fcb1 7b3d dbf8 b0ba
00000170: 327c 62bc 783c 713d b51a bcbb 57b3 0bbb
00000180: fbc5 153d 0312 fabc 35ea 0e3d fc29 97b4
00000190: de0e 54bc 3d33 613d 9a4d 0d3d f34b 10ba
000001a0: a3f5 213d 0e59 5bbe e4fd 4abd 53bd 0dbc
000001b0: 53ee 57b8 73a0 14b9 32ae c2b0 f885 383d
000001c0: 69ba c4bb 3992 f83c c3a3 ff3c 197c 0cbb
000001d0: 29a5 213d 3054 b63c c08f 333d 2e34 f5b9
000001e0: 8c28 06bb 750a 093d 754f 50bb 27c5 3bbc
000001f0: 9b35 cead e5b4 c7a9 9041 24bb 46ef 6c3d

gc3.weight f4 [128, 256]
-3.5803095e-37 9.853157e-39 -1.530469e-39 -3.86372e-40 5.58284e-40 -5.27201e-39 -1.588696e-39 -2.515074e-39
8.871768e-39 -5.1261e-40 0.00063549745 -1.6804424e-38 1.2552462e-05 1.0657494e-38 -1.6136997e-38 1.9296086e-38
3.076659e-39 5.726584e-39 1.316797e-39 -1.462495e-39 -1.260508e-38 -8.768875e-39 3.2726731e-38 3.843453e-39
1.3041931e-38 1.827989e-38 -4.211204e-06 1.845296e-39 -3.104898e-39 -9.79318e-40 1.6671293e-38 8.506878e-39
-1.8304007e-38 -7.479253e-39 1.4169689e-05 6.937616e-39 -2.800574e-38 -5.15126e-39 1.414537e-38 2.2518604e-37
-1.4774599e-38 -1.7950513e-38 3.363e-39 -2.885494e-39 2.454761e-38 2.8184966e-38 1.3404387e-38 7.249604e-39
1.000637e-38 -1.502112e-39 -2.6270734e-38 -1.124398e-38 2.824534e-38 3.508268e-39 -2.640876e-39 -1.6491967e-38
-1.2522819e-38 0.0004295177 6.217414e-39 -4.154512e-39 -2.706047e-39 1.0356614e-38 9.419554e-39 1.6795329e-38
1.8839973e-38 -1.0056462e-38 -1.2946152e-38 -9.390287e-39 1.699127e-38 2.2747651e-38 -9.414164e-39 -1.7594949e-38
7.136321e-39 1.0717454e-38 1.2548601e-38 1.3705758e-38 -1.999602e-39 -6.609768e-39 0.00059840555 1.39279e-39
-1.7657358e-38 2.562231e-39 -2.3139397e-37 4.423136e-39 -1.5869971e-38 3.014881e-39 -1.4074175e-38 1.683864e-38
-2.1211e-39 7.361332e-39 -1.925294e-39 1.808033e-38 -0.00014171889 1.2267027e-38 -1.7375346e-38 3.9860618e-07
5.885021e-07 1.9821855e-06 9.352913e-39 -1.784287e-38 -1.0969007e-38 5.8871883e-05 -3.25734e-39 -1.0250068e-38
-9.035511e-39 -1.2560736e-38 -1.158957e-39 -8.019344e-39 -1.5279786e-38 2.2856113e-38 -1.0964375e-05 -7.113518e-39
-2.5692767e-05 2.879915e-39 -5.013213e-39 -8.601358e-39 2.514587e-39 4.6194297e-38 2.0725937e-38 -9.391092e-39
8.140108e-39 1.2265905e-05 1.0854022e-38 -2.73134e-40 1.1277373e-38 6.006295e-39 1.6802379e-38 5.479933e-39
2.0082926e-38 8.26793e-40 1.4463711e-38 -2.3936924e-38 0.00010505039 9.846472e-39 6.13616e-40 -6.928e-40
1.1341959e-35 -2.960478e-39 3.83434e-40 0.00018292348 4.304702e-39 4.495145e-39 -1.1478628e-38 8.810371e-39
-3.028349e-39 1.1470219e-38 2.0620722e-38 -7.985722e-39 4.63723e-40 -4.4949866e-07 -1.4341006e-38 3.945021e-39
1.8085245e-38 1.2779787e-38 -3.72625e-40 3.895905e-39 4.797061e-39 -1.4970506e-38 1.1343445e-38 1.1346084e-38
-1.2863017e-38 5.970976e-39 1.6379251e-38 3.552933e-39 4.280895e-39 -6.888178e-39 -1.8450912e-38 -1.863933e-39
-1.4612967e-38 1.6732081e-38 -6.01447e-40 4.840715e-39 -1.863578e-38 -1.4770213e-38 -1.82434e-39 -1.3316639e-38
-5.423902e-39 2.21985e-40 -1.5330557e-38 -4.55701e-40 -1.060707e-39 5.901612e-05 6.569504e-06 3.139466e-39
-1.7566516e-38 1.0399699e-38 4.007606e-39 2.699268e-38 6.53909e-40 -2.088736e-39 -1.1857961e-38 -2.3191253e-38
1.568891e-39 1.3524102e-38 -2.532272e-39 -7.669787e-39 6.304785e-39 -1.3331271e-38 2.061833e-07 -1.7954425e-38
-9.94825e-39 -2.0405115e-38 1.4526556e-38 9.307275e-33 3.7127857e-38 -1.2548251e-38 4.899288e-39 -2.36587e-40
-1.1249212e-38 -2.555072e-38 -5.136542e-39 -4.948203e-39 9.90418e-39 1.1865292e-38 2.1208153e-38 -4.81652e-40
-8.529194e-39 -5.028623e-39 1.2132173e-38 1.351455e-38 3.5360606e-38 2.128989e-39 1.3343879e-38 -3.1762616e-38
-5.334348e-39 2.201387e-39 -1.5343763e-38 -1.7503511e-38 -1.4977049e-38 7.1794753e-38 -3.996662e-39 -1.5341288e-38
1.5736659e-38 2.682744e-39 7.806089e-39 -6.973598e-39 1.9369793e-38 2.5746897e-38 1.765237e-39 -6.27888e-40
-1.7601301e-38 -9.241625e-39 -1.9898814e-38 9.448963e-39 -4.33245e-39 -8.676968e-39 3.882838e-39 -1.0779912e-38
7.179055e-39 -1.0871852e-38 9.724042e-39 -1.4235947e-38 1.1841332e-38 -1.9548817e-38 5.898763e-39 1.2697552e-38
00000000: caa9 f382 984a 6b00 53aa 1080 0c35 0480
00000010: 4514 0600 3868 3980 a34c 1180 0163 1b80
00000020: e19a 6000 f394 0580 8397 263a e6fb b680
00000030: 6a98 5237 c20c 7400 62b7 af80 a31d d200
00000040: 7980 2100 635b 3e00 b256 0e00 d7ec 0f80
00000050: d641 8980 0e7c 5f80 682e 3201 fcd9 2900
00000060: 9903 8e00 e50c c700 f84d 8db6 ef17 1400
00000070: 31cf 2180 f1a9 0a80 c888 b500 b7a1 5c00
00000080: 2050 c780 1d71 5180 5aba 6d37 408b 4b00
00000090: 4e7a 1881 9e17 3880 8907 9a00 f140 9902
000000a0: 92e1 a080 ba76 c380 ad9e 2400 956b 1f80
000000b0: 60a6 0501 1c74 1901 faf5 9100 f2f0 4e00
000000c0: b0f5 6c00 475b 1080 0f08 0f81 a46f 7a80
000000d0: 42c8 1901 a033 2600 b0c1 1c80 e594 b380
000000e0: 865c 8880 e430 e139 9fb3 4300 173d 2d80
000000f0: 5c77 1d80 07c6 7000 e291 6600 8be2 b600
00000100: 2e26 cd00 5381 6d80 9bf8 8c80 4d40 6680
00000110: bf04 b900 32b3 f700 dc82 6680 8f97 bf80
00000120: 29b5 4d00 e7b3 7400 65a4 8800 143e 9500
00000130: 14c6 1580 58f9 4780 51de 1c3a 882a 0f00
00000140: 8845 c080 75e6 1b00 847a 9d82 e729 3000
00000150: 06cf ac80 43d4 2000 1341 9980 475b b700
00000160: c418 1780 6628 5000 f0f6 1480 9be0 c400
00000170: 609a 14b9 7b93 8500 6533 bd80 0400 d634
00000180: 8ef9 1d35 b005 0536 1ed8 6500 aa4a c280
00000190: 2171 7780 34ed 7638 2378 2380 059d 6f80
000001a0: 5463 6280 39c6 8880 b39e 0c80 ab52 5780
000001b0: d461 a680 8be1 f800 a2f3 37b7 9875 4d80
000001c0: cc86 d7b7 085c 1f00 cc96 3680 16a9 5d80
000001d0: a561 1b00 7481 7b01 7baf e100 8b42 6680
000001e0: 4fa3 5800 a9c9 4d37 9930 7600 63f9 0280
000001f0: bacc 7a00 1b67 4100 32f6 b600 d3ab 3b00
00000200: 07af da00 c300 0900 f17e 9d00 3453 0281
00000210: 804e dc38 f537 6b00 83ae 0600 3f8b 0780
00000220: 8037 7105 9c3c 2080 dc2c 0400 26cf 3f39
00000230: c2df 2e00 a3f2 3000 bffd 7c80 bbef 5f00
00000240: cef9 2080 4ee6 7c00 2f8a e000 f2f4 5680
00000250: ac0c 0500 a052 f1b4 e428 9c80 1df5 2a00
00000260: 4eee c400 d928 8b00 ba0e 0480 336c 2a00
00000270: 413c 3400 ae03 a380 e984 7b00 448c 7b00
00000280: dc10 8c80 a704 4100 b05a b200 22b0 2600
00000290: 659d 2e00 7001 4b80 a3e9 c880 e34b 1480
000002a0: 021f 9f80 3c32 b600 978c 0680 f2b5 3400
000002b0: f9ec ca80 58d5 a080 85dd 1380 5f01 9180
000002c0: a20f 3b80 ce6a 0200 5bef a680 4ff6 0480
000002d0: d28c 0b80 1488 7738 9c6f dc36 8e2f 2200
000002e0: 4d48 bf80 213e 7100 93a3 2b00 4ef6 1201
000002f0: d51e 0700 8cbe 1680 2c1f 8180 c787 fc80
00000300: 6e15 1100 b243 9300 f292 1b80 3f84 5380
00000310: 2da7 4400 292a 9180 3c63 5d34 a281 c380
00000320: ac53 6c80 2931 de80 212e 9e00 f64d 410a
00000330: ae24 4a01 6ba3 8880 3959 3500 8293 0280
00000340: 3a7e 7a80 821c 0b81 97ee 3780 94e1 3580
00000350: d3d8 6b00 9b33 8100 b4ef e600 a63e 0580
00000360: ecdf 5c80 c1c1 3680 901b 8400 1129 9300
00000370: 7e85 4001 c12e 1700 4e4d 9100 a0ee 2c81
00000380: fe15 3a80 92f8 1700 2b14 a780 ab98 be80
00000390: eb15 a380 a471 c301 1185 2b80 450d a780
000003a0: 675b ab00 6636 1d00 3300 5500 8eef 4b80
000003b0: 1aeb d200 f02d 0c01 c338 1300 4cd6 0680
000003c0: 44a9 bf80 e4a1 6480 ccad d880 dde3 6600
000003d0: 1c2d 2f80 db7b 5e80 c647 2a00 0262 7580
000003e0: 492c 4e00 4d62 7680 ace2 6900 0704 9b80
000003f0: d1f0 8000 26de d480 5a3b 4000 9c43 8a00

gc3.bias f4 [256]
4.097034e-39 -1.5488269e-38 -6.895944e-39 -1.0596308e-06 -1.7961673e-38 -6.07824e-40 7.893828e-39 -1.964835e-39
-1.5568583e-38 -6.91264e-39 -1.3088254e-38 -3.466227e-39 -4.00434e-39 -5.677093e-39 -2.4591793e-38 -1.6209376e-38
-7.08234e-40 -4.39897e-39 9.396864e-39 -2.1641258e-06 2.285893e-39 -1.29574e-39 -1.002379e-38 7.532318e-39
5.70044e-40 -9.430939e-39 -9.909156e-39 -1.6496876e-38 1.528496e-39 -1.7476092e-38 -1.5599051e-38 1.090008e-38
2.8650722e-06 6.277865e-39 3.337108e-39 -3.96252e-40 -1.817773e-38 -1.652902e-39 3.5140334e-32 3.1106085e-38
-1.63187e-39 5.207692e-39 1.3822253e-05 2.3964023e-38 3.758801e-39 -7.489388e-39 -1.5549252e-38 6.379039e-39
-2.2958028e-38 -1.8713039e-38 -1.0919517e-38 6.3202734e-32 -2.0644243e-38 9.147175e-08 7.7207173e-38 4.962386e-39
6.365698e-39 -1.2606609e-38 5.749456e-39 -5.868041e-39 -1.5854116e-38 2.140493e-39 -8.732603e-39 -1.4110693e-38
6.13959e-39 1.5336857e-38 1.0572106e-38 7.088397e-39 -6.823868e-39 1.4456435e-38 1.3561415e-38 -2.0645082e-38
-8.860002e-39 -1.0491248e-38 -1.977566e-06 1.494067e-39 1.3155834e-38 -2.116203e-39 -8.3207e-39 -9.579764e-39
3.7092536e-32 -2.673854e-39 -1.018691e-38 -2.3039167e-38 8.331833e-39 7.614677e-39 1.605166e-39 8.43335e-39
1.7077e-38 -5.890483e-39 -1.1034966e-38 9.305447e-39 1.6648527e-38 9.8624e-40 -2.154854e-39 8.451738e-39
1.3658337e-36 1.5815985e-38 -9.590198e-20 -1.1211167e-38 1.7384063e-38 3.1718352e-38 -1.0527932e-38 -7.395199e-39
9.322504e-39 -1.0516158e-38 1.0818561e-38 8.47214e-17 -4.315903e-39 1.022452e-38 -6.427392e-39 -7.498065e-39
-2.5569874e-38 -1.050893e-38 -1.7590128e-38 -7.801488e-39 -5.4055494e-05 7.0592e-39 -5.781801e-39 -9.114356e-39
-1.1640428e-38 3.33808e-39 -1.633375e-38 -5.384124e-39 -2.895887e-39 1.5799939e-38 4.402398e-39 -4.280552e-39
1.4561219e-38 4.87554e-40 2.7035787e-38 -1.0298425e-38 -6.549006e-39 -7.339851e-39 3.9372289e-38 -1.8627888e-38
1.2298408e-38 -1.459681e-39 -4.067717e-39 8.300828e-39 -3.831458e-39 1.0584082e-37 -2.5881103e-38 1.6176416e-38
-2.026975e-39 -8.702442e-39 0.0026853227 -1.2820264e-15 -4.066362e-39 1.7163221e-38 5.69658e-39 -4.631255e-39
9.0796e-40 -1.6979e-40 -0.00049934705 9.349383e-39 -6.610631e-39 -1.059377e-38 2.0004575e-38 -1.7275903e-38
5.497993e-39 8.303765e-39 -5.184371e-39 -2.0407244e-38 -4.6727e-40 1.5655637e-38 -5.4783674e-38 -2.896316e-39
-9.749402e-39 3.341676e-39 -1.3535299e-38 -1.8193997e-38 -4.29152e-39 -9.705198e-39 -6.432335e-39 4.318454e-37
6.2486123e-07 -1.34e-39 -9.712244e-39 2.764127e-39 -1.2208213e-38 3.1727068e-38 -1.0741837e-06 -1.0173608e-06
-8.961487e-39 1.0278911e-38 -1.9367e-41 1.8146272e-06 3.8770857e-38 2.3237203e-38 -6.500317e-39 0.0011305022
2.126518e-39 1.9138794e-38 -1.643333e-38 -8.164361e-39 8.70219e-39 1.2148661e-38 -2.48783e-39 8.466975e-39
1.2805305e-38 -8.332572e-39 -1.2608662e-38 -2.137192e-39 1.1227306e-38 -1.6383348e-38 2.91306e-39 -7.221007e-39
9.625596e-39 1.0676384e-38 -9.399083e-39 -1.2821603e-38 -4.761618e-39 4.935072e-39 1.8040824e-38 -9.16264e-40
5.16963e-39 -1.3612892e-38 -5.34978e-40 -1.5600991e-38 -1.2206666e-38 9.538549e-39 -7.683884e-39 1.0879414e-38
-7.328734e-39 3.1622948e-38 9.194216e-39 3.4075846e-38 -6.711005e-06 8.54003e-40 1.5734659e-38 -2.047783e-38
1.6341881e-38 3.238799e-32 -1.5187162e-38 2.744586e-39 4.5635493e-38 1.0841992e-38 -3.71455e-40 4.469114e-39
1.92591e-39 3.568823e-39 1.218628e-39 8.922112e-39 3.7648938e-38 1.1577057e-38 -1.4211785e-38 5.1632105e-07
7.38151e-39 8.79631e-40 -7.705526e-39 1.673624e-39 -5.536404e-39 -1.5173029e-38 5.553428e-39 1.4788092e-38
00000000: dd9c 2c00 fea6 a880 1617 4b80 a338 8eb5
00000010: d695 c380 5e9e 0680 c8f4 5500 2965 1580
00000020: e086 a980 a145 4b80 ba84 8e80 6ebe 2580
00000030: 799a 2b80 6dd1 3d80 f5e3 0581 2581 b080
00000040: 45b6 0780 8ae6 2f80 a252 6600 663b 11b6
00000050: 24e4 1800 ff1b 0e80 4026 6d80 0a05 5200
00000060: 0d35 0600 9fb1 6680 b2e6 6b80 94a2 b380
00000070: d3a4 1000 3c4c be80 cfdb a980 fdb0 7600
00000080: 9145 4036 225c 4400 8056 2400 9750 0480
00000090: 1ef0 c580 9eff 1180 8475 360b 8e5b 2901
000000a0: fdc4 1180 edb4 3800 20e6 6737 f978 0201
000000b0: 02ee 2800 5e8d 5180 fd50 a980 2a76 4500
000000c0: a4fd f980 57c4 cb80 2ce7 7680 6c15 a40b
000000d0: c0cb e080 206f c433 8c2d d201 1d09 3600
000000e0: fa50 4500 1946 8980 259b 3e00 b6e5 3f80
000000f0: d3a2 ac80 d34e 1700 f216 5f80 dfa6 9980
00000100: aeda 4200 eb00 a700 bb1e 7300 912f 4d00
00000110: 2b4e 4a80 a96a 9d00 b5ab 9300 17ce e080
00000120: 157a 6080 553d 7280 53b6 04b6 da44 1000
00000130: 1d41 8f00 1d0b 1780 ba9a 5a80 7c50 6880
00000140: 7098 400b 9e1d 1d80 f6ec 6e80 d3df fa80
00000150: c3b9 5a00 9fea 5200 8d7a 1100 c0d4 5b00
00000160: baf3 b900 4524 4080 ff28 7880 cd53 6500
00000170: 5249 b500 3cbd 0a00 db76 1780 0208 5c00
00000180: 7362 e803 8838 ac00 3171 e29f 2c14 7a80
00000190: b24b bd00 eeb0 2c01 97a3 7280 ce86 5080
000001a0: 5983 6500 c582 7280 bfcd 7500 b05a c324
000001b0: fbfe 2e80 cd55 6f00 f4fc 4580 8ea5 5180
000001c0: 3437 0b81 9f6e 7280 1f8a bf80 60f3 5480
000001d0: a5b9 62b8 2dde 4c00 4ff5 3e80 1e3f 6380
000001e0: c7c0 7e80 3559 2400 dadb b180 bfa0 3a80
000001f0: 8e88 1f80 cd0b ac00 18f0 2f00 709c 2e80
00000200: c18e 9e00 1a4f 0500 6332 1301 d223 7080
00000210: f74f 4780 85ec 4f80 f65c 5601 f9d6 ca80
00000220: f5ea 8500 ffe4 0f80 244b 2c80 5563 5a00
00000230: 8cb8 2980 2510 1002 fee8 0c81 4425 b000
00000240: 6212 1680 dec2 5e80 3dfc 2f3b 6dc2 b8a6
00000250: 5d47 2c80 14e4 ba00 bf07 3e00 0e6e 3280
00000260: 06e3 0900 4ed9 0180 9de6 02ba 47ce 6500
00000270: c0fb 4780 1f5b 7380 9ed4 d900 301e bc80
00000280: 2bde 3b00 856b 5a00 eb73 3880 1837 de80
00000290: 8f16 0580 8c79 aa00 a622 9581 c089 1f80
000002a0: 5e29 6a80 3c63 2400 e862 9380 761d c680
000002b0: 03bb 2e80 25ae 6980 bc0a 4680 0af3 1203
000002c0: 23bc 2735 6097 0e80 c9c1 6980 4319 1e00
000002d0: 88ef 8480 14bd 2c01 ac2c 90b5 408c 88b5
000002e0: fb94 6180 6ced 6f00 fd35 0080 1e8e f335
000002f0: b016 5301 de07 fd00 3dc8 4680 5c2d 943a
00000300: de27 1700 2c67 d000 70f1 b280 ebe6 5880
00000310: 2ac2 5e00 8649 8400 0f17 1b80 7b32 5c00
00000320: fb6f 8b00 d2bb 5a80 d24b 8980 9f45 1780
00000330: 2941 7a00 1c66 b280 6db8 1f00 3ba1 4e80
00000340: 3fd0 6800 6a41 7400 d258 6680 6a9d 8b80
00000350: 74d9 3380 f9bc 3500 7a72 c400 2cfa 0980
00000360: d34a 3800 343b 9480 4dd3 0580 37e1 a980
00000370: 38eb 8480 98dd 6700 8bab 5380 6177 7600
00000380: 87cd 4f80 f52b 2c01 bc1d 6400 cc86 3901
00000390: 182f e1b6 9d4c 0900 d455 ab00 dcfb de80
000003a0: 84f2 b100 062b 280b a15f a580 cae2 1d00
000003b0: 9876 7801 100f 7600 770b 0480 12aa 3000
000003c0: a7f8 1400 6ddc 2600 0a45 0d00 3827 6100
000003d0: f6fa 4c01 2010 7e00 adc0 9a80 5099 0a35
000003e0: a660 5000 0e94 0900 dfe7 5380 6239 1200
000003f0: 3e49 3c80 3b38 a580 b378 3c00 2f07 a100

gc4.weight f4 [256, 256]
0.000676344 -9.460598e-39 -2.4555911e-38 0.0002819954 1.2295431e-38 5.224039e-39 -4.922261e-39 -3.129317e-39
1.4059504e-38 -1.1696864e-38 -8.240415e-39 -5.114639e-39 -1.8091095e-38 -9.27262e-40 -7.479e-42 1.028769e-39
-8.39347e-40 -8.443768e-39 7.5940915e-38 1.3926581e-25 2.6690594e-38 9.050164e-39 1.027625e-38 -1.7637763e-38
-1.324234e-39 2.7157983e-37 -1.1784071e-38 3.820235e-06 -4.0286823e-06 1.0265194e-38 8.1145607e-38 -1.6704704e-38
-9.756265e-39 -9.438482e-39 -2.401363e-39 -3.5501e-40 -4.864687e-39 8.384993e-39 8.92076e-39 9.824766e-39
1.195257e-39 -2.3694068e-38 8.939305e-39 3.5544295e-35 0.00060733425 -1.469948e-38 -4.939874e-39 -2.0765821e-38
-2.4956412e-11 -1.0840305e-38 7.431604e-07 1.4788491e-38 0.00066396984 -1.3891957e-38 -1.4513961e-38 1.6826933e-25
8.72455e-39 -1.568704e-38 8.7134e-40 6.313127e-39 -4.545343e-38 9.035197e-39 6.282122e-39 -2.93401e-39
5.288874e-07 -3.066305e-38 6.2010316e-17 1.1347166e-38 -2.932277e-39 9.780405e-39 1.1640229e-38 -1.2346817e-38
9.547774e-39 -1.1057417e-09 1.3702e-38 3.828228e-39 -9.066618e-39 -7.010167e-39 4.915892e-39 -1.3691115e-38
-1.1100369e-38 2.0141584e-38 1.2528432e-38 -1.46071e-40 -2.029213e-38 4.366467e-06 -7.167975e-39 1.2195631e-38
3.024585e-39 0.00033180564 -1.5390947e-38 -1.32588e-39 9.630865e-39 -1.3572552e-38 -3.8428517e-11 -1.6017913e-38
-5.599816e-39 8.766408e-39 -2.2890653e-38 5.619718e-39 -1.7304529e-09 5.516356e-39 1.773248e-39 2.06167e-39
0.00032470375 -1.0775168e-38 7.366235e-39 -2.24145e-40 -1.4990743e-38 1.1025734e-24 -7.88959e-07 -1.7668154e-38
-1.2481756e-38 3.4497272e-38 -9.88986e-40 -3.794111e-39 1.7516995e-38 5.985666e-39 -1.311501e-38 1.085452e-38
8.160127e-39 2.632206e-39 -5.228931e-39 -2.3238536e-06 -7.570858e-39 9.462125e-39 -1.22557e-39 6.9698244e-06
5.467599e-39 6.811594e-39 -1.4674906e-38 2.604571e-39 -2.574302e-38 1.3883335e-38 -9.87154e-21 9.521354e-39
8.278347e-39 -1.3426702e-38 4.522709e-39 9.783516e-39 -5.191919e-39 -1.6432247e-38 7.208613e-39 -1.4169501e-38
-1.4151485e-38 4.9686983e-05 1.0858467e-06 -3.183513e-39 4.01827e-40 7.656126e-39 1.2256388e-38 8.076461e-39
-5.593024e-39 3.6017087e-38 1.362041e-38 9.685053e-39 4.476924e-39 2.1124915e-06 -2.6034876e-38 -1.6187269e-38
1.7372991e-05 -5.35427e-39 1.029556e-38 -8.879968e-39 1.5676608e-38 1.2960485e-38 7.06242e-40 3.9482492e-38
-1.6504317e-38 -9.806952e-39 -8.179079e-39 -5.977122e-39 1.1694769e-38 -1.5704402e-38 1.109585e-38 2.791304e-39
-1.8162556e-38 -2.3769626e-38 9.688876e-39 6.128097e-37 -4.393724e-39 -7.154827e-39 -1.9619947e-38 1.5378718e-38
3.18759e-39 -1.9561817e-38 2.0582999e-38 4.242155e-39 -1.0458803e-38 2.1613116e-38 -1.0386856e-12 -1.2740503e-38
-8.763739e-39 -5.534896e-39 4.69305e-40 -2.87348e-39 -1.7546063e-38 1.4509948e-38 -1.4095248e-38 -1.807931e-39
-4.893068e-39 -7.444165e-39 -5.838439e-39 3.246703e-32 1.2013016e-38 1.1651587e-38 1.3106214e-38 -1.8491347e-38
-6.780533e-39 -5.607545e-39 -2.358476e-39 3.913518e-39 -4.146764e-39 -1.117786e-38 -3.590899e-39 1.4574434e-38
-4.509481e-39 2.2692326e-05 1.1615916e-38 7.26266e-39 -9.008029e-39 1.269405e-39 1.6463315e-38 -8.095524e-39
8.27391e-39 1.9899523e-38 -7.94689e-39 2.55681e-40 2.641206e-38 6.144171e-39 -1.4770427e-38 2.0847309e-38
-5.855108e-37 2.6948805e-38 -4.54144e-39 9.830493e-39 4.629751e-39 1.56874e-38 -1.7692657e-38 -1.4885688e-07
6.648962e-39 -2.139619e-39 -1.2182463e-38 -1.01605e-38 3.2748e-40 -2.1448494e-38 -2.4474395e-38 2.3554275e-38
9.723603e-39 -1.1983012e-38 1.0007e-39 8.483647e-39 8.6844e-40 5.1361e-39 -4.190741e-39 -7.961294e-39
00000000: ad4c 313a 4c04 6780 f2b1 0581 c8d8 9339
00000010: a9e2 8500 7fe2 3800 4399 3580 4313 2280
00000020: 2d18 9900 195e 7f80 edba 5980 88b1 3780
00000030: 9dfe c480 d418 0a80 d914 0080 ca33 0b00
00000040: c223 0980 caf1 5b80 18bb ce01 1967 2c16
00000050: 4251 1101 2d8c 6200 01e6 6f00 e80e c080
00000060: 6d6b 0e80 e1d3 b802 3251 8080 922f 8036
00000070: 1e2e 87b6 2fc7 6f00 3ce6 dc01 ebe5 b580
00000080: 7f3c 6a80 a6c6 6680 0626 1a80 a0dd 0380
00000090: c5f8 3480 f34d 5b00 7323 6100 73fb 6a00
000000a0: e403 0d00 b600 0181 2557 6100 63fc 3c06
000000b0: 8335 1f3a 2b10 a080 5cca 3580 a91e e280
000000c0: d884 dbad 5c0a 7680 987d 4735 4c08 a100
000000d0: 430e 2e3a 2045 9780 050b 9e80 ae4e 5016
000000e0: 7f00 5f00 16d1 aa80 f17c 0900 6ebe 4400
000000f0: d678 7781 7462 6200 0068 4400 d4f2 1f80
00000100: def8 0d35 0ef2 2681 6efc 8e24 488f 7b00
00000110: ffed 1f80 ca7f 6a00 39c0 7e00 e771 8680
00000120: 4ff7 6700 d4f8 97b0 9a33 9500 8baf 2900
00000130: 0bba 6280 7e55 4c80 8287 3500 4215 9580
00000140: 50df 7880 8b52 db00 2c6c 8800 3097 0180
00000150: 34f6 dc80 aa83 9236 660d 4e80 75cc 8400
00000160: 50ef 2000 33f6 ad39 b397 a780 0470 0e80
00000170: efde 6800 c1ca 9380 aa02 29ae 6d6b ae80
00000180: 02fa 3c80 2e75 5f00 d441 f980 7d31 3d00
00000190: e6d4 edb0 5b11 3c00 184f 1300 1973 1600
000001a0: 003d aa39 c954 7580 1136 5000 d370 0280
000001b0: 183c a380 6f9d aa17 dac8 53b5 a063 c080
000001c0: 0fea 8780 2ed2 3b01 e4c4 0a80 7050 2980
000001d0: 41be be00 9a2d 4100 50cf 8e80 fc31 7600
000001e0: 1ddb 5800 85a9 1c00 22f0 3880 80f3 1bb6
000001f0: 7970 5280 8e08 6700 6458 0d80 56de e936
00000200: 7189 3b00 f42b 4a00 abcb 9f80 7c5c 1c00
00000210: 8828 0c81 172d 9700 d777 3a9e a9ad 6700
00000220: aa24 5a00 2f34 9280 793f 3100 7688 6a00
00000230: f588 3880 6bee b280 ae7e 4e00 ce4a 9a80
00000240: 9518 9a80 fe66 5038 69bd 9135 57aa 2280
00000250: 2160 0400 2a5e 5300 d375 8500 e3f1 5700
00000260: 13e7 3c80 7e18 4401 2950 9400 fd75 6900
00000270: d8bf 3000 54c4 0d36 52bf 0d81 8543 b080
00000280: 37bc 9137 874d 3a80 d51b 7000 bdb1 6080
00000290: 01b4 aa00 8f20 8d00 b7b0 0700 90f6 5601
000002a0: 52b7 b380 cbc9 6a80 f20f 5980 c915 4180
000002b0: 4258 7f00 7c01 ab80 b7d2 7800 0565 1e00
000002c0: d1c5 c580 066a 0181 a580 6900 4187 5003
000002d0: ead7 2f80 bfe8 4d80 6ea4 d580 9c75 a700
000002e0: b4b5 2200 6302 d580 0721 e000 6731 2e00
000002f0: e3e2 7180 9358 eb00 982e 92ab 57bb 8a80
00000300: bd6d 5f80 0a45 3c80 3b1c 0500 184a 1f80
00000310: 490f bf80 d5ff 9d00 d17b 9980 c7af 1380
00000320: e247 3580 4e0f 5180 3193 3f80 1694 280b
00000330: 67cf 8200 e2df 7e00 cbb6 8e00 5a5a c980
00000340: 5ed5 4980 8e0f 3d80 79ae 1980 4c9d 2a00
00000350: 7e27 2d80 53b7 7980 f719 2780 98b3 9e00
00000360: 991a 3180 665b be37 737c 7e00 5715 4f00
00000370: b816 6280 96d2 0d00 0645 b300 0727 5880
00000380: 4b18 5a00 c6af d800 b288 5680 bcc8 0200
00000390: 0acd 0f01 73e7 4200 f1d5 a080 d101 e300
000003a0: 2f3d 4783 27b9 1201 b073 3180 6a0b 6b00
000003b0: dd69 3200 17d2 aa00 eea7 c080 78d5 1fb4
000003c0: 9a66 4800 634c 1780 c0a7 8480 57a3 6e80
000003d0: e290 0300 ad8d e980 5440 0581 de3d 0001
000003e0: 73e1 6900 c37b 8280 8be5 0a00 f560 5c00
000003f0: db74 0900 5bed 3700 15a2 2d80 d9b0 5680

gc4.bias f4 [256]
-5.032263e-39 -1.0230914e-38 -2.386626e-07 9.605956e-39 -2.49525e-39 3.6473282e-38 2.2200335e-33 -1.6131075e-38
-1.7948537e-38 -1.6075271e-38 -3.344677e-39 1.6782421e-38 -1.0074774e-38 -2.1997e-38 1.456392e-39 -1.3730773e-38
4.562126e-39 8.135547e-39 -5.994376e-39 1.3429239e-38 8.393401e-39 -1.711048e-39 -1.568715e-38 1.6716965e-38
8.123172e-39 -1.544789e-38 -4.169398e-39 -5.990676e-39 2.312078e-39 1.0541238e-38 8.26912e-39 7.605255e-39
-3.855723e-39 7.888041e-39 7.468136e-39 3.92392e-40 1.0744208e-38 -2.037513e-38 -4.919414e-39 -4.958918e-39
-1.5272732e-38 1.3306533e-38 -2.0436527e-38 -1.634945e-38 -2.3737733e-38 -1.223797e-38 1.5251505e-36 -8.459256e-39
5.576578e-39 5.01966e-39 -8.76451e-39 -1.8612207e-38 1.0335596e-37 -9.09789e-40 -1.0160811e-38 -4.5993e-40
9.080156e-15 -1.1037724e-38 1.3168184e-38 5.589236e-39 -1.6217193e-38 -7.529203e-39 -5.847911e-39 -3.969185e-39
-3.25583e-40 9.536378e-39 -4.679458e-39 -1.9107756e-05 1.1563892e-38 -8.48844e-40 2.308841e-39 8.39999e-40
-9.011927e-39 -3.194777e-39 1.4199296e-38 5.156078e-39 1.4204556e-38 -3.792372e-39 4.953004e-39 -1.8638088e-38
-8.565563e-39 -2.768342e-39 -1.1168405e-38 2.233179e-39 -7.092067e-39 -4.297243e-08 -6.269055e-39 -6.38454e-39
1.8037585e-38 4.221096e-39 1.1172972e-38 -2.19704e-40 1.207945e-38 3.269808e-39 6.289371e-39 5.146392e-38
1.5308346e-38 -3.401787e-39 -1.6725531e-38 -1.0850453e-38 6.783979e-39 7.742648e-39 0.00024054592 4.406827e-39
1.5757014e-38 -4.942562e-39 1.600314e-38 -2.407574e-39 5.907286e-39 1.0673766e-38 1.142978e-39 5.334172e-39
-4.275121e-14 2.777137e-39 -8.31924e-39 -2.6274e-40 -1.6406093e-38 1.90465e-39 3.4561323e-38 2.95686e-39
4.232835e-39 -6.204571e-39 2.311255e-39 -9.60306e-40 1.018419e-38 1.2894566e-38 1.1713249e-38 -1.291747e-38
6.6146467e-38 -8.628874e-39 7.231383e-39 1.6207192e-38 -8.524132e-39 9.358719e-39 -3.166597e-38 6.228884e-39
1.534284e-39 -1.8065772e-17 2.4778942e-07 -5.46071e-39 -5.451463e-39 -4.951006e-39 -9.028838e-39 1.273207e-38
5.115538e-39 -1.2799527e-38 3.09715e-39 1.730015e-39 3.95609e-39 1.1234318e-38 2.5022987e-38 -1.4646812e-38
1.872625e-39 -1.1655596e-38 -1.506532e-39 4.622917e-39 5.638295e-39 -2.678795e-39 -1.0738739e-38 -0.00068650994
2.0124285e-38 -2.083679e-39 1.0590204e-38 1.4935873e-38 7.025815e-39 -1.6771372e-38 1.739393e-38 -7.29477e-05
-7.227443e-39 -1.849914e-39 -1.327411e-39 8.48321e-40 -4.270422e-39 1.2855462e-38 -3.342472e-39 1.4875227e-38
-1.2689503e-38 7.88558e-39 9.697865e-39 -1.1584611e-38 -7.406141e-39 2.68807e-38 1.1551618e-38 -7.752815e-39
-5.2135e-39 -1.8542277e-38 1.673976e-39 1.3025201e-38 -1.1959679e-38 2.828326e-39 -5.066965e-39 -5.851402e-39
-4.296717e-39 5.756517e-39 7.895556e-39 8.61089e-39 4.027993e-39 -8.115736e-39 1.6535989e-38 1.680678e-39
1.024509e-38 7.605976e-06 6.388052e-38 -1.9569251e-38 1.6696585e-38 -4.55645e-40 -2.629747e-39 -8.024606e-39
-1.051474e-39 -1.4168767e-38 7.613863e-39 -1.1508483e-38 -1.3800799e-15 -8.36916e-40 -1.7031491e-38 -3.562314e-39
5.934233e-39 2.128425e-39 -3.643687e-39 -7.06049e-39 -5.088281e-06 1.0232744e-38 -5.1491e-39 -1.614218e-38
-2.188444e-39 -0.0005499971 1.2848318e-24 3.2456797e-38 4.206388e-39 7.882597e-39 2.184739e-39 9.675558e-39
1.2266628e-07 -5.52183e-39 1.7176999e-38 3.634186e-39 1.178095e-39 1.4047127e-38 -4.24001e-39 6.145163e-39
-1.250149e-38 1.2025154e-06 1.3414364e-38 3.006409e-39 5.31155e-39 -2.026367e-39 -2.9089273e-14 1.0130523e-05
-1.749262e-39 2.509759e-39 -1.9195338e-38 -1.152103e-39 1.738431e-39 -1.4413172e-38 -2.591039e-38 -4.435562e-39
00000000: e7cb 3680 a067 6f80 8a21 80b4 7f99 6800
00000010: be2b 1b80 5694 4601 e46e 3809 e0a6 af80
00000020: 3871 c380 510b af80 996b 2480 90be b600
00000030: 5fb4 6d80 b086 ef80 d4db 0f00 cf83 9580
00000040: 5aad 3100 9896 5800 e245 4180 413b 9200
00000050: 6365 5b00 b5a1 1280 64d1 aa80 1908 b600
00000060: 1974 5800 6f36 a880 9666 2d80 913b 4180
00000070: 222d 1900 afc8 7200 f10a 5a00 5bd0 5200
00000080: 30fc 2980 a6e4 5500 2052 5100 d445 0400
00000090: 7bfe 7400 93dd dd80 5391 3580 72ff 3580
000000a0: 2a4e a680 33e5 9000 b988 de80 9d07 b280
000000b0: 923d 0181 7b42 8580 d6be 0104 f71c 5c80
000000c0: 3bb9 3c00 c5a8 3600 e36f 5f80 43ab ca80
000000d0: 4cae 0c02 1fe8 0980 35a4 6e80 1902 0580
000000e0: d492 2328 af30 7880 8a63 8f00 84dc 3c00
000000f0: f096 b080 5bfc 5180 99ad 3f80 7938 2b80
00000100: 988b 0380 8bd7 6700 6df4 3280 9849 a0b7
00000110: 6deb 7d00 3b3e 0980 1c24 1900 9325 0900
00000120: 9621 6280 bdc9 2280 dc9d 9a00 0c25 3800
00000130: 86ac 9a00 974b 2980 f6ee 3500 68f3 ca80
00000140: 4e45 5d80 0325 1e80 f89c 7980 3251 1800
00000150: cc39 4d80 b090 38b3 9343 4480 8085 4580
00000160: 7369 c400 b3f6 2d00 b3a9 7900 7264 0280
00000170: 9888 8300 e59a 2300 357c 4400 1e19 8c01
00000180: 71b1 a600 cc0a 2580 fa1f b680 a626 7680
00000190: f9de 4900 5a4f 5400 0e3b 7c39 71fc 2f00
000001a0: 2594 ab00 dad1 3580 3e42 ae00 5637 1a80
000001b0: 1c53 4000 1e3a 7400 2872 0c00 8015 3a00
000001c0: ca88 40a9 873d 1e00 a896 5a80 6adc 0280
000001d0: 83a5 b280 64bd 1400 742b 3c01 8632 2000
000001e0: 6c17 2e00 d28f 4380 d72a 1900 f174 0a80
000001f0: 61e5 6e00 ce68 8c00 c68b 7f00 a7a8 8c80
00000200: 5c11 b401 caf5 5d80 27be 4e00 0f7b b000
00000210: d0d1 5c80 4de8 6500 ec67 2c81 98d3 4300
00000220: f6b4 1000 99a0 a6a3 eb07 8534 3d76 3b80
00000230: 765c 3b80 64e9 3580 ba50 6280 d5a3 8a00
00000240: 0ab4 3700 e05f 8b80 98b9 2100 94d6 1200
00000250: f813 2b00 b554 7a00 f43c 0801 5a7d 9f80
00000260: 1e64 1400 0feb 7e80 9967 1080 d056 3200
00000270: 4665 3d00 642b 1d80 3cef 7480 e7f6 33ba
00000280: 5222 db00 73b0 1680 2e51 7300 23a3 a200
00000290: 1d81 4c00 c39f b680 3367 bd00 80fb 98b8
000002a0: 2cb3 4e80 cf24 1480 4874 0e80 c63c 0900
000002b0: 3380 2e80 ccfb 8b00 7465 2480 15fa a100
000002c0: 2c2d 8a80 cadd 5500 b499 6900 2f25 7e80
000002d0: 4fa5 5080 3a5a 1201 36c9 7d00 b26b 5480
000002e0: 1ec5 3880 53e8 c980 5d3a 1200 f6d4 8d00
000002f0: b83a 8280 39cc 1e00 a32c 3780 54b7 3f80
00000300: 80c9 2e80 d4ae 3e00 99f9 5500 a8c3 5d00
00000310: 68dc 2b00 5f5f 5880 9c0f b400 0c4d 1200
00000320: 258f 6f00 d636 ff36 3ae6 ad01 1c17 d580
00000330: 49cf b500 27f6 0480 aaa2 1c80 5661 5780
00000340: 1573 0b80 c248 9a80 5ae8 5200 f850 7d80
00000350: f6e3 c6a6 fb1c 0980 de74 b980 48ca 2680
00000360: 3a9e 4000 2f2d 1700 1ead 2780 c6e1 4c80
00000370: 00bc aab6 ba6c 6f00 9911 3880 d5c5 af80
00000380: 7ed4 1780 ae2d 10ba 6ed1 c617 2cb6 3001
00000390: b3cd 2d00 79d5 5500 2aca 1700 855b 6900
000003a0: 40b6 0334 9e20 3c80 7c0a bb00 a292 2700
000003b0: 0dd4 0c00 adf5 9800 6c2b 2e80 37ea 4200
000003c0: 1121 8880 1d66 a135 ca11 9200 a5bc 2000
000003d0: 71d6 3900 b010 1680 a601 03a9 44f6 2937
000003e0: 3b0c 1380 3054 1b00 cb04 d180 988b 0c80
000003f0: 0aee 1200 0ff2 9c80 d011 0d81 8b4c 3080
