6lsaved100.model (torch, 960039 bytes, 12 tensors)

gc1.weight f4 [3, 64]
1.9209645e-05 0.00072211766 -6.9254697e-06 0.00019253835 1.979527e-26 7.081366e-32 -0.0011346324 -2.3885405e-05
0.0022707928 1.1836099e-17 -1.0215527e-05 -1.3628168e-31 -1.3121826e-12 4.5237404e-32 -4.49955e-16 -2.5981198e-10
4.0864863e-29 -5.216788e-29 -9.394538e-05 -8.4795865e-05 -6.915352e-21 6.6879843e-29 -1.9011143e-21 -1.6904359e-07
-8.314563e-32 1.9153914e-24 -0.00067840144 7.07954e-20 2.4195312e-23 -2.7780325e-05 3.6292768e-08 1.6467697e-25
0.0032450892 -0.0014970929 -0.0010274672 1.0781197e-12 -4.521875e-22 5.2680696e-32 -4.0708797e-34 -8.037368e-10
-1.6322674e-05 5.760518e-34 -3.172703e-05 4.389541e-05 -1.2594016e-15 -1.3882827e-13 1.915865e-06 8.853953e-18
-0.00077608065 -9.556319e-32 -3.334721e-32 2.1128358e-34 -4.8525956e-19 -1.5728157e-32 -4.046937e-34 -5.8984597e-07
-2.4537902e-08 -0.0002497404 1.8777827e-08 -1.2408725e-07 -3.4648031e-34 -4.4960796e-27 1.2352598e-20 3.9915042e-33
-0.0001367272 -0.0028445167 1.6456659e-05 -0.00075982546 1.9977388e-26 -3.2030152e-31 0.001257273 -0.00016699053
0.0037742555 7.2567556e-17 -9.453193e-06 -7.0938874e-31 -4.3633585e-24 -6.370083e-35 -1.5413316e-16 -1.6268531e-10
1.3357403e-28 4.1550392e-29 -2.5632908e-06 -0.0010641927 7.099827e-21 1.9820227e-30 -2.3510808e-21 -1.7974347e-07
-1.1669705e-31 1.6307323e-24 -9.189245e-05 -1.3311181e-20 4.9284912e-23 1.3631276e-06 -1.3588688e-09 1.7216463e-25
0.001974518 -0.003497918 -0.001524003 -6.082131e-28 5.6112276e-29 6.254974e-33 1.7466469e-33 -5.8269314e-09
-0.000101068144 -3.198818e-33 -0.00020132704 -0.00021912486 -1.8350313e-35 -1.5512648e-13 3.5726985e-06 -7.032504e-18
-0.0016929468 -1.274206e-31 9.4031884e-32 -2.0411637e-33 -7.461386e-19 -2.1878924e-32 9.718127e-35 2.8092482e-23
-4.1277062e-07 -0.00066355173 -4.4677897e-08 -4.4562984e-08 -6.901921e-33 -1.4150152e-27 2.8419603e-29 3.3062032e-31
1.6675418e-28 4.2359076e-07 1.9607721e-33 -4.793769e-27 -1.4320463e-26 1.1613812e-31 2.7470039e-08 -1.7972331e-27
-5.672365e-15 -1.0920513e-18 -3.3196818e-07 -1.2952681e-32 4.793678e-38 2.4361484e-38 4.023901e-17 -1.4690066e-35
1.4877217e-29 4.3550636e-30 1.1132383e-11 2.481959e-24 -1.3150546e-21 9.1953706e-30 9.51015e-22 4.3895954e-09
5.197081e-32 5.734502e-25 6.384165e-11 -1.8917108e-20 1.072934e-23 2.3654077e-07 -2.0224901e-38 -1.1394833e-25
1.6048162e-23 -9.975427e-19 1.1363624e-19 -9.553349e-30 -2.633097e-38 -2.0717494e-32 3.6774473e-34 2.5718579e-12
-1.4515143e-30 8.963109e-34 1.0837948e-28 6.109198e-29 -1.7439435e-38 1.1862353e-14 -2.8889048e-33 1.7045244e-18
-2.9312867e-16 -9.682503e-33 3.5977485e-33 -4.6631356e-35 -7.054603e-20 -7.1645374e-33 1.8318272e-36 -1.1003185e-37
-4.560293e-34 -9.831914e-25 9.802855e-38 2.3563424e-35 -1.4662054e-33 -4.142241e-27 5.924788e-38 -2.5652843e-32
00000000: 6624 a137 7f4c 3d3a 5561 e8b6 1fe4 4939
00000010: f90a c414 c0d7 b70b f2b7 94ba 845d c8b7
00000020: 95d1 143b 6656 5a23 5b63 2bb7 5be7 308c
00000030: 5cac b8ab d3e2 6a0b d2b0 01a6 49d5 8eaf
00000040: a035 4f10 e442 8490 8b04 c5b8 6fd4 b1b8
00000050: 97a0 029e 808f a910 e6a4 0f9d 5982 35b4
00000060: c0db d78b 3c32 1418 c0d6 31ba 3229 a71f
00000070: b100 ea19 cb09 e9b7 52e0 1b33 37dc 4b16
00000080: 90ab 543b 1a3a c4ba 14ac 86ba 5bbb 972b
00000090: 50aa 089c 54c4 880b 3747 0788 f3ed 5cb0
000000a0: adec 88b7 116d 3f08 a412 05b8 561c 3838
000000b0: b87f b5a6 864e 1caa 4f92 0036 9c53 2323
000000c0: e471 4bba a218 f88b 0c26 2d8b 0a6c 8c07
000000d0: 2d39 0fa1 9d54 a38a 887b 0688 e855 1eb5
000000e0: 6bc7 d2b2 97ef 82b9 e14c a132 d83c 05b4
000000f0: 9246 e687 aa1b b293 8055 691e f4cc a509
00000100: 6e5e 0fb9 126b 3abb 680c 8a37 062f 47ba
00000110: b2d8 c514 38e3 cf8c 15cb a43a 2e1a 2fb9
00000120: 8059 773b 5354 a724 2899 1eb7 b635 668d
00000130: 9ccc a898 8a58 a986 14b4 31a5 d8df 32af
00000140: 4053 2911 7eaf 5210 0005 2cb6 627c 8bba
00000150: a81c 061e 00cd 200e 84a4 319d 82ff 40b4
00000160: 3f7b 178c f657 fc17 62b6 c0b8 ec70 7b9e
00000170: c453 6e1a b5f4 b635 f2c2 bab0 2621 5516
00000180: ea66 013b 533d 65bb 0ec1 c7ba 1cc0 4092
00000190: f342 8e10 25e9 010a 121b 1109 3b36 c8b1
000001a0: 8cf4 d3b8 abdf 8489 511b 53b9 e2c4 65b9
000001b0: 4e22 c385 2aa8 2eaa 7ec2 6f36 10ba 01a3
000001c0: dee5 ddba c266 258c e81e f40b c092 2989
000001d0: a338 5ca1 2834 e38a 132d 0107 cfd8 071a
000001e0: c39a ddb4 34f2 2dba dee3 3fb3 8565 3fb3
000001f0: e858 0f8a d637 e092 c11a 1010 b995 d60c
00000200: d362 5311 df69 e334 03e5 2209 98e6 bd93
00000210: b0d2 8d94 83c1 160c 41f7 eb32 3864 0e93
00000220: 555e cca7 8828 a1a1 5c39 b2b4 2282 868a
00000230: 0f7f 8201 f4a2 0401 d791 3924 2a36 9c85
00000240: 77df 960f 91a9 b00e ccd7 432d 4308 4018
00000250: b6b9 c69c 1881 3a0f 9cb6 8f1c 4ad3 9631
00000260: 87ec 860b 6879 3117 a763 8c2e c3aa b29e
00000270: 1e89 4f19 d5fb 7d34 cc3a dc80 ab0f 0d96
00000280: 5335 9b19 1936 93a1 7228 0620 d3c3 418f
00000290: 045c 0f81 8c24 d78a 8668 f407 79fa 342c
000002a0: 8c85 eb8d d9ec 9408 2763 0911 f6e2 9a10
000002b0: 0de6 bd80 73b1 5528 3600 7089 1c8b fb21
000002c0: 28fa a8a5 0419 498a d371 9509 50ef 7786
000002d0: 7592 a69f 37cd 148a aad5 1b04 81c4 1582
000002e0: af8a 1788 3924 9897 f76d 0502 be91 fa05
000002f0: 7b9d f388 5017 a493 bf49 a101 7a32 058b

gc1.bias f4 [64]
-3.1382373e-05 0.0018730367 -5.376922e-05 -0.0011018392 9.864719e-27 7.579585e-31 -0.00031997816 -0.0005125518
-0.009046794 -2.9330812e-17 -7.1880672e-06 -5.332286e-31 -2.929163e-10 1.0755368e-30 -1.1582675e-16 -8.700503e-08
5.6693166e-29 -7.005797e-29 5.6032295e-05 -0.0003198586 -8.197299e-21 -1.407427e-29 -3.830124e-21 -1.2597465e-08
-2.0218682e-31 5.340949e-25 0.00038917057 1.3675441e-19 2.4301935e-23 2.2869042e-05 -3.1740632e-07 -2.0551017e-25
-0.005418043 8.7156135e-05 0.001415534 -6.7401904e-12 2.919817e-19 -2.349435e-32 -5.340466e-34 -2.0010698e-09
-7.146768e-05 -3.7027235e-33 -4.3960725e-05 -0.000120759214 -2.0323971e-14 -2.649121e-13 -4.0294017e-05 -3.5928106e-18
-0.0024242792 -1.0956092e-31 1.114378e-32 2.1825075e-34 -8.498984e-19 -2.4171834e-32 1.4639879e-34 -1.3153307e-06
-1.6071242e-06 0.00041812178 -2.5688527e-07 -2.6628713e-06 -1.0986075e-32 2.3995132e-26 -5.064099e-16 -3.7937282e-31
00000000: 91a0 03b8 af80 f53a 4386 61b8 976b 90ba
00000010: 1164 4314 bbf8 750d bec2 a7b9 c55c 06ba
00000020: 0139 14bc b643 07a4 0731 f1b6 e60a 2d8d
00000030: 4e08 a1af 0d84 ae0d 068a 05a5 85d7 bab3
00000040: f8bb 8f10 399e b190 3804 6b38 b2b2 a7b9
00000050: b5d7 1a9e e5ba 8e8f b0b2 909d 3d6c 58b2
00000060: 0c3a 838c 5c4b 2517 9709 cc39 7c73 2120
00000070: ad08 eb19 e5d6 bf37 fe67 aab4 c668 7e96
00000080: d789 b1bb 98c7 b638 7089 b93a 3d26 edac
00000090: 075b ac20 b2fa f38a a977 3188 3183 09b1
000000a0: ebe0 95b8 1cce 9989 7862 38b8 1c40 fdb8
000000b0: e30f b7a8 db21 95aa 5f01 29b8 238d 84a2
000000c0: a8e0 1ebb dc37 0e8c 7f72 670a 710d 9107
000000d0: 82d8 7aa1 c203 fb8a ed98 4207 6b8a b0b5
000000e0: 5eb4 d7b5 5b37 db39 0bea 89b4 c8b3 32b6
000000f0: fe2b 648a e3a2 ed14 75f6 11a6 1f3a f68c

gc2.weight f4 [64, 128]
-2.5471088e-38 -4.706849e-07 -8.416242e-08 -3.421793e-13 3.871978e-38 2.299337e-39 -8.136134e-38 1.2591541e-25
4.00803e-39 -3.9354918e-38 -1.3297546e-07 -4.863248e-11 -3.6087654e-11 2.1493838e-38 1.0236711e-10 1.6954555e-38
7.7330355e-27 -9.170998e-37 5.297718e-30 -1.6780087e-08 -3.516903e-16 -2.605528e-26 -7.726288e-12 -2.6086724e-38
5.535594e-35 -1.7161328e-06 2.8735637e-38 9.878352e-38 -8.123189e-09 -3.3401887e-32 -1.6784235e-05 1.0688672e-07
-1.0936315e-08 -1.7486435e-08 3.0862883e-29 2.4208303e-34 -9.428357e-35 2.0370272e-37 -5.3077082e-24 -2.0457984e-12
-4.0726594e-37 -7.796456e-09 3.1697455e-38 -1.5160633e-09 1.5595077e-38 -5.430418e-39 -2.0790259e-07 -6.4579315e-21
-4.1517234e-07 1.2401697e-37 1.2719471e-26 3.22625e-35 -6.455076e-09 -6.7507426e-06 6.146284e-07 -2.3165673e-13
-9.311621e-11 5.984366e-09 -1.2694356e-37 1.9168604e-10 -5.5028746e-13 1.6778887e-06 9.97388e-38 -6.6134035e-06
-1.192153e-12 -1.0196186e-34 -5.6744074e-07 -2.6505134e-38 2.746188e-31 -1.7558956e-06 -1.08535436e-32 -3.0572527e-38
-2.5042226e-08 -1.1118091e-06 -2.0918199e-35 4.4691144e-38 -1.4600248e-37 5.459786e-38 -2.187451e-38 -2.4553185e-38
-1.9890986e-05 -9.919392e-08 2.0096868e-38 1.0172175e-38 -8.563152e-09 -2.7253588e-09 -1.0249193e-20 -1.4975817e-20
1.2916305e-29 -1.7540022e-38 1.4903699e-05 -3.8624076e-38 -2.4928875e-38 9.7649284e-12 8.13753e-38 -3.2241525e-09
-1.4627681e-08 4.1776757e-30 -1.2974401e-38 1.6965178e-34 4.899564e-37 3.540232e-12 -3.3947374e-05 1.2057386e-06
-1.7038345e-05 -2.1959071e-37 3.6212383e-38 9.436899e-38 -1.5624251e-22 -9.207836e-09 1.13454576e-35 -1.8252842e-07
-5.2140766e-08 -5.7045295e-08 1.0093456e-07 -4.338346e-32 9.161395e-38 -2.293991e-05 -9.556705e-07 -2.521525e-38
9.646423e-34 -2.7471239e-09 4.2356633e-36 -1.777602e-32 4.624629e-30 -2.886571e-38 1.7297845e-22 -4.7717947e-07
-2.6059352e-36 1.0312292e-07 -2.5769071e-07 -5.7456278e-15 6.733735e-17 1.5562446e-32 1.8804237e-37 7.4328866e-23
-2.8005854e-18 -4.567541e-36 -2.0812058e-07 -1.3402945e-09 -6.942986e-11 9.91764e-28 -2.3633158e-08 -1.9181287e-34
-2.0172832e-32 -3.7439462e-26 -3.2202664e-27 -1.5169503e-07 -1.6228669e-12 7.502969e-30 -3.2981014e-11 8.084774e-34
-6.134803e-37 -4.6499105e-07 -1.8192636e-28 1.5182966e-37 6.402661e-08 1.9111196e-36 2.6499777e-06 -1.4705671e-06
-9.005666e-07 -3.6648892e-08 -1.6760429e-21 2.757216e-35 3.8790708e-35 -8.499588e-36 -8.371195e-18 2.6822357e-11
8.304179e-39 -1.1211829e-08 1.3363692e-15 -1.2269233e-08 -2.0103244e-11 -6.1136105e-37 -2.2376095e-07 -3.7670484e-21
-2.3760829e-06 -9.04154e-39 -1.3016595e-18 -1.0398094e-36 -1.9923991e-08 -3.3845063e-05 -6.2966074e-06 -6.8892065e-13
-2.550433e-09 2.990535e-07 -4.439855e-37 1.5110395e-07 -2.7118167e-12 -5.0871884e-05 -3.0495784e-12 -8.381049e-07
1.539674e-11 -2.139419e-34 -5.8888727e-06 -1.0902852e-17 2.7144541e-33 -2.795291e-06 2.4819397e-34 2.648923e-36
-1.4581589e-07 -4.009603e-07 2.2086437e-32 1.32428795e-05 -3.1507528e-37 4.118498e-09 8.3501884e-16 -1.0287923e-11
-2.539741e-05 -4.5556985e-07 -2.2125784e-35 -8.9676807e-38 1.7461585e-07 8.498797e-08 -7.4115274e-14 7.9417555e-26
2.2519792e-29 -3.905059e-34 -8.642783e-05 -1.9234259e-27 3.3302127e-16 -8.516142e-09 1.0973974e-14 -5.4094844e-08
-5.17304e-07 -2.429722e-26 -1.4352781e-28 8.251925e-33 1.9825146e-35 -1.708812e-10 -2.9761888e-05 -6.3696557e-06
2.389177e-06 -7.0108707e-37 5.981735e-14 2.2369717e-14 -1.8980666e-16 -2.8118296e-07 -3.855643e-34 -4.4788246e-07
-5.342568e-08 -4.6109982e-09 -3.8130464e-05 -3.469336e-28 4.86979e-12 -0.000114732116 -2.609445e-06 -3.4205718e-27
4.767381e-35 -1.2295514e-07 4.570916e-36 -5.7856696e-25 3.5865858e-27 -1.3833002e-34 -2.8210546e-21 -2.8921393e-05
00000000: 84ad 0a81 71b2 fcb4 c8bc b4b3 3ca1 c0aa
00000010: 7fcf 5201 9e09 1900 947c dd81 30e0 1b16
00000020: c2a4 2b00 c044 5681 04c8 0eb4 4ee3 55ae
00000030: 16b7 1eae 130c ea00 8f1b e12e 679e b800
00000040: 262b 1914 5409 9c83 a6e6 d60e cd23 90b2
00000050: 54bc caa5 fe04 0195 1cec 07ad 9607 0e81
00000060: 4d29 9306 e055 e6b5 a273 1c01 0875 0602
00000070: 2a8e 0bb2 b96e 2d8b dfcb 8cb7 9989 e533
00000080: 6ce2 3bb2 1435 96b2 507e 1c10 4be4 a007
00000090: 13a6 fa86 05a2 8a02 ff54 cd98 d4f5 0fac
000000a0: de95 0a83 2df1 05b2 ce93 2c01 bc5d d0b0
000000b0: bbd0 a900 cc21 3b80 d43b 5fb4 48f9 f39d
000000c0: dae4 deb4 9bcd 2802 61ef 7b14 7089 2b06
000000d0: 73cb ddb1 7084 e2b6 f1fc 2435 4169 82aa
000000e0: c4c3 ccae 0a9f cd31 60c9 2c82 d3c2 522f
000000f0: 64e4 1aab d133 e135 e6c1 0702 b4e8 ddb6
00000100: d7c7 a7ab d387 0787 3b52 18b5 c44e 1081
00000110: e03c b20c 1dac ebb5 566b 618a e273 2681
00000120: 701c d7b2 7839 95b5 c170 de85 5d52 7301
00000130: 70ba 4682 28a1 9401 3c31 ee80 25ae 0581
00000140: 91db a6b7 6f04 d5b3 e4d5 da00 e3c3 6e00
00000150: 241d 13b2 0549 3bb1 0e9a 419e 4e71 8d9e
00000160: a5fc 820f 72fe be80 e60a 7a37 1b4a 5281
00000170: c8b9 0781 54c9 2b2d 4f86 dd01 e48f 5db1
00000180: 394d 7bb2 7777 a90e 5a47 8d80 8281 6107
00000190: 39b9 2603 261f 792c b762 0eb8 ddd4 a135
000001a0: 91ed 8eb7 1972 9582 b228 4501 cb72 0002
000001b0: b7e2 3c9b 7e30 1eb2 8c4a 7105 08fd 43b4
000001c0: 61f1 5fb3 f701 75b3 5cc1 d833 8242 618b
000001d0: 9b65 f901 156f c0b7 9744 80b5 ee48 0981
000001e0: 5847 a008 eac7 3cb1 4a2a b404 c498 b88a
000001f0: e598 bb0e ed28 1d81 3d1e 511b 8617 00b5
00000200: 3eb0 5d84 6d74 dd33 be58 8ab4 1002 cfa7
00000210: f544 9b24 149c a10a 34f3 7f02 57b7 b31a
00000220: 90a5 4ea2 1e48 c284 c077 5fb4 6c35 b8b0
00000230: 89ad 98ae ba26 9d12 dd01 cbb2 8af6 7e87
00000240: 967c d18a 2864 3995 c322 7f93 9de1 22b4
00000250: f165 e4ab a42d 180f 520d 11ae d354 8608
00000260: acc1 5083 e2a3 f9b4 7b9e 6691 eaa8 4e02
00000270: 007f 8933 8094 2204 45d6 3136 4d60 c5b5
00000280: 77be 71b5 e267 1db3 c546 fd9c 4899 1206
00000290: 2d3f 4e06 29c4 3485 da6b 1aa3 94ee eb2d
000002a0: ac6c 5a00 259e 40b2 5297 c026 a8c8 52b2
000002b0: 7bd4 b0ad 0f09 5083 f142 70b4 a850 8e9d
000002c0: cb74 1fb6 2374 6280 4e17 c0a1 16ea b083
000002d0: 5225 abb2 dcf4 0db8 7247 d3b6 f7e9 41ab
000002e0: b143 2fb1 9a8d a034 9814 1783 233f 2234
000002f0: bfd3 3eac 455f 55b8 5298 56ac 21fa 60b5
00000300: 606e 872d 5430 8e87 0899 c5b6 431f 49a3
00000310: 0e82 6109 bc96 3bb6 04f4 a407 6f58 6104
00000320: 9191 1cb4 9043 d7b4 d25b e50a bc2d 5e37
00000330: db6d d682 b182 8d31 84ad 7026 b0fc 34ad
00000340: 860c d5b7 0b95 f4b4 1d48 eb85 9d1f f481
00000350: 0a7e 3b34 a182 b633 8ce4 a6a9 dba0 c415
00000360: b960 e40f 91c4 0188 9740 b5b8 b663 1893
00000370: 44f9 bf25 634e 12b2 86b0 4528 e955 68b3
00000380: dcdc 0ab5 c5a0 f094 70f1 3591 c262 2b0a
00000390: 2ed1 d205 c8e2 3baf 2ba9 f9b7 edba d5b6
000003a0: c055 2036 4c91 6e83 5bb2 8629 0e7d c928
000003b0: 0ad5 5aa5 7ef5 96b4 2f20 0088 7f74 f0b4
000003c0: 2876 65b3 c56e 9eb1 46ee 1fb8 32e5 db91
000003d0: 2b57 ab2c 569c f0b8 ec1d 2fb6 b880 8793
000003e0: 3a7a 7d06 a705 04b4 de6c c204 cc0e 3397
000003f0: 4d14 8e13 44df 3787 2227 559d 389c f2b7

gc2.bias f4 [128]
-9.0864816e-11 -0.0038472107 -0.0028001796 -0.0008561006 -6.064994e-13 -1.3284285e-06 -9.488555e-12 -0.00011004328
-7.0408396e-10 -7.720035e-05 -0.006223909 -0.0019479613 -0.00095563865 -0.0041134763 -0.0034301488 -5.346421e-06
-1.7950317e-05 -0.00362492 -5.371785e-06 -0.0024358204 -0.0021408894 -4.630627e-06 -0.00083387806 -0.0069285943
-2.292918e-09 -0.00034178328 -4.0535613e-11 5.098422e-19 -0.0077085057 -2.7415979e-06 -0.013132707 -0.005412429
-0.00091310014 -0.0034251998 -0.0001504015 -1.7609814e-06 -4.3518924e-08 -1.9825252e-07 -0.0009862647 -0.0002424414
-7.544142e-14 -0.0015552545 4.7546033e-13 -6.5909284e-05 1.4379862e-09 -8.0789214e-16 -0.0010402002 -9.136548e-05
-0.0027939035 -2.46662e-15 -0.0007452548 -4.5197783e-08 -0.0019283954 -6.7102585e-05 -0.00070808723 -0.0008632635
-0.0015708779 -0.02079603 -6.8845544e-14 -0.0023810782 -0.0015921181 -0.010245504 1.134081e-09 -0.0025777908
-0.0012640157 -7.142471e-07 -0.0096587725 5.384275e-15 -7.692389e-07 -0.0057011186 -1.5210388e-06 -7.4851364e-08
-0.0034704935 -0.006508051 -6.9883613e-06 -0.15547492 -7.416591e-16 -4.473075e-06 1.7392926e-13 -0.057933472
-0.00086294557 -0.0039253472 -2.9057295e-08 -1.1730738e-12 -0.0017510073 -0.0017550421 -0.00022850907 -0.00051765126
-3.1695688e-06 -3.978084e-05 -8.785852e-05 -0.0068537407 1.5983275e-13 -0.002920151 -1.8246613e-11 -0.0030819464
-0.0031895016 -0.00020319322 -0.007881827 -1.2879783e-05 -3.2917575e-05 -0.005090723 -0.00031534978 -0.005937006
-0.005290243 -4.9908117e-06 -9.936935e-12 -8.9574485e-12 -0.00015769029 -0.0033655213 -3.7454822e-07 -0.00051876006
-0.002192414 -0.0034443664 -0.00021112151 -0.0004119896 -0.06289967 -0.00088443764 -0.0025153433 -0.00054715405
-6.2712143e-06 -0.0006719811 -3.3086507e-12 -0.00053461717 -0.00016956026 -8.667803e-07 -6.986079e-05 -0.0049598436
00000000: 58d0 c7ae 7c21 7cbb 3883 37bb f06b 60ba
00000010: e3b6 2aab 754c b2b5 a7ec 26ad 09c7 e6b8
00000020: 8189 41b0 9fe6 a1b8 eff1 cbbb bc52 ffba
00000030: d383 7aba 57ca 86bb 59cc 60bb 6865 b3b6
00000040: 0394 96b7 1190 6dbb 483f b4b6 49a2 1fbb
00000050: 2a4e 0cbb c860 9bb6 9c98 5aba 4309 e3bb
00000060: 7191 1db1 6031 b3b9 0b47 32ae 967a 1621
00000070: a297 fcbb 4bfc 37b6 912a 57bc bf5a b1bb
00000080: 1d5d 6fba 5179 60bb 18b5 1db9 dc5a ecb5
00000090: 90e9 3ab3 3ddf 54b4 8d45 81ba de37 7eb9
000000a0: 05e1 a9a9 aed9 cbba 87d4 052b c738 8ab8
000000b0: a4a2 c530 ebdb 68a6 5457 88ba 789b bfb8
000000c0: ec19 37bb 1cbd 31a7 345d 43ba 7d1f 42b3
000000d0: 36c2 fcba 6db9 8cb8 ee9e 39ba a24c 62ba
000000e0: eae5 cdba 705c aabc c106 9ba9 dd0b 1cbb
000000f0: 9eae d0ba c2dc 27bc eedd 9b30 27f0 28bb
00000100: 54ad a5ba b0ba 3fb5 d43f 1ebc 2cfd c127
00000110: b27d 4eb5 73d0 babb 7f26 ccb5 f9bd a0b3
00000120: 3871 63bb 7d41 d5bb 917d eab6 d134 1fbe
00000130: c8c4 55a6 6c17 96b6 b2d3 432a a64b 6dbd
00000140: 4c37 62ba 33a0 80bb ab99 f9b2 7018 a5ab
00000150: 0e82 e5ba 7109 e6ba f09b 6fb9 fdb2 07ba
00000160: c7b4 54b6 5ada 26b8 af40 b8b8 5895 e0bb
00000170: a7f4 332a 0160 3fbb b87f a0ad 7bfa 49bb
00000180: f506 51bb 4410 55b9 c722 01bc 3f16 58b7
00000190: fa10 0ab8 14d0 a6bb 8855 a5b9 378b c2bb
000001a0: c659 adbb bf76 a7b6 facf 2ead c394 1dad
000001b0: aa59 25b9 1490 5cbb 8415 c9b4 66fd 07ba
000001c0: 9aae 0fbb e1ba 61bb 8060 5db9 4f00 d8b9
000001d0: 8bd1 80bd 9bd9 67ba 75d8 24bb e36e 0fba
000001e0: 526d d2b6 e327 30ba 5ad3 68ac 8d25 0cba
000001f0: fccb 31b9 b0ac 68b5 3a82 92b8 2f86 a2bb

gc3.weight f4 [128, 256]
9.460647e-31 1.0581115e-38 4.057434e-39 -1.225684e-39 2.762189e-39 5.469203e-39 1.5647154e-38 -1.2388338e-37
1.553325e-39 -8.660825e-39 1.0924506e-38 2.98837e-38 2.048711e-06 1.8649388e-38 -1.1953666e-38 3.9092847e-38
1.23189e-39 7.3091e-40 -5.550308e-39 -3.816736e-39 1.5066898e-38 9.655955e-39 1.5615871e-38 -1.697258e-39
-9.307799e-39 -1.5768652e-38 9.605378e-07 3.607828e-39 1.4907234e-38 6.943818e-39 -2.8842963e-38 -3.9331797e-38
-1.7490408e-38 -1.6289115e-37 1.8432638e-07 6.9758274e-38 -2.0111346e-38 -3.683207e-39 5.769193e-39 -1.3869484e-32
-2.0102645e-38 -1.2340157e-38 -6.478353e-38 1.39499e-38 2.0679735e-38 3.310905e-38 2.432732e-38 -9.766993e-39
-1.6032567e-38 4.806828e-39 -2.8147473e-38 -9.17366e-39 -2.475558e-34 -5.695077e-39 -3.700144e-39 -1.1683574e-38
-1.530377e-38 -1.0416261e-06 -9.605576e-39 7.568022e-39 -4.561402e-39 -4.655779e-39 3.83439e-40 4.5367783e-38
-2.384108e-39 -4.6143281e-38 -1.9232332e-38 8.62407e-39 3.4913253e-38 9.273107e-39 -3.548911e-38 -1.5662149e-38
1.2224426e-38 1.8576596e-38 2.4216876e-38 3.904582e-39 -4.27243e-39 1.6574549e-37 -7.161703e-05 8.513224e-39
-2.4604494e-38 3.806238e-39 2.1486713e-38 3.91988e-38 1.6951775e-38 1.300217e-38 -3.501768e-38 6.829779e-39
-1.555754e-37 2.169283e-39 -2.0018017e-38 1.5228111e-38 -4.4962006e-38 1.8499536e-38 1.3506153e-38 -3.9405975e-37
-6.956137e-39 2.0937529e-07 7.441049e-39 1.1709593e-38 -3.5083292e-38 -1.0233476e-05 1.3135672e-38 2.9395458e-38
-6.544533e-39 -3.354433e-38 -3.425371e-38 -8.11372e-39 -1.3653177e-38 8.579771e-39 3.8206292e-07 2.472015e-38
5.645048e-37 2.2220314e-38 1.1776034e-38 -2.346382e-39 2.6988353e-38 -2.276414e-38 2.9119173e-38 -3.479963e-38
1.7015763e-38 -8.0743854e-07 -1.2921403e-38 -4.14405e-39 1.467211e-38 2.2959023e-38 2.75663e-38 -2.290173e-39
3.4363106e-38 1.155838e-38 8.087874e-39 7.20295e-40 -0.00023767758 2.466268e-38 -5.32227e-39 -2.668626e-38
2.0413763e-22 -8.027374e-38 6.504966e-39 9.137426e-06 1.1867399e-37 4.939154e-39 1.8125301e-38 1.4276737e-38
6.187121e-39 3.9875982e-38 -1.6276096e-38 1.796923e-38 1.1304524e-37 -2.7385677e-38 1.8158241e-38 -6.235505e-39
2.060329e-39 2.2981177e-38 1.4435887e-38 -2.172944e-39 -1.8197902e-38 -2.030104e-38 6.511821e-39 7.15098e-39
-5.437963e-39 -3.433606e-38 1.1317731e-38 -5.332934e-39 3.585351e-38 -1.0396343e-38 -2.114434e-38 -4.167724e-39
-2.397137e-39 2.090253e-38 -1.326434e-39 -2.711497e-39 -2.0567358e-38 -1.9759216e-38 -1.590124e-38 -1.8542697e-38
4.916611e-39 -1.800115e-39 -1.6222652e-38 -2.1452459e-38 1.870459e-39 6.2330637e-06 1.5669775e-06 3.4200903e-38
1.4297394e-38 1.521249e-38 -2.6421827e-38 1.1229905e-38 6.289861e-39 3.815823e-39 -6.692264e-39 1.09088e-40
1.0443075e-38 -5.390543e-39 -6.443603e-39 -1.7958677e-38 2.943844e-39 -8.721944e-39 6.7760936e-08 1.0939154e-38
-1.6618496e-38 -1.2375433e-38 -2.07462e-40 -1.0949283e-24 -1.526084e-38 -6.235428e-39 -8.665675e-39 -3.443617e-38
-2.544471e-39 -4.870055e-38 -1.75606e-39 -1.971114e-39 3.178585e-39 2.0432526e-38 5.215744e-39 -1.960733e-38
-1.5019054e-38 -1.888989e-38 -4.187395e-39 1.3589172e-38 1.598938e-37 1.679515e-39 -1.7474587e-38 1.4299602e-38
-4.1264627e-34 -6.851832e-39 -7.835594e-39 -2.45729e-40 -6.653856e-39 -8.999329e-35 3.995791e-39 -1.3605736e-38
1.6238964e-38 1.5107933e-38 1.6924625e-38 2.4650356e-26 9.299318e-39 -3.2712264e-38 1.2505025e-38 -9.980504e-39
-1.8434862e-38 4.706238e-38 -1.4918605e-38 4.071557e-39 7.410009e-39 -4.013749e-39 1.6937765e-38 -5.7301084e-36
6.685032e-39 -3.829792e-38 1.5289783e-38 -4.356275e-39 3.2539484e-38 -2.3732262e-38 2.1156241e-38 2.563481e-39
00000000: fd81 990d d837 7300 7a2e 2c00 b558 0d80
00000010: dc13 1e00 ea8d 3b00 e661 aa00 0f9f 2882
00000020: 0aea 1000 db4e 5e80 14f5 7600 ccb3 2201
00000030: 967c 0936 e812 cb00 f529 8280 7ad7 5401
00000040: 026a 0d00 7bf5 0700 0070 3c80 828f 2980
00000050: 6210 a400 e024 6900 b20a aa00 447b 1280
00000060: 5b5a 6580 96b4 ab80 d4eb 8035 2849 2700
00000070: 4e53 a200 8a9c 4b00 3909 1d81 8624 5681
00000080: 2474 be80 48b7 5d82 40eb 4534 6ce6 bd01
00000090: 40fe da80 481b 2880 2ad2 3e00 6a07 908a
000000a0: ffe5 da80 565f 8680 885b b081 a5e6 9700
000000b0: b02e e100 4843 3401 5673 0401 675a 6a80
000000c0: 4694 ae80 7b57 3400 da3f 1981 6fe4 6380
000000d0: 7087 a487 8f03 3e80 7f4a 2880 0d39 7f80
000000e0: afa4 a680 00ce 8bb5 7098 6880 9168 5200
000000f0: 55ab 3180 6bb2 3280 df2c 0400 7601 7701
00000100: ecf5 1980 593a 7b81 eb6b d180 66e8 5d00
00000110: f915 3e01 a6f9 6400 9a38 4181 b38b aa80
00000120: ba1c 8500 fe47 ca00 66d9 0301 6384 2a00
00000130: cc85 2e80 e099 6102 1a31 96b8 68b3 5c00
00000140: a9f5 0581 3e72 2900 37f8 e900 276b 5501
00000150: a796 b800 c394 8d00 86a7 3e81 a55e 4a00
00000160: 1dc2 5382 149f 1700 16fa d980 c7d1 a500
00000170: e4cb 7481 2e71 c900 a911 9300 7217 0683
00000180: e1be 4b80 a4d0 6034 9e06 5100 9581 7f00
00000190: f902 3f81 72b0 2bb7 e908 8f00 4a0b 2001
000001a0: 7f43 4780 f9a1 3681 b47e 3a81 c059 5880
000001b0: 81ab 9480 e96c 5d00 541e cd34 dc96 0601
000001c0: 4e17 4003 32f5 f100 cb3a 8000 c28c 1980
000001d0: 46f0 1201 29e1 f780 348a 1e01 9b77 3d81
000001e0: 0649 b900 c1be 58b5 9db3 8c80 ed1f 2d80
000001f0: e0c3 9f00 6a00 fa00 d115 1601 12f0 1880
00000200: 2e17 3b01 10dc 7d00 b411 5800 e4d7 0700
00000210: 1739 79b9 c246 0601 53f4 3980 384b 1181
00000220: 89c9 761b a286 da81 33d5 4600 f24c 1937
00000230: da87 2102 5ac8 3500 f75d c500 bc75 9b00
00000240: 2d5f 4300 021b 5901 223b b180 e7aa c300
00000250: 84de 1902 101a 1581 cab9 c500 0de6 4380
00000260: 5c6f 1600 2c3e fa00 6131 9d00 49a9 1780
00000270: 5928 c680 0a0f dd80 4fe8 4600 06de 4d00
00000280: d436 3b80 7cf1 3a81 3b3d 7b00 0d12 3a80
00000290: 8034 4301 c634 7180 d13d e680 eb61 2d80
000002a0: 3e1a 1a80 c09b e300 8f71 0e80 8d86 1d80
000002b0: 6df5 df80 a828 d780 3026 ad80 7fe9 c980
000002c0: 8389 3500 fd99 1380 27a6 b080 ba98 e980
000002d0: 145e 1400 9c25 d136 f050 d235 1a35 3a01
000002e0: 51af 9b00 3ca6 a500 a7da 0f81 6848 7a00
000002f0: 937d 4400 f68c 2900 4fdf 4880 1830 0100
00000300: 0bb7 7100 a4b2 3a80 252a 4680 7c8d c380
00000310: 3d0e 2000 3bf9 5e80 f883 9133 e91d 7700
00000320: 9bf5 b480 acc1 8680 5242 0280 946e a997
00000330: 032d a680 d6e5 4380 605c 5e80 047d 3b81
00000340: f3b4 1b80 5493 8481 2e1f 1380 aa76 1580
00000350: 9a9c 2200 927d de00 5fcb 3800 4281 d580
00000360: 038b a380 54b1 cd80 c198 2d80 15f9 9300
00000370: dca2 5902 ce49 1200 0a48 be80 79b5 9b00
00000380: 1020 0988 1f9c 4a80 7352 5580 feac 0280
00000390: 3e74 4880 423e ef86 a482 2b00 4227 9480
000003a0: a0d3 b000 c582 a400 f84a b800 1420 f414
000003b0: b742 6500 3e1a 3281 ec2a 8800 96ad 6c80
000003c0: e5bc c880 b11d 8001 0073 a280 d855 2c00
000003d0: 17b0 5000 b3b4 2b80 996f b800 5bbb f384
000003e0: 26cb 4800 8283 5081 b27d a600 866f 2f80
000003f0: 6c29 3101 f235 0181 fe5e e600 f1e9 1b00

gc3.bias f4 [256]
-0.0049181795 -0.0009490763 -0.010672083 -0.056271344 -0.0021630556 -0.010143384 -0.004367845 -0.00094531936
-0.00014160419 -0.0026532677 -0.01624591 -0.012745153 -0.00016466586 -0.0052787988 -0.0032707239 -1.1246588e-07
-0.00072634255 -0.0043922905 -8.733556e-06 -0.0024781309 -0.100176126 -0.00025891897 -0.01815642 -2.5450631e-06
-0.0046625882 -1.8981965e-16 -0.0012566516 -7.050897e-05 -0.06636195 -0.0011212053 -0.005744628 -0.012707467
-0.0067005786 -1.2645586e-12 -4.5636112e-05 -0.00068941363 -0.0024789763 -4.767899e-05 -0.001416527 -0.0031320932
-0.00059045415 -1.22996125e-05 -7.421002e-05 -0.009193737 -0.0776199 -0.0049592867 -0.0003162009 -0.013897492
-0.018147511 -0.006098462 -0.002712904 -0.18426111 -0.085404105 -0.010048165 -0.00012132721 -0.010539512
-9.061453e-05 -3.752968e-06 -0.0049601262 -2.647201e-06 -0.00150748 -0.29022625 -0.0016698365 -0.0031345193
-0.0014004927 -0.00054894533 -2.20245e-11 -3.4284458e-06 -0.0009182632 -0.040260676 -0.051394913 -0.0033448783
-0.0036901308 -0.0105743185 -0.0011376847 -0.030817049 -0.0006507608 -0.00012581071 -0.027563918 -0.012654371
-0.002339626 -8.148765e-06 -0.017121285 -0.009263038 -0.000542503 -0.00013120932 -5.753763e-14 -1.6795617e-05
-2.7698148e-05 -0.234233 -0.0005220246 -0.00029764322 -0.00998882 -0.25645217 -0.0072496426 -0.004742346
-0.0068567 -4.433656e-13 -0.010603704 -0.0014224775 -0.020593133 -0.00037030753 -1.7670129e-05 -0.013567905
-3.701368e-07 -1.7288858e-05 -0.29455346 -0.01570256 -5.8200235e-06 -0.009902926 -0.007349014 -0.030624101
-0.01476707 -4.1565845e-06 -2.3541403e-05 -0.010036061 -0.0006464029 -0.006298276 -0.046456687 -8.6507636e-05
-0.021371696 -5.785753e-05 -0.0039277263 -1.4707969e-07 -0.0039429725 -0.005054755 -0.013907136 -0.16069123
-0.02513266 -0.0008573447 -0.01105706 -0.0006068479 -0.0006923817 -0.06509196 -0.0030299574 -0.0005022611
-0.0038113825 -0.0019567264 -0.0070057795 -3.5044315e-05 -1.4568953e-06 -4.8970705e-08 -0.0031694546 -0.0001656742
-7.3135293e-06 -0.0009323116 -0.0044860663 -0.015973732 -0.006727761 -0.012079486 -0.011013939 -3.9037288e-05
-0.0052557015 -0.005402424 -0.0037108646 -3.0056103e-06 -0.061183635 -0.01504233 -0.0036765088 -0.004345713
-0.0005587434 -0.0037012403 -2.5360327e-05 -0.0034509557 -6.979424e-06 -0.007120777 -0.06853467 -6.4422306e-06
-0.000931919 -0.0033336391 -0.13758771 -1.7296987e-05 -6.465451e-05 -0.0052517694 -0.00030575824 -0.06540655
-0.12829967 -0.0016135478 -0.019614622 -0.0060151354 -1.4912477e-07 -0.092617564 -0.0029992096 -0.0026251113
-0.00562603 -1.0047814e-05 -0.004581549 -0.0018028012 -4.5863026e-13 -0.12891643 -0.0026822134 -4.3620355e-05
-0.15087783 -0.012398923 -0.00083988137 -0.00024758457 -0.007573161 -4.4573347e-14 -4.747249e-05 -0.001969512
-7.0265236e-07 -7.4592076e-06 -0.00063424214 -0.0028521225 -0.0035089378 -0.0012623521 -0.010366625 -0.0020595654
-0.11083518 -4.2161297e-08 -4.2706162e-08 -0.06458436 -3.9426288e-07 -0.13450511 -0.00030549144 -0.008961514
-1.4026807e-08 -0.018112307 -0.005791971 -7.62487e-05 -0.15984 -0.1896924 -0.09825689 -0.0035086167
-0.277965 -0.0042002643 -0.010614619 -0.0006281929 -0.000864659 -2.227328e-07 -0.00035244675 -0.006755776
-0.0043037646 -5.3420277e-05 -0.0029227203 -0.118738666 -0.017023448 -0.009173945 -2.6952025e-09 -0.012859798
-0.004023402 -3.8691178e-07 -0.0060909926 -9.8526434e-05 -4.7338566e-05 -0.009062092 -0.26750827 -9.972538e-09
-0.0029233107 -0.008197837 -0.00027426193 -0.00013999153 -0.11252922 -0.0036847054 -0.003983287 -0.019335972
00000000: ae28 a1bb 6fcb 78ba f6d9 2ebc c87c 66bd
00000010: 0dc2 0dbb 7030 26bc 2420 8fbb 4fcf 77ba
00000020: 967b 14b9 72e2 2dbb 2516 85bc 0cd1 50bc
00000030: 28aa 2cb9 c6f9 acbb a459 56bb c584 f1b3
00000040: 0668 3eba 34ed 8fbb 5686 12b7 2368 22bb
00000050: 2429 cdbd 84bf 87b9 c6bc 94bc dacb 2ab6
00000060: a0c8 98bb dfd8 5aa5 3bb6 a4ba 37de 93b8
00000070: c6e8 87bd 68f5 92ba 6f3d bcbb fb32 50bc
00000080: 8790 dbbb 86f8 b1ab 6769 3fb8 c4b9 34ba
00000090: 5276 22bb edfa 47b8 c2aa b9ba ce43 4dbb
000000a0: b5c8 1aba 6f5a 4eb7 33a1 9bb8 54a1 16bc
000000b0: 2ff7 9ebd 8381 a2bb c4c7 a5b9 4eb2 63bc
000000c0: 17aa 94bc 9bd5 c7bb faca 31bb f2ae 3cbe
000000d0: 59e8 aebd 0fa1 24bc 0d71 feb8 ebad 2cbc
000000e0: 4e08 beb8 80db 7bb6 8e88 a2bb 91a6 31b6
000000f0: a396 c5ba 8998 94be 6ade daba 826c 4dbb
00000100: bd90 b7ba 19e7 0fba c4ba c1ad 4014 66b6
00000110: 9ab7 70ba 61e8 24bd 7983 52bd bf35 5bbb
00000120: 1fd6 71bb e83f 2dbc 5d1e 95ba 0974 fcbc
00000130: d197 2aba 0eec 03b9 bacd e1bc 4754 4fbc
00000140: 6954 19bb aeb6 08b7 f041 8cbc ffc3 17bc
00000150: c336 0eba 3c95 09b9 2f90 81a9 50e4 8cb7
00000160: 5259 e8b7 c7da 6fbe 7ad8 08ba ff0c 9cb9
00000170: 26a8 23bc b34d 83be 698e edbb ae65 9bbb
00000180: 2bae e0bb b897 f9aa 28bb 2dbc 6d72 baba
00000190: eeb2 a8bc d625 c2b9 503a 94b7 eb4b 5ebc
000001a0: 37b7 c6b4 8a07 91b7 b6cf 96be a8a2 80bc
000001b0: 9f49 c3b6 e23f 22bc ffcf f0bb 65df fabc
000001c0: 95f1 71bc ca78 8bb6 c77a c5b7 4a6e 24bc
000001d0: 5d73 29ba c561 cebb 5e49 3ebd 6f6b b5b8
000001e0: b213 afbc 0dac 72b8 28b4 80bb f5ec 1db4
000001f0: 0d34 81bb 5ca2 a5bb c2da 63bc 3e8c 24be
00000200: 02e3 cdbc 6ebf 60ba ac28 35bc e014 1fba
00000210: f380 35ba ef4e 85bd 4092 46bb 2caa 03ba
00000220: 63c8 79bb 6c3c 00bb bd90 e5bb 8cfc 12b8
00000230: 8b8a c3b5 dc53 52b3 a0b6 4fbb d4b8 2db9
00000240: bd66 f5b6 5f66 74ba daff 92bb 58db 82bc
00000250: 8d74 dcbb 09e9 45bc cf73 34bc f8bb 23b8
00000260: 0538 acbb d106 b1bb fa31 73bb feb3 49b6
00000270: b19b 7abd 1b74 76bc 95f1 70bb 7c66 8ebb
00000280: a378 12ba 8290 72bb e3bc d4b7 6e29 62bb
00000290: cc30 eab6 6855 e9bb e85b 8cbd 572a d8b6
000002a0: 074c 74ba 2f79 5abb cbe3 0cbe ff18 91b7
000002b0: 2097 87b8 0917 acbb 2d4e a0b9 dff3 85bd
000002c0: fd60 03be ae7d d3ba d8ae a0bc 9d1a c5bb
000002d0: 1b1f 20b4 47ae bdbd 638e 44bb 0f0a 2cbb
000002e0: 8f5a b8bb 0893 28b7 d220 96bb f84b ecba
000002f0: cb17 01ab ab02 04be 13c8 2fbb 00f5 36b8
00000300: b87f 1abe da24 4bbc 7c2b 5cba 3dce 81b9
00000310: 4728 f8bb 92bd 48a9 331d 47b8 ee12 01bb
00000320: e79d 3cb5 1b4a fab6 4543 26ba adea 3abb
00000330: 35f6 65bb 8275 a5ba c7d8 29bc c6f9 06bb
00000340: 8efd e2bd d614 35b3 ec6b 37b3 ce44 84bd
00000350: 14ab d3b4 b5bb 09be 5e2a a0b9 50d3 12bc
00000360: 8dfa 70b2 4360 94bc 93ca bdbb b6e7 9fb8
00000370: 19ad 23be b93e 42be e93a c9bd d2f0 65bb
00000380: 6e51 8ebe 5fa2 89bb f0e8 2dbc 50ad 24ba
00000390: 49aa 62ba 5328 6fb4 9ac8 b8b9 8e5f ddbb
000003a0: 9806 8dbb 960f 60b8 1c8b 3fbb 422d f3bd
000003b0: c274 8bbc 504e 16bc 8136 39b1 e7b1 52bc
000003c0: bed6 83bb c0b8 cfb4 f396 c7bb fa9f ceb8
000003d0: 668d 46b8 2b79 14bc d8f6 88be b053 2bb2
000003e0: 0495 3fbb 3850 06bc d0ca 8fb9 b1ca 12b9
000003f0: b875 e6bd 197b 71bb 3c86 82bb 7966 9ebc

gc4.weight f4 [256, 256]
5.1906434e-05 -1.1566638e-38 -1.0192378e-38 -0.00018369102 2.032527e-39 1.4444633e-37 -2.701884e-37 3.3589758e-38
-6.077305e-39 5.145974e-38 -3.8648224e-38 3.8439464e-38 -8.936843e-39 2.8159485e-38 4.397078e-39 9.916006e-37
-1.1064176e-38 1.2354382e-37 -6.078968e-38 1.2283097e-37 -4.502172e-38 8.2947867e-38 4.9334854e-38 -3.2555958e-38
1.183549e-38 1.6926206e-35 5.13001e-39 4.5733353e-07 2.102226e-06 1.5260765e-38 1.086859e-37 -2.820143e-38
-1.9823928e-38 4.30448e-38 -7.500388e-39 6.785582e-39 -8.596733e-39 -5.607983e-37 -3.022274e-39 -1.2144077e-37
1.199788e-39 -1.8657403e-38 1.7990476e-38 3.1912864e-37 2.6231579e-05 4.3771847e-38 -4.483449e-39 -1.9980857e-38
-0.00012149289 -3.520168e-39 3.4987522e-08 1.2587218e-38 -2.4005582e-05 1.5427454e-37 -2.0474787e-38 -5.1807318e-15
1.5577187e-38 -3.208774e-37 2.74876e-40 -1.3524481e-38 -3.1041926e-36 6.433714e-39 1.7332053e-38 -2.0883438e-38
-6.054065e-08 -1.5026676e-36 -1.2463786e-37 6.04216e-40 2.776429e-38 1.9557882e-38 1.8393469e-38 3.365665e-39
-9.376923e-39 0.0014222403 3.4333553e-38 3.91036e-39 4.2204117e-38 -1.2669536e-38 7.851223e-39 -5.43774e-40
-2.3005633e-38 7.259727e-39 -8.421403e-39 3.3922552e-38 -1.1061367e-38 4.9303037e-07 -3.149871e-39 -1.219686e-39
-2.614035e-39 -0.00015238837 -1.0816823e-38 8.643226e-39 -1.885383e-39 4.566369e-39 -0.0016195831 -2.9625493e-38
8.423957e-38 1.8940069e-38 9.448737e-39 -9.138008e-38 0.0021797875 -3.762985e-39 -1.924365e-38 -3.765223e-39
-2.3429615e-05 -3.7031756e-37 -5.612298e-39 -3.974044e-38 -2.259967e-38 -2.9218767e-36 -0.0003771565 4.4813006e-38
1.5404503e-38 8.137757e-38 2.829212e-39 -6.3455834e-38 6.108071e-39 9.018786e-39 4.016203e-37 1.5264047e-38
-2.389068e-38 -3.3464232e-38 1.7825265e-38 -6.9054954e-07 -2.6832388e-38 3.3822236e-38 -2.8129295e-38 -1.0489675e-06
-3.833818e-39 -3.294357e-39 8.468677e-39 5.14994e-40 3.9990434e-36 2.3977926e-38 -9.3576974e-38 -1.113455e-39
9.747771e-38 -1.3908152e-38 8.755977e-39 4.2910225e-38 -1.257644e-39 -1.7660127e-38 -1.5957304e-38 3.808371e-38
1.027756e-39 8.587443e-08 4.446474e-07 2.440404e-38 -1.7179337e-34 -4.9036074e-38 -5.5805344e-38 -5.449766e-39
6.63553e-39 -1.7886641e-37 1.484293e-38 -2.561307e-39 -1.5704943e-38 1.9585482e-07 -2.907298e-38 -1.8867932e-38
2.5471645e-06 1.729108e-39 3.6699202e-38 1.734391e-39 5.0591684e-38 -7.890712e-39 -1.3523472e-37 -7.114479e-36
-8.5270744e-38 -4.034456e-39 -1.2592026e-38 5.729432e-39 2.8012242e-38 8.6686644e-38 1.131291e-38 2.0613222e-38
1.5555523e-38 -2.8750172e-38 -7.3992595e-38 -2.0362408e-38 1.9698684e-38 6.00631e-38 -1.0907658e-37 -3.154726e-38
-1.5501584e-38 -1.4287393e-38 9.229376e-39 -6.993006e-39 -4.4391042e-38 2.9960333e-38 1.9904707e-12 1.1140489e-36
-8.3727835e-38 6.01726e-40 -1.9576724e-38 4.6925747e-38 -2.0414972e-38 8.449276e-39 -2.8220318e-38 -1.464508e-37
-1.68969e-38 1.0949791e-38 -2.97864e-38 7.9808875e-38 1.4625722e-38 -1.0612249e-38 2.583034e-38 -3.7544995e-38
-1.1255252e-38 1.1343648e-38 1.160316e-37 2.659079e-39 -6.365579e-39 1.0550261e-37 -6.0642e-40 -9.831687e-38
-1.3316302e-38 3.3815284e-06 -1.2908563e-37 2.7735463e-38 -1.5600494e-37 -1.93329e-40 3.0195465e-38 8.5738884e-38
-3.1357377e-38 -9.796446e-38 -2.4921196e-38 -8.691694e-38 3.12352e-38 2.5493145e-38 1.0166118e-38 1.5589915e-38
1.3475712e-37 9.313876e-39 2.4588293e-38 1.3382873e-38 -1.0477899e-37 -2.5929352e-38 3.8437353e-38 -9.7475635e-08
1.0024078e-38 -1.0170697e-38 1.2867175e-37 3.0358417e-38 -1.3354356e-38 -1.2951623e-36 -4.6520975e-35 -9.78315e-40
-8.8524245e-38 -3.179479e-38 -4.84319e-38 6.270753e-39 3.340763e-39 7.3166737e-38 -9.027777e-38 1.212201e-38
00000000: 1cb6 5938 15f3 7d80 34fc 6e80 2f9d 40b9
00000010: dc21 1600 339c 4402 75e1 b782 4ae1 3601
00000020: 0e2d 4280 3416 8c01 c36b 5281 cb48 5101
00000030: 4850 6180 9850 1901 44e1 2f00 4cb6 a803
00000040: 6c7a 7880 bd28 2802 397c a581 5930 2702
00000050: 1e1f 7581 3ace e101 604d 8601 6240 3181
00000060: 88e0 8000 84fd b305 61dc 3700 7187 f534
00000070: f813 0d36 ce2c a600 82ef 1302 0e8b 1981
00000080: 0cdd d780 b25b 6a01 08ac 5180 71e3 4900
00000090: 329c 5d80 6cd4 3e83 dfe8 2080 ef4b 2582
000000a0: 8510 0d00 4029 cb80 21e6 c300 0d30 d902
000000b0: e30b dc37 0d51 6e01 08d2 3080 8092 d980
000000c0: 00ca feb8 cc54 2680 3045 1633 0b10 8900
000000d0: 985f c9b7 d5fc 5102 60f3 de80 d1a7 baa7
000000e0: dc9e a900 ba60 da82 3efe 0200 c044 9380
000000f0: aa09 8484 940e 4600 b6ba bc00 8766 e380
00000100: 9302 82b3 68aa ff83 f5a5 2982 4f94 0600
00000110: c629 1701 6bf7 d400 8249 c800 1ba6 2400
00000120: 0c1b 6680 776a ba3a fded 3a01 7e94 2a00
00000130: f4c7 6501 83f5 8980 047e 5500 d2eb 0580
00000140: 5882 fa80 2a0d 4f00 72b3 5b80 23b1 3801
00000150: 9772 7880 ca58 0435 8f4c 2280 fd47 0d80
00000160: de76 1c80 71ca 1fb9 e7c8 7580 cc1d 5e00
00000170: ae87 1480 2eb9 3100 3148 d4ba e94b 2181
00000180: 6952 e501 353d ce00 3ce3 6600 9fc2 f881
00000190: c4da 0e3b acf9 2880 788b d180 e9ff 2880
000001a0: b78a c4b7 6b06 fc82 ce1c 3d80 175e 5881
000001b0: af16 f680 d790 7884 17bd c5b9 37fc 7301
000001c0: 7dbd a700 e487 dd01 b1ce 1e00 43be ac81
000001d0: d182 4200 b534 6200 10aa 0803 f435 a600
000001e0: bf12 0281 5532 3681 9619 c200 345e 39b5
000001f0: e416 1281 5125 3801 8426 1981 40ca 8cb5
00000200: 20bf 2980 54df 2380 3a37 5c00 989b 0500
00000210: ba19 aa04 5a8c 0201 a2bd fe81 dc1f 0c80
00000220: 06ae 0402 4572 9780 1a58 5f00 20a0 6901
00000230: cdb1 0d80 404d c080 79c2 ad80 f258 4f01
00000240: f730 0b00 f869 b833 e0b7 ee34 44de 0401
00000250: 415a 6487 287d 8581 a6ea 9781 bb57 3b80
00000260: 2841 4800 d975 7382 0da0 a100 e2e3 1b80
00000270: fe02 ab80 2a4c 5234 d249 1e81 1e74 cd80
00000280: f4ef 2a36 0dd4 1200 39cf 4701 c7e2 1200
00000290: 42b9 8901 18ec 5580 6c12 3882 e84e 1785
000002a0: 0921 e881 6cee 2b80 721d 8980 5363 3e00
000002b0: 5e83 1801 c6fb eb01 ca2f 7b00 4775 e000
000002c0: 7862 a900 e487 1c81 506d c981 1cba dd80
000002d0: eb7f d600 df81 a301 a477 1482 77c2 2b81
000002e0: 1ccc a880 7093 9b80 bf7f 6400 a825 4c80
000002f0: 15b0 7181 9c1e 2301 2211 0c2c ac8b bd03
00000300: c9ed e381 5e8d 0600 f12b d580 f27c 7f01
00000310: a34c de80 2501 5c00 62a5 1981 a856 4782
00000320: affd b780 903b 7700 2f2c 2281 ab42 d901
00000330: 9042 9f00 a28e 7380 3da2 0c01 166a 4c81
00000340: 108f 7a80 7a85 7b00 1def 1d02 6ef4 1c00
00000350: a550 4580 4b9a 0f02 749a 0680 6ed2 0582
00000360: 6f00 9180 37ee 6236 c7b3 2f82 9801 1701
00000370: ca57 5482 ec1a 0280 5666 2401 4867 e901
00000380: ceb9 2a81 a257 0582 14af 0781 449c ec81
00000390: 840f 2a01 42cc 0a01 00b3 6e00 57c2 a900
000003a0: 016c 3702 4c6b 6500 14df 0501 01ba 9100
000003b0: 269e 0e82 3e2c 0d81 da45 5101 cc53 d1b3
000003c0: 0d27 6d00 c4bf 6e80 9023 2f02 7549 2501
000003d0: 836a 9180 465c dc83 1259 7786 25a7 0a80
000003e0: 65fc f081 781b 2d81 1cd8 8381 4f48 4400
000003f0: b060 2400 c62d c701 6cc2 f581 3bff 8300

gc4.bias f4 [256]
-4.5329425e-06 -0.00045138702 -0.031180978 -6.0883613e-05 -0.0016146101 -0.0066715325 -0.025168413 -1.349883e-07
-0.00014017304 -0.01349178 -0.0002084298 -1.0543734e-08 -3.9923054e-07 -0.0021974084 -0.013025213 -2.3535877e-06
-0.121076025 -0.029380089 -0.2074834 -0.0105661545 -0.0009831041 -0.0016464475 -1.10035934e-07 -9.32168e-05
-0.27480447 -4.32588e-10 -4.536138e-05 -0.02567695 -0.0007875761 -6.520744e-06 -0.0031719308 -6.115815e-08
-0.0007751323 -0.0027202608 -0.0014307257 -2.9027347e-05 -0.042189047 -0.015693087 -3.3453653e-05 -0.0026471252
-8.581716e-09 -1.8292697e-09 -0.20058158 -0.02045317 -1.6309826e-12 -0.2319606 -7.701349e-07 -8.717044e-09
-0.015540135 -0.0011734426 -0.00021421023 -2.8243452e-09 -0.11969157 -0.016280947 -4.5549005e-09 -0.00035010936
-0.026029997 -0.013521794 -0.0059881294 -0.006241927 -0.0013509301 -0.043005075 -0.008700462 -0.0044633145
-7.4674026e-05 -0.00017811688 -0.011485294 -0.00027858856 -0.010899556 -1.6864586e-05 -0.0084366845 -0.17914508
-0.268901 -1.0643538e-05 -0.0023109955 -3.193736e-05 -1.3331081e-08 -3.5492116e-11 -0.0043263487 -1.5645714e-08
-5.7651978e-05 -1.071927e-11 -3.4899577e-09 -0.0007973273 -0.29102886 -0.0033279213 -0.014232364 -5.1664836e-13
-2.9724264e-08 -9.4136254e-08 -0.00036228442 -1.6403992e-06 -1.456306e-09 -2.7323685e-10 -0.002873273 -0.000488074
-0.01044933 -7.1998606e-06 -0.0040022978 -0.0054428577 -0.029166717 -1.1989403e-06 -0.004332658 -0.00030947378
-1.4331265e-08 -0.011822508 -0.0011290417 -0.2658881 -0.0009976777 -0.010532846 -0.16845123 -1.5061479e-05
-2.8615861e-05 -0.003266708 -5.2611816e-05 -0.0026326193 -6.113318e-06 -0.0058092196 -0.020167392 -0.056836914
-8.881782e-07 -0.00026464483 -0.010168598 -9.081644e-05 -0.0014655516 -0.01253346 -4.2113255e-09 -2.9013831e-06
-3.7737063e-11 -0.18530926 -0.023399603 -3.5075035e-07 -1.8941342e-05 -0.000245057 -0.0069527947 -0.0021720007
-0.0060847457 -0.001419482 -0.27785718 -0.0037625635 -0.049007423 -5.540762e-05 -0.0030042152 -0.0007054237
-0.03976091 -0.0013562697 -0.007967685 -0.00015268798 -3.3702026e-08 -0.011688019 -0.00045494092 -0.00026496363
-0.0005883291 -0.0024514552 -0.020716269 -0.05719409 -0.0025386857 -2.2198692e-06 -1.215241e-10 -0.2980646
-0.07016449 -6.954412e-06 -0.002113322 -2.0376485e-05 -0.096274614 -0.0005558128 -0.019881982 -7.970798e-06
-0.010731992 -0.17752565 -0.087573715 -0.22035384 -3.3255585e-06 -0.010764433 -4.3016794e-08 -1.1335748e-16
-0.017822763 -1.7092396e-05 -0.0009723068 -0.0047715018 -2.7551935e-06 -0.00040487916 -0.0088801 -4.4415033e-06
-0.011458512 -0.00029592772 -0.15074809 -0.00035051716 -9.090316e-07 -0.13304263 -0.08549766 -0.02667563
-0.009158419 -4.7425237e-05 -0.21342595 -0.0058291336 -9.045463e-08 -7.0020924e-08 -0.08709263 -4.413922e-19
-0.027726572 -0.0990879 -0.0007403071 -0.012602164 -0.22295381 -0.00024978415 -2.5854347e-06 -7.70934e-14
-0.20403118 -0.007236057 -0.0082634045 -7.169687e-16 -3.4682493e-05 -0.0071559963 -0.00053548894 -0.004655854
-3.0338776e-10 -8.250901e-05 -0.009844079 -0.0002447143 -1.6927446e-12 -2.3719789e-08 -4.538269e-05 -0.005476635
-9.122774e-05 -0.019314943 -2.3139579e-05 -0.00026708384 -0.027011877 -0.00071974914 -1.3739734e-05 -0.040922258
-0.010134654 -2.8773924e-05 -0.016846212 -0.1644452 -0.007005962 -0.010562111 -0.002918999 -3.448067e-05
-0.0008984791 -0.30314428 -0.01036419 -0.00021731983 -0.043077495 -0.005383912 -0.17947048 -0.01836476
-0.00017780946 -1.730115e-11 -0.0004140168 -0.00011222734 -0.2648772 -0.00084917084 -0.001222632 -0.10581304
00000000: ae19 98b6 24a8 ecb9 406f ffbc 485d 7fb8
00000010: 53a1 d3ba df9c dabb fd2d cebc 4df1 10b4
00000020: 6afb 12b9 a00c 5dbc f38d 5ab9 d523 35b2
00000030: d455 d6b4 6502 10bb b467 55bc 54f2 1db6
00000040: b5f6 f7bd 83ae f0bc 8776 54be aa1d 2dbc
00000050: 80db 80ba 9ccd d7ba e54c ecb3 637d c3b8
00000060: 2cb3 8cbe 59d1 edaf 6942 3eb8 7858 d2bc
00000070: 5675 4eba c4cc dab6 2be0 4fbb 0c56 83b3
00000080: 4032 4bba 6746 32bb 3087 bbba c17f f3b7
00000090: 6cce 2cbd ca8e 80bc 9650 0cb8 647b 2dbb
000000a0: c96e 13b2 b569 fbb0 4265 4dbe 688d a7bc
000000b0: 578a e5ab 1487 6dbe 44bb 4eb5 f7c1 15b2
000000c0: 0d9c 7ebc 33ce 99ba 9f9d 60b9 6816 42b1
000000d0: db20 f5bd 9f5f 85bc 5481 9cb1 e28e b7b9
000000e0: dc3c d5bc 848a 5dbc 1238 c4bb 1489 ccbb
000000f0: b111 b1ba 1726 30bd 628c 0ebc ff40 92bb
00000100: 509a 9cb8 e3c4 3ab9 d12c 3cbc 860f 92b9
00000110: 0d94 32bc 6c78 8db7 053a 0abc cf71 37be
00000120: 64ad 89be a691 32b7 1274 17bb 7bf4 05b8
00000130: b706 65b2 9218 1cae 0bc4 8dbb 4a65 86b2
00000140: 57cf 71b8 4d93 3cad fcd3 6fb1 bb03 51ba
00000150: bc01 95be 4119 5abb dc2e 69bc 706c 11ab
00000160: 5954 ffb2 f427 cab3 fef0 bdb9 b02b dcb5
00000170: 3627 c8b0 ab36 96af 864d 3cbb 2fe4 ffb9
00000180: ab33 2bbc 5596 f1b6 b525 83bb 005a b2bb
00000190: 0aef eebc 46eb a0b5 f8f8 8dbb de40 a2b9
000001a0: 9235 76b2 31b3 41bc 5afc 93ba 7c22 88be
000001b0: 82c4 82ba f591 2cbc 7b7e 2cbe 8fb0 7cb7
000001c0: 180c f0b7 4416 56bb 82ab 5cb8 0688 2cbb
000001d0: 0021 cdb6 445b bebb 1636 a5bc d3cd 68bd
000001e0: 246b 6eb5 07c0 8ab9 319a 26bc b474 beb8
000001f0: c017 c0ba 2459 4dbc 36b3 90b1 62b5 42b6
00000200: 28f8 25ae b6c1 3dbe 86b0 bfbc c34e bcb4
00000210: 39e4 9eb7 fe7a 80b9 45d4 e3bb 2058 0ebb
00000220: 8c62 c7bb ea0d baba 4c43 8ebe 5795 76bb
00000230: 02bc 48bd 7b65 68b8 5ee2 44bb 2fec 38ba
00000240: 56dc 22bd dcc4 b1ba e58a 02bc de1a 20b9
00000250: c5bf 10b3 1b7f 3fbc 2385 eeb9 d1ea 8ab9
00000260: 193a 1aba 98a8 20bb 2ab5 a9bc 5a44 6abd
00000270: 1460 26bb 10f9 14b6 fe9d 05af ec9b 98be
00000280: 66b2 8fbd f259 e9b6 a97f 0abb 2bee aab7
00000290: a02b c5bd f7b3 11ba 8adf a2bc 51ba 05b7
000002a0: 3dd5 2fbc 49c9 35be d959 b3bd 70a4 61be
000002b0: a92c 5fb6 4e5d 30bc 77c1 38b3 39b1 02a5
000002c0: 0b01 92bc a461 8fb7 68e2 7eba 425a 9cbb
000002d0: dde5 38b6 f645 d4b9 d77d 11bc 3908 95b6
000002e0: 7cbc 3bbc bf26 9bb9 b55d 1abe 9ec5 b7b9
000002f0: 2d04 74b5 543c 08be 6619 afbd da86 dabc
00000300: 320d 16bc 76ea 46b8 558c 5abe 5102 bfbb
00000310: f53f c2b3 695e 96b3 9f5d b2bd a746 02a1
00000320: d622 e3bc 99ee cabd 2b11 42ba 4f79 4ebc
00000330: 014e 64be 76f5 82b9 6e81 2db6 5299 ada9
00000340: 8ded 50be 721c edbb 3b63 07bc f4a6 4ea6
00000350: 0b78 11b8 d97c eabb 0e60 0cba 2290 98bb
00000360: 08ca a6af b008 adb8 0f49 21bc ff4c 80b9
00000370: 8d3b eeab 5ec0 cbb2 4b59 3eb8 5875 b3bb
00000380: 8551 bfb8 5f3a 9ebc de1b c2b7 6307 8cb9
00000390: 0348 ddbc 8cad 3cba b583 66b7 199e 27bd
000003a0: d20b 26bc 885f f1b7 1101 8abc 5364 28be
000003b0: 4592 e5bb b40c 2dbc ad4c 3fbb 569f 10b8
000003c0: e987 6bba ba35 9bbe 90ce 29bc 59e0 63b9
000003d0: 0772 30bd 876b b0bb 1cc7 37be b171 96bc
000003e0: 5d72 3ab9 ba2e 98ad 6510 d9b9 985b ebb8
000003f0: fc9d 87be e49a 5eba b940 a0ba 82b4 d8bd
