saved10.model (torch, 960039 bytes, 12 tensors)

gc1.weight f4 [3, 64]
-0.00021955138 -4.3107782e-05 -0.48517302 0.5706334 -0.3864176 -0.6305861 -0.006620456 -0.38247883
-0.04161668 -0.5476145 -0.3472409 -0.47178397 0.54823023 -0.59666544 -0.3956154 -0.47365093
0.5522402 -0.58392197 -0.514244 -0.42402655 0.5982426 -0.4706842 -0.50665885 -0.37296778
-0.42440617 -0.5135501 0.00025154292 0.58064765 -0.44409108 -0.5793491 -0.5429828 0.5496586
-7.3960415e-05 -0.43508655 0.00066010177 0.72617775 -0.60920405 0.68067116 0.0010071849 0.00020023249
-0.42230368 -0.48978636 -0.40328184 -0.34428665 -0.5836041 0.6004243 -0.01042238 -0.5701297
-0.39240974 0.5795406 -0.57964385 0.6074557 -0.55178785 0.55836886 -0.59347326 -0.081955016
0.75490505 0.00027268997 7.045889e-05 0.5667787 -0.43875527 -0.54122996 0.49435014 0.61277616
0.00024210852 0.0002188825 -0.35221463 0.58031386 -0.37141478 -0.53047013 -0.03343073 -0.41423386
-0.090203084 -0.559068 -0.5798763 -0.40729383 0.5713025 -0.70733535 -0.41112927 -0.55200434
0.59085286 -0.5809634 -0.38956633 -0.5064144 0.5314738 -0.4856189 -0.3843829 -0.5530113
-0.48265016 -0.6177268 -0.015085618 0.62313765 -0.38137996 -0.37091252 -0.5465577 0.58870703
-0.015216296 -0.49806783 -0.0014362655 0.7528605 -0.60284424 0.6579351 -0.019351222 -0.00015546224
-0.45295805 -0.5412742 -0.56193864 -0.52472204 -0.565309 0.5650511 -0.04061463 -0.6580159
-0.4173702 0.5370473 -0.5380102 0.6127669 -0.63624054 0.54433936 -0.5980564 -0.178586
0.6941252 -0.00050144154 -0.00011872017 0.56720555 -0.3786543 -0.52884114 0.6109746 0.5569208
-3.7592785e-05 2.6755359e-05 -0.34834072 0.4944921 -0.0056686155 -0.5693616 9.388281e-05 -0.5038059
0.00023829995 -0.5801749 -0.42017302 -0.060792178 0.5044691 -0.5425926 -0.36308616 -0.54766756
0.63408965 -0.6177674 -0.39135754 -0.35497507 0.56969315 -0.55502456 -0.42443126 -0.509656
-0.47181764 -0.549471 0.00012373384 0.5638894 -0.38908306 -0.41195953 -0.61521995 0.5881607
8.321033e-05 -0.42842057 0.00010218113 0.7318145 -0.660324 0.584928 5.466848e-05 8.81198e-06
-0.4280212 -0.52504957 -0.51915807 -0.6616304 -0.5860651 0.6216805 0.00014522913 -0.54929787
-0.5492749 0.499605 -0.559113 0.53779125 -0.62678856 0.5200972 -0.6146811 9.2030445e-05
0.5996481 -5.349314e-05 -1.3598568e-05 0.632784 -0.027826063 -0.64236534 0.6331594 0.61851007
00000000: 6037 66b9 a1ce 34b8 9968 f8be 0815 123f
00000010: 87d8 c5be 176e 21bf 69f0 d8bb 44d4 c3be
00000020: 4076 2abd 7730 0cbf 8fc9 b1be ab8d f1be
00000030: d158 0c3f 11bf 18bf 1a8e cabe 6082 f2be
00000040: 9d5f 0d3f e97b 15bf 7fa5 03bf 021a d9be
00000050: 6d26 193f 85fd f0be 65b4 01bf a2f5 bebe
00000060: c44b d9be 0578 03bf 85e1 8339 53a5 143f
00000070: e85f e3be 3950 14bf ec00 0bbf 6db6 0c3f
00000080: 321b 9bb8 aac3 debe ae0a 2d3a c9e6 393f
00000090: ccf4 1bbf 7740 2e3f 8403 843a 80f5 5139
000000a0: 3038 d8be 47c5 fabe f57a cebe 5746 b0be
000000b0: 1467 15bf 68b5 193f a1c2 2abc 05f4 11bf
000000c0: eee9 c8be c65c 143f 8a63 14bf 3782 1b3f
000000d0: f841 0dbf 43f1 0e3f dded 17bf 08d8 a7bd
000000e0: 7541 413f d4f7 8e39 54c3 9338 6918 113f
000000f0: 88a4 e0be 0c8e 0abf 761b fd3e e6de 1c3f
00000100: 83de 7d39 d383 6539 7a55 b4be 738f 143f
00000110: 142a bebe e4cc 07bf a9ee 08bd 7616 d4be
00000120: 65bc b8bd 151f 0fbf c672 14bf d188 d0be
00000130: e140 123f ee13 35bf 897f d2be 2850 0dbf
00000140: 2242 173f 04ba 14bf 3d75 c7be 60a4 01bf
00000150: ab0e 083f 0aa3 f8be d6cd c4be 2692 0dbf
00000160: ec1d f7be 5823 1ebf ab29 77bc f385 1f3f
00000170: 3c44 c3be 3fe8 bdbe 35eb 0bbf 81b5 163f
00000180: c54d 79bc bf02 ffbe 1341 bcba 77bb 403f
00000190: 0054 1abf 6f6e 283f 7486 9ebc 9403 23b9
000001a0: 1eea e7be f290 0abf 36db 0fbf 2f54 06bf
000001b0: 17b8 10bf 30a7 103f 875b 26bd bb73 28bf
000001c0: 8cb1 d5be ef7b 093f 09bb 09bf 4bde 1c3f
000001d0: a9e0 22bf d359 0b3f 391a 19bf 40df 36be
000001e0: 30b2 313f 2c73 03ba 68f9 f8b8 6234 113f
000001f0: fade c1be 2262 07bf d568 1c3f 5d92 0e3f
00000200: f2ac 1db8 b270 e037 b759 b2be 122e fd3e
00000210: cbbf b9bb afc1 11bf f3e2 c438 6cf9 00bf
00000220: 28e0 7939 5886 14bf eb20 d7be 3801 79bd
00000230: e324 013f 59e7 0abf 6ee6 b9be f133 0cbf
00000240: b353 223f 0126 1ebf 0460 c8be 4bbf b5be
00000250: 69d7 113f 1716 0ebf 0e4f d9be d178 02bf
00000260: 1592 f1be 22aa 0cbf 8dbe 0139 0e5b 103f
00000270: e535 c7be 5cec d2be 0e7f 1dbf b391 163f
00000280: 3581 ae38 f159 dbbe 144a d638 3258 3b3f
00000290: fe0a 29bf d7bd 153f d54b 6538 2ad7 1337
000002a0: 9825 dbbe a669 06bf 8be7 04bf 9c60 29bf
000002b0: 5d08 16bf 7426 1f3f a648 1839 c99e 0cbf
000002c0: 489d 0cbf 3acc ff3e 0822 0fbf b0ac 093f
000002d0: 3775 20bf 1725 053f be5b 1dbf 7800 c138
000002e0: 8a82 193f d25d 60b8 6825 64b7 22fe 213f
000002f0: 7cf3 e3bc 0e72 24bf bc16 223f ad56 1e3f

gc1.bias f4 [64]
0.00029483996 0.00016698784 -0.46826357 0.6276411 -0.44946548 -0.4636197 -0.05109624 -0.42086
-0.16107287 -0.502062 -0.3506237 -0.50844026 0.64929026 -0.56986094 -0.53236485 -0.5678779
0.61503595 -0.65888256 -0.37618613 -0.3981766 0.54533935 -0.531086 -0.47561598 -0.3349704
-0.54358387 -0.488322 -0.026536196 0.60812694 -0.5367961 -0.3646529 -0.51276195 0.63069695
-0.03322842 -0.37223014 -0.004268938 0.72284484 -0.57900214 0.78392977 -0.012649687 -0.00015391746
-0.39587596 -0.35070086 -0.3904052 -0.42425272 -0.45872056 0.5591718 -0.079598635 -0.54261255
-0.4047189 0.59422284 -0.48112488 0.5837345 -0.47875458 0.5676759 -0.555816 -0.17635958
0.6835917 -6.2971834e-05 -1.0262642e-05 0.5636342 -0.42376786 -0.51651525 0.6173312 0.5368359
00000000: c094 9a39 7519 2f39 3ec0 efbe 16ad 203f
00000010: 5720 e6be 905f edbe 4a4a 51bd f67a d7be
00000020: 49f0 24be 2387 00bf f384 b3be 2429 02bf
00000030: e337 263f 68e2 11bf 1049 08bf 7260 11bf
00000040: ff72 1d3f 87ac 28bf 789b c0be cedd cbbe
00000050: 5c9b 0b3f 41f5 07bf f083 f3be 3e81 abbe
00000060: 5028 0bbf 5705 fabe 7062 d9bc 35ae 1b3f
00000070: 786b 09bf c9b3 babe 5e44 03bf 5b75 213f
00000080: 861a 08bd f394 bebe 73e2 8bbb 5c0c 393f
00000090: 7c39 14bf 9faf 483f a240 4fbc e764 21b9
000000a0: 41b0 cabe 108f b3be 31e3 c7be a737 d9be
000000b0: 6cdd eabe e225 0f3f 9c04 a3bd a8e8 0abf
000000c0: 5137 cfbe fd1e 183f 0056 f6be a06f 153f
000000d0: 521f f5be 3553 113f f549 0ebf 9b97 34be
000000e0: deff 2e3f bf0f 84b8 b62d 2cb7 554a 103f
000000f0: 1af8 d8be 583a 04bf 6b09 1e3f 146e 093f

gc2.weight f4 [64, 128]
3.200922e-06 3.3752855e-05 0.036681276 0.01570754 0.00057956006 -5.976177e-06 -4.9796745e-07 -1.8937735e-06
-0.00012764015 -1.8303299e-05 0.044424195 3.12841e-05 -0.0011635933 1.6758715e-05 -0.05646153 -2.0402813e-05
0.008666451 -1.3720864e-05 -1.4744373e-05 -0.019347258 1.512485e-05 -1.6526654e-05 0.035406757 4.9277318e-05
-0.00084945676 0.0009933801 -2.2544962e-05 3.511038e-06 0.00035869586 0.016043706 -0.0049395366 -0.1316467
-0.00021245655 0.09322111 1.7329257e-06 -3.991502e-06 0.0007166481 -1.1608172e-05 -1.392926e-05 0.00074813503
0.0004442205 -4.971419e-05 -1.6245092e-05 0.00051842583 -2.2908262e-05 1.730421e-05 0.0012706609 1.5438673e-07
-0.00028355874 3.7836955e-05 3.064075e-06 0.00020974797 -3.1349991e-06 -0.0003482807 0.00032243354 3.3518783e-05
0.0026439487 0.00059668935 0.00049891876 1.6195967e-05 0.055570688 4.063901e-05 5.3858384e-06 -0.00021793791
-0.00058473734 1.1384853e-05 0.018838659 -5.506833e-06 0.012066235 -0.038064707 0.017519971 -1.9709472e-05
0.00015774088 0.04706379 5.7521902e-08 1.46788225e-05 1.6168733e-06 -4.989877e-06 -4.3716973e-06 1.5754315e-05
0.00022830303 0.016916366 -5.803714e-06 -5.5711225e-06 0.0012653753 -0.00046649325 0.0005003888 0.10787886
0.00018922464 3.6367683e-06 0.00076664827 1.3891522e-06 3.4196019e-06 -0.008317945 1.3996478e-06 -0.00047272464
0.011068812 2.232775e-06 -2.0404854e-05 2.2675842e-05 1.2795003e-05 -2.216479e-05 -0.00016972201 0.00072341633
-0.000117638156 -7.107671e-06 -3.8910257e-06 -2.2268203e-05 -2.1718351e-06 -0.00045861187 6.34207e-07 0.0014402682
0.00018321618 0.011501041 -0.000107699176 -0.0010511039 -1.1925306e-05 -0.01370001 0.0004957502 1.2257287e-06
0.019695751 -0.00012157209 -1.7663771e-05 1.3166216e-05 -6.2659656e-06 -1.2998042e-05 0.00045435026 0.008469282
-1.4113057e-05 -0.00012139484 0.010638177 0.0031141723 0.0001965006 1.9335428e-05 9.612907e-06 -1.0244048e-05
-8.801738e-05 -3.176454e-06 0.026745897 2.4247787e-05 -6.340179e-05 6.857e-06 -0.024871267 -6.2622703e-06
-0.00019102907 5.7550915e-07 1.8441364e-05 -0.0071279574 -1.1539772e-05 5.722468e-07 0.0042071654 4.6120607e-05
-0.0010947393 0.0003746116 1.6205686e-05 1.0621352e-05 0.00012184512 0.0035291584 0.0011185658 -0.08093212
7.652616e-05 0.057932716 8.354024e-06 1.4775461e-05 -0.0011285327 9.818164e-06 1.27388e-05 -0.0005166587
-0.00019969478 -9.176665e-06 -1.971137e-05 0.00024291608 8.422556e-06 1.7987077e-05 -9.62253e-06 1.7702407e-05
-5.9101745e-05 0.00057208986 -1.1032745e-05 0.0005864158 -0.0007773337 -0.00028599516 -0.00013660103 -8.770416e-05
-0.0011718295 0.001134547 -0.0003431913 1.6438464e-05 0.031138947 -0.00011469469 1.1329663e-05 -7.74471e-05
-0.0004961959 -1.8964829e-06 0.0012504788 -1.9492145e-05 0.0011595254 -0.01015616 0.005059644 -1.7213399e-05
-0.0001383839 0.019083818 -1.7984532e-05 -1.384184e-05 1.1420636e-05 3.5033681e-06 7.316543e-06 -1.1780725e-05
0.00023141081 0.005544025 1.7714641e-05 1.1889397e-06 0.00095787074 0.0011449129 5.526319e-05 0.100163706
0.00010438809 2.1436459e-05 -0.000116794676 -4.6556243e-06 5.448929e-06 -0.00010746793 -4.9831706e-06 0.0002158315
0.0027169194 1.2499459e-05 -1.35683185e-05 -2.1495565e-05 -1.37310435e-05 1.4897025e-05 0.00023810288 0.0012628627
-0.0001826182 1.129294e-05 -1.6781472e-05 1.3008999e-05 -1.5453918e-05 -0.00044738737 -1.0902477e-05 -0.0012572231
-0.0001334259 0.0020412891 0.00018452932 -0.00094547926 -6.429049e-06 -0.0012310806 7.490294e-05 -1.4728494e-05
0.0043467702 0.0007377621 1.5345735e-05 3.4068717e-06 1.9146497e-05 -1.7702932e-05 0.00055235386 -0.0011215808
00000000: 6ccf 5636 da91 0d38 1b3f 163d 19ad 803c
00000010: 9eed 173a f886 c8b6 10ac 05b5 902d feb5
00000020: 24d7 05b9 098a 99b7 25f6 353d 0c37 0338
00000030: b683 98ba 1195 8c37 3544 67bd b526 abb7
00000040: bbfd 0d3c aa32 66b7 9a5e 77b7 247e 9ebc
00000050: bcc0 7d37 b8a2 8ab7 ad06 113d 1eaf 4e38
00000060: 14ae 5eba 4e34 823a f01e bdb7 2c9f 6b36
00000070: 580f bc39 176e 833c d6db a1bb 64ce 06be
00000080: dfc6 5eb9 b6ea be3d e096 e835 beee 85b6
00000090: 71dd 3b3a b8c0 42b7 b7b1 69b7 7e1e 443a
000000a0: 44e6 e839 3484 50b8 1246 88b7 f8e6 073a
000000b0: 1e2b c0b7 8228 9137 4e8c a63a 80c5 2534
000000c0: 9caa 94b9 1fb3 1e38 68a0 4d36 cbef 5b39
000000d0: e062 52b6 7299 b6b9 4c0c a939 8596 0c38
000000e0: 1946 2d3b 256b 1c3a dfc9 023a 93dc 8737
000000f0: 179e 633d ce73 2a38 00b8 b436 4386 64b9
00000100: 0f49 19ba 9201 3f37 8853 9a3c 56c7 b8b6
00000110: 75b1 453c bde9 1bbd 0b86 8f3c c555 a5b7
00000120: 3f67 2539 f6c5 403d 000e 7733 1045 7637
00000130: 5803 d935 b86e a7b6 98b0 92b6 2228 8437
00000140: a164 6f39 3194 8a3c 86bd c2b6 94ef bab6
00000150: f3da a53a aa93 f4b9 862c 033a 97ef dc3d
00000160: 9a6a 4639 340f 7436 e5f8 483a e872 ba35
00000170: 507c 6536 fd47 08bc 88db bb35 07d8 f7b9
00000180: f659 353c c8d6 1536 172b abb7 0038 be37
00000190: 1faa 5637 86ee b9b7 68f7 31b9 a6a3 3d3a
000001a0: 81b4 f6b8 6e7e eeb6 a88f 82b6 9acc bab7
000001b0: d8bf 11b6 d871 f0b9 603e 2a35 62c7 bc3a
000001c0: b81d 4039 dd6e 3c3c 8edc e1b8 32c5 89ba
000001d0: cd12 48b7 0276 60bc 3cf5 013a b883 a435
000001e0: fc58 a13c 85f4 feb8 a92c 94b7 78e4 5c37
000001f0: 3c40 d2b6 2a12 5ab7 dc35 ee39 bec2 0a3c
00000200: 1ec7 6cb7 5c95 feb8 c04b 2e3c 2417 4c3b
00000210: ba0b 4e39 8432 a237 1f47 2137 dadd 2bb7
00000220: f995 b8b8 102b 55b6 361a db3c ba67 cb37
00000230: 94f6 84b8 2e15 e636 d4be cbbc 7e20 d2b6
00000240: fa4e 48b9 b07c 1a35 87b2 9a37 a491 e9bb
00000250: f19a 41b7 809c 1935 43dc 893b a071 4138
00000260: 5b7d 8fba 8567 c439 72f1 8737 5c32 3237
00000270: 1a87 ff38 7449 673b d79c 923a bdbf a5bd
00000280: ab7c a038 db4a 6d3d 4328 0c37 1fe4 7737
00000290: 46eb 93ba b1b8 2437 bbb8 5537 6170 07ba
000002a0: 2965 51b9 7af5 19b7 d859 a5b7 4ab7 7e39
000002b0: 9a4e 0d37 f4e2 9637 7470 21b7 a17f 9437
000002c0: 04e4 77b8 4df8 153a 4719 39b7 b3b9 193a
000002d0: fbc5 4bba 9ff1 95b9 8f3c 0fb9 d0ed b7b8
000002e0: 1398 99ba 15b5 943a 5bee b3b9 55e5 8937
000002f0: 1b17 ff3c 3e88 f0b8 8814 3e37 186b a2b8
00000300: 2513 02ba a88a feb5 1be7 a33a 1083 a3b7
00000310: 37fb 973a 0666 26bc 5fcb a53b 7e65 90b7
00000320: 251b 11b9 ab55 9c3c 7ddd 96b7 403a 68b7
00000330: 429b 3f37 681b 6b36 a080 f536 d4a5 45b7
00000340: dea6 7239 a7aa b53b e799 9437 a893 9f35
00000350: 9e19 7b3a e710 963a 66ca 6738 a122 cd3d
00000360: eeea da38 72d2 b337 aaef f4b8 8237 9cb6
00000370: f2d5 b636 6860 e1b8 1c35 a7b6 d450 6239
00000380: 580e 323b c5b4 5137 7ca3 63b7 6051 b4b7
00000390: 625e 66b7 3cee 7937 41ab 7939 a486 a53a
000003a0: 337d 3fb9 cf76 3d37 f0c5 8cb7 3a41 5a37
000003b0: 09a3 81b7 518f eab9 c8e9 36b7 68c9 a4ba
000003c0: 3ee8 0bb9 26c7 053b 367e 4139 0ada 77ba
000003d0: 1cb9 d7b6 365c a1ba 3615 9d38 661a 77b7
000003e0: 5a6f 8e3b 6066 413a b7ba 8037 9ca1 6436
000003f0: ca9c a037 c280 94b7 d7cb 103a 0202 93ba

gc2.bias f4 [128]
0.6170826 -8.5894335e-06 -0.37868 -0.4080487 -0.47452947 0.58654505 -0.52889454 0.6343763
0.0002988184 -0.30667838 -0.43403023 0.053923383 -0.43025658 0.6070794 -0.835297 0.62572056
-0.40159646 0.57480717 -0.4908009 -0.36231485 0.63086987 0.65288675 -0.39615142 -0.4432361
-0.44499278 -0.25857177 -0.50348526 0.62049687 -0.05096914 -0.44307572 -0.29613653 -0.47949073
-0.37285632 -0.40310353 0.6304314 0.610501 -0.43803972 -0.52965224 -0.49641696 -0.23644263
-0.4481796 -0.6158877 -0.49291432 -0.3815056 0.6069695 0.6104974 -0.7069437 0.6379868
-0.01314899 -0.47159082 -0.39135736 -0.4594246 -0.4157891 -0.39632058 0.8114723 -0.45900163
-0.39186928 -0.31653666 -0.45261794 -0.65303564 -0.4643228 -0.4306463 0.64815825 -0.39904568
-0.15336506 0.6010943 -0.430202 0.6060943 -0.40099782 -0.34800243 -0.44169962 0.6379885
-0.00021838341 -0.41449344 -0.5234396 0.6320886 0.6018968 0.57574123 0.59251183 -0.5127085
0.7208643 -0.40186352 -0.5159277 0.585989 -0.2743842 -0.28886652 -0.41518605 -0.44208568
-0.12173823 -0.5036833 -0.2438716 0.56834203 0.58161706 -0.32642663 0.63241744 -0.17384689
-0.40874735 0.6040108 -0.50568396 0.599714 -0.5332507 0.64952326 -0.3808324 -0.31310683
-0.4074142 -0.49989155 -0.64689136 -0.5222895 -6.716357e-05 -0.1620642 0.61792344 -0.3747383
0.0011203954 -0.41167843 -0.36792246 -0.4184206 0.6483085 -0.32972866 -0.36878753 0.5706767
-0.4725534 -0.26940152 0.63434565 0.58353704 -0.5072383 0.60985553 -0.4192444 -0.39961562
00000000: 20f9 1d3f 561b 10b7 58e2 c1be c2eb d0be
00000010: 87f5 f2be d127 163f a265 07bf 7c66 223f
00000020: baaa 9c39 f304 9dbe 3639 debe c4de 5c3d
00000030: 974a dcbe 8e69 1b3f 06d6 55bf 392f 203f
00000040: 0d9e cdbe 9026 133f 414a fbbe 5581 b9be
00000050: b080 213f 9623 273f 5cd4 cabe d8ef e2be
00000060: 18d6 e3be 8563 84be 69e4 00bf e2d8 1e3f
00000070: 04c5 50bd d2da e2be 359f 97be cf7f f5be
00000080: 06e7 bebe 9663 cebe f463 213f cb49 1c3f
00000090: be46 e0be 4a97 07bf 5d2a febe 041e 72be
000000a0: cc77 e5be d1aa 1dbf 445f fcbe b454 c3be
000000b0: 5a62 1b3f 8f49 1c3f 43fa 34bf 1a53 233f
000000c0: dd6e 57bc 5a74 f1be fe5f c8be b339 ebbe
000000d0: 4fe2 d4be 88ea cabe a6bc 4f3f 4302 ebbe
000000e0: 17a3 c8be 1811 a2be 8abd e7be 582d 27bf
000000f0: b8bb edbe ac7d dcbe b3ed 253f b74f ccbe
00000100: bb0b 1dbe 51e1 193f 7043 dcbe ff28 1b3f
00000110: 964f cdbe 602d b2be 7426 e2be 3753 233f
00000120: dafd 64b9 7c38 d4be 2300 06bf 8fd0 213f
00000130: e915 1a3f c763 133f dbae 173f dd40 03bf
00000140: 908a 383f 0ec1 cdbe d613 04bf 6003 163f
00000150: 167c 8cbe 50e6 93be 4493 d4be 0e59 e2be
00000160: e551 f9bd 64f1 00bf 7ab9 79be dd7e 113f
00000170: dbe4 143f 6421 a7be 1ce6 213f eb04 32be
00000180: 5547 d1be 74a0 1a3f 8174 01bf db86 193f
00000190: 1e83 08bf 2847 263f 77fc c2be 8a4f a0be
000001a0: 9898 d0be c9f1 ffbe ac9a 25bf c4b4 05bf
000001b0: 2bda 8cb8 28f4 25be 3b30 1e3f b3dd bfbe
000001c0: 3bda 923a 84c7 d2be 5560 bcbe 3a3b d6be
000001d0: 8cf7 253f 32d2 a8be b8d1 bcbe de17 123f
000001e0: 85f2 f1be ffee 89be 7a64 223f af62 153f
000001f0: 5fda 01bf 7e1f 1c3f 34a7 d6be 6b9a ccbe

gc3.weight f4 [128, 256]
-0.4632756 -0.50706816 -0.05480999 -0.6382997 -0.6060453 -0.29480502 -0.42396325 -0.63475233
-0.611126 -0.62463963 0.041448284 -0.59581625 -0.4617465 -0.06905308 0.06114422 0.34783342
-0.62729496 -0.60107684 -0.622072 -0.11064163 -0.6196295 -0.5039416 -0.45922557 -0.4826625
-0.053084556 -5.06232e-07 -0.6516549 -0.22921376 -0.479159 -0.48117563 -0.49647233 -0.04105259
-0.5066552 -0.46886328 -0.6518394 -0.63794464 0.32766265 -0.6431178 -0.4804898 -0.5445082
0.55071115 -0.50501806 -0.6471275 -0.41074917 -0.6021324 -0.5970188 -0.6101788 -0.4352401
-0.6142737 -0.62912273 -0.5141472 -0.61035943 -0.6480306 -2.0301766e-05 -0.47457922 -0.4232204
-0.6122287 -0.46203718 -0.604988 -0.48955008 -0.61958987 -0.49384338 -0.49736202 -0.49344808
-0.6376307 -0.60793597 -0.35797784 -0.63250583 -0.5063981 0.5933632 -0.47290906 -0.4959316
-0.48385856 -0.4651695 -0.47643566 -0.6095571 -0.63713896 -0.6530503 0.4286676 -0.5966414
-0.51219535 -0.4804386 -0.45890263 -0.4093404 -0.62261647 -0.5028612 -0.6135808 0.50315136
-0.6428525 -0.48637423 -0.6117325 -0.49691063 -0.6522573 0.486345 -0.014225762 -0.650874
-0.23621579 -0.46163306 0.02071171 -0.5356039 -0.3074042 -0.6499151 -0.4708737 0.39454615
-0.48099273 -0.6114221 -0.47091 -0.468076 -0.5128203 -0.6015337 -0.32824898 -0.5122418
-0.6517776 -0.4762113 -0.46924675 -0.5332102 -0.18691528 -0.75336224 -0.5933583 0.3595845
-0.46381474 -0.46165586 -0.63660294 -0.47775838 -0.61736125 0.018326517 -0.20621571 -0.62716925
-0.24161719 5.2934574e-06 -0.52833116 -0.62197137 -0.65211254 -0.49781957 -0.4995658 0.28303337
-0.46306264 -0.6347047 0.5505852 -0.46199858 -0.477038 -0.47084245 -0.47864747 -0.6158327
-0.48666623 -0.4981148 -0.32125783 -0.63553214 -0.65226185 -0.46486 1.5132417e-05 -0.47689256
-0.5115949 -0.4648066 -0.6395611 -0.63142717 0.44023332 -0.507776 0.00037010515 -0.49852157
-0.61560065 -0.64340085 -0.49072522 -0.6015679 -0.6199245 -0.6522101 0.31960943 -0.5071341
-0.5066215 -0.64173806 -0.61391777 -0.6145553 -0.5937172 1.0964392e-05 -0.625952 0.6170089
-0.3617645 -0.4836209 -0.615632 -0.630079 0.6057852 -0.48169267 0.50945556 -0.60865253
-0.60773516 -0.64233834 0.614192 -0.62296575 -0.6046267 -0.4890434 -0.42407814 -0.6416235
-0.62125725 -0.63435596 -0.5240707 -0.5090631 -0.47421867 -0.51012427 -0.46061984 0.064179935
-0.5071816 -0.50346327 -0.48335385 -0.6526934 -0.404603 -0.50498813 0.4439555 -0.47165543
-0.48514682 -0.6736752 -0.6345584 -0.6721653 0.5619307 -0.6127588 -0.643927 -0.48155403
-0.6017516 -0.6431305 -0.44481722 -0.6116514 -0.45876256 -0.60419285 -0.46284974 -0.46280584
-0.64793575 -0.38130292 -0.62428224 -0.4905844 -0.60123307 -0.65294826 -0.6328304 -0.5020457
-0.4792981 -0.6150965 -0.354947 -0.51123863 -0.167223 -0.569021 -0.4593729 -0.23826501
-0.6148752 -0.47698298 -0.5170036 -0.4946225 -0.63702345 -0.5019344 -0.50532514 0.6509452
-0.63929707 -0.49512193 0.5337965 -0.62164116 -0.49819338 0.5479136 -0.4743985 -0.60563
00000000: 7632 edbe 38cf 01bf 7180 60bd 9c67 23bf
00000010: c925 1bbf aff0 96be b611 d9be 217f 22bf
00000020: c172 1cbf 62e8 1fbf adc5 293d 6a87 18bf
00000030: 0a6a ecbe b46b 8dbd 5d72 7a3d 3917 b23e
00000040: 6796 20bf 2ce0 19bf 1c40 1fbf 1498 e2bd
00000050: 0aa0 1ebf 5102 01bf 9d1f ebbe 8a1f f7be
00000060: 316f 59bd 00e4 07b5 dbd2 26bf 03b7 6abe
00000070: 5454 f5be a75c f6be 9f31 febe c326 28bd
00000080: 28b4 01bf d90e f0be f2de 26bf 5750 23bf
00000090: 66c3 a73e 5ea3 24bf c202 f6be e464 0bbf
000000a0: 68fb 0c3f dd48 01bf 26aa 25bf b74d d2be
000000b0: 5925 1abf 39d6 18bf ae34 1cbf cad7 debe
000000c0: 0b41 1dbf 300e 21bf 279f 03bf 8440 1cbf
000000d0: 55e5 25bf b64d aab7 0cfc f2be 58b0 d8be
000000e0: 05bb 1cbf 2390 ecbe 7ee0 1abf 4fa6 fabe
000000f0: 719d 1ebf 0ad9 fcbe 3ca6 febe 3aa5 fcbe
00000100: c43b 23bf b1a1 1bbf df48 b7be e7eb 21bf
00000110: 4ea3 01bf a7e6 173f 2321 f2be bfea fdbe
00000120: 4fbc f7be b22a eebe 60ef f3be ef0b 1cbf
00000130: 8a1b 23bf 4e2e 27bf 527a db3e 7ebd 18bf
00000140: 3c1f 03bf 0cfc f5be 49f5 eabe 1195 d1be
00000150: cb63 1fbf 83bb 00bf a213 1dbf 87ce 003f
00000160: fb91 24bf 0b06 f9be 809a 1cbf 126b febe
00000170: 56fa 26bf 3602 f93e 2c13 69bc ae9f 26bf
00000180: 8de2 71be 2b5b ecbe 9bab a93c 561d 09bf
00000190: 1564 9dbe d660 26bf 5c16 f1be f401 ca3e
000001a0: ae44 f6be 2986 1cbf 1e1b f1be a8a7 efbe
000001b0: 3148 03bf 1dfe 19bf 4010 a8be 4722 03bf
000001c0: e6da 26bf f8d1 f3be 1c41 f0be 7780 08bf
000001d0: b866 3fbe 59dc 40bf 54e6 17bf 761b b83e
000001e0: 2079 edbe 285e ecbe 69f8 22bf bf9c f4be
000001f0: 630b 1ebf 7e21 963c 362a 53be 2a8e 20bf
00000200: 7f6a 77be 749e b136 b640 07bf 8439 1fbf
00000210: d9f0 26bf 35e2 febe 17c7 ffbe c0e9 903e
00000220: 8c16 edbe 027c 22bf 27f3 0c3f 148b ecbe
00000230: 533e f4be 4312 f1be 4811 f5be 36a7 1dbf
00000240: 512c f9be e708 ffbe e87b a4be 3cb2 22bf
00000250: a2fa 26bf 2102 eebe 3ce1 7d37 432b f4be
00000260: e2f7 02bf 21fb edbe 47ba 23bf 36a5 21bf
00000270: 4366 e13e 9cfd 01bf ac0a c239 383e ffbe
00000280: 0198 1dbf ebb5 24bf 5640 fbbe 5b00 1abf
00000290: 5fb3 1ebf 3ef7 26bf d9a3 a33e 8ad3 01bf
000002a0: f2b1 01bf f248 24bf b729 1dbf 7f53 1dbf
000002b0: dafd 17bf b4f3 3737 643e 20bf 4cf4 1d3f
000002c0: 3239 b9be 299d f7be 0f9a 1dbf db4c 21bf
000002d0: bd14 1b3f 6ca0 f6be ae6b 023f a7d0 1bbf
000002e0: 8894 1bbf 4970 24bf b03b 1d3f af7a 1fbf
000002f0: d1c8 1abf e663 fabe c520 d9be 7041 24bf
00000300: b70a 1fbf 2765 22bf 7f29 06bf f651 02bf
00000310: cacc f2be 8197 02bf 5dd6 ebbe c570 833d
00000320: a7d6 01bf f8e2 00bf 287a f7be ea16 27bf
00000330: 2028 cfbe e746 01bf 234e e33e d27c f1be
00000340: 2a65 f8be fa75 2cbf 6b72 22bf 0613 2cbf
00000350: b1da 0f3f c3dd 1cbf 66d8 24bf 408e f6be
00000360: 650c 1abf 33a4 24bf 15bf e3be 3095 1cbf
00000370: ede2 eabe 62ac 1abf a4fa ecbe e3f4 ecbe
00000380: 1edf 25bf 233a c3be f6d0 1fbf e12d fbbe
00000390: 69ea 19bf 9e27 27bf 2c01 22bf 1186 00bf
000003a0: 9066 f5be f776 1dbf 9dbb b5be 89e0 02bf
000003b0: 823c 2bbe 5cab 11bf ed32 ebbe befb 73be
000003c0: 7668 1dbf 1d37 f4be 595a 04bf 293f fdbe
000003d0: f813 23bf c67e 00bf fd5c 01bf 58a4 263f
000003e0: f9a8 23bf 9f80 fdbe e3a6 083f e023 1fbf
000003f0: 3413 ffbe 1144 0c3f 5ce4 f2be 910a 1bbf

gc3.bias f4 [256]
-0.5110412 -0.41525504 -0.46034503 -0.46049556 -0.60359484 -0.066798516 -0.64935035 -0.4430933
-0.39525783 -0.47665495 0.3307555 -0.50829506 -0.43876055 -0.56464696 0.6081348 0.6236453
-0.42180806 -0.4340379 -0.44486088 -0.16166233 -0.46727532 -0.415039 -0.49515614 -0.41336194
-0.2445024 -0.5056159 -0.4060661 -0.26870733 -0.48032272 -0.39648527 -0.40069133 -0.077925846
-0.6899844 -0.47056535 -0.4328728 -0.44643053 0.5947934 -0.42585984 -0.45355636 0.5943712
0.6363516 -0.4341091 -0.450579 -0.664312 -0.49190515 -0.48301634 -0.41525576 -0.6632703
-0.40584785 -0.3992738 -0.41721797 -0.458252 -0.5072972 -0.51115197 -0.463768 -0.753571
-0.4317106 -0.42706373 -0.55815494 -0.4168315 -0.4959166 -0.43296295 -0.51761377 -0.43255153
-0.42365414 -0.4281775 0.07737429 -0.45635095 -0.47603387 0.629425 -0.67024565 -0.398772
-0.39921212 -0.6907787 -0.45189315 -0.6122137 -0.4907504 -0.40713 0.64053726 -0.4092231
-0.45355472 -0.4318128 -0.49632648 -0.4384104 -0.42335397 -0.41672373 -0.46814823 0.6198946
-0.394063 -0.4448161 -0.43602198 -0.4032662 -0.39547053 0.63690627 -0.34837607 -0.43538487
-0.29571807 -0.4780435 -0.041179627 -0.68542 0.61232543 -0.45746735 -0.44039893 0.61567277
-0.41893637 -0.4299373 -0.47583988 -0.46251804 -0.447902 -0.42400783 -0.2653288 -0.48849118
-0.50669664 -0.5375816 -0.44542474 -0.3758578 -0.5136385 0.59923065 -0.48254317 0.61260146
-0.4184023 -0.39717928 -0.3959555 -0.48463005 -0.42737997 0.18915237 -0.26758823 -0.44386297
-0.33464867 -0.6219535 -0.6983203 -0.44007665 -0.43446136 -0.48837397 -0.65856767 0.35329998
-0.5104863 -0.41334605 0.6317289 -0.3978397 -0.45552963 -0.65291786 -0.3999555 -0.42396706
-0.40913224 -0.4278263 -0.120946415 -0.46217054 -0.41693917 -0.77653843 -0.2554391 -0.41643998
-0.4875354 -0.70888275 -0.45280755 -0.5181916 0.6197114 -0.49548265 -0.1983558 -0.3979818
-0.41859695 -0.5054507 -0.5041332 -0.74481267 -0.45676708 -0.48382035 0.4585907 -0.42467105
-0.43515563 -0.50333285 -0.4788506 -0.4280359 -0.429465 -0.4991439 -0.49051622 -0.45893022
-0.5129938 -0.43548313 -0.48513696 -0.5007213 0.62195134 -0.6892618 0.45508885 -0.45977107
-0.48968828 -0.40683845 0.6275555 -0.64963454 -0.46447662 -0.4671593 -0.34396055 -0.4589389
-0.46856916 -0.39972484 -0.27059954 -0.49228972 -0.40701583 -0.44759193 -0.46536267 0.05067966
-0.42189544 -0.65221184 -0.4453794 -0.40610635 -0.20257667 -0.4332911 0.61789554 -0.5068584
-0.4202468 -0.5792824 -0.50099814 -0.5655862 0.6155153 -0.47833827 -0.40449253 -0.50118756
-0.40738818 -0.41148517 -0.59679615 -0.39595613 -0.48316443 -0.48637792 -0.49632785 -0.709686
-0.47392017 -0.78031343 -0.50543284 -0.39695838 -0.45232213 -0.46674517 -0.4073207 -0.39373887
-0.5174397 -0.45355192 -0.14437518 0.60584974 0.070051596 -0.6029813 -0.48820758 -0.18796396
-0.43718386 -0.41219446 -0.43200967 -0.41739216 -0.44854745 -0.5179721 -0.48273122 -0.46059203
-0.5086594 -0.49984348 0.6102488 -0.44370452 -0.44085336 0.62224185 -0.48473138 -0.42161208
00000000: 99d3 02bf 4f9c d4be 58b2 ebbe 13c6 ebbe
00000010: 3185 1abf a9cd 88bd d33b 26bf 20dd e2be
00000020: 3c5f cabe 1e0c f4be c958 a93e a01f 02bf
00000030: 39a5 e0be b48c 10bf b9ae 1b3f 38a7 1f3f
00000040: 3af7 d7be 373a debe cec4 e3be cf8a 25be
00000050: b63e efbe fe7f d4be 1b85 fdbe 2da4 d3be
00000060: d65e 7abe 0b70 01bf e5e7 cfbe 0294 89be
00000070: dcec f5be 1e00 cbbe 6a27 cdbe 9697 9fbd
00000080: d1a2 30bf f1ed f0be 81a1 ddbe 8b92 e4be
00000090: 6144 183f 4d0a dabe 8a38 e8be b628 183f
000000a0: f0e7 223f 8c43 debe 4ab2 e6be 5a10 2abf
000000b0: feda fbbe eb4d f7be 679c d4be 15cc 29bf
000000c0: 4acb cfbe 9e6d ccbe 989d d5be 02a0 eabe
000000d0: 3bde 01bf dbda 02bf 0073 edbe 07ea 40bf
000000e0: 2c09 ddbe 19a8 dabe 3ee3 0ebf f06a d5be
000000f0: c8e8 fdbe 52ad ddbe 5682 04bf 6577 ddbe
00000100: 32e9 d8be 153a dbbe 6976 9e3d d5a6 e9be
00000110: b6ba f3be ff21 213f 3895 2bbf d82b ccbe
00000120: 8865 ccbe dfd6 30bf 8a5e e7be 09ba 1cbf
00000130: a343 fbbe 5873 d0be 40fa 233f b185 d1be
00000140: 5338 e8be 9116 ddbe 811e febe 5477 e0be
00000150: dac1 d8be d05c d5be 20b1 efbe 6ab1 1e3f
00000160: a0c2 c9be f0be e3be 463e dfbe e878 cebe
00000170: 1d7b cabe 4a0c 233f 595e b2be c4ea debe
00000180: 5c68 97be 1ec2 f4be f8ab 28bd af77 2fbf
00000190: 5cc1 1c3f 2939 eabe f87b e1be bb9c 1d3f
000001a0: d47e d6be be20 dcbe 49a1 f3be 2acf ecbe
000001b0: 6953 e5be 8e17 d9be 2dd9 87be 841b fabe
000001c0: dfb6 01bf f39e 09bf b60e e4be 6f70 c0be
000001d0: d07d 03bf 2e67 193f e60f f7be 73d3 1c3f
000001e0: d438 d6be 155b cbbe aeba cabe 6e21 f8be
000001f0: 8cd1 dabe 29b1 413e 5301 89be 0242 e3be
00000200: 1257 abbe 5838 1fbf 1fc5 32bf ba51 e1be
00000210: b871 debe 270c fabe e497 28bf bce3 b43e
00000220: 3baf 02bf 18a2 d3be fcb8 213f a5b1 cbbe
00000230: 2e3b e9be a025 27bf f8c6 ccbe 3612 d9be
00000240: c879 d1be 0c0c dbbe c1b2 f7bd 9ea1 ecbe
00000250: 0d79 d5be 39cb 46bf eac8 82be 9f37 d5be
00000260: 3d9e f9be 5779 35bf 64d6 e7be 34a8 04bf
00000270: 68a5 1e3f e7af fdbe c81d 4bbe 45c4 cbbe
00000280: 5752 d6be 3865 01bf e00e 01bf 0bac 3ebf
00000290: 60dd e9be 4db7 f7be 66cc ea3e 7c6e d9be
000002a0: b8cc debe 6cda 00bf e82b f5be 8627 dbbe
000002b0: d6e2 dbbe ca8f ffbe f124 fbbe e7f8 eabe
000002c0: 9053 03bf a5f7 debe df63 f8be 452f 00bf
000002d0: 3438 1f3f 7673 30bf 6801 e93e 1d67 ebbe
000002e0: 6cb8 fabe 214d d0be 7aa7 203f 734e 26bf
000002f0: e1cf edbe 812f efbe 991b b0be 0afa eabe
00000300: 4ce8 efbe bca8 ccbe 068c 8abe 660d fcbe
00000310: 6164 d0be c52a e5be 0444 eebe 7a95 4f3d
00000320: ae02 d8be 5bf7 26bf c508 e4be 2ced cfbe
00000330: 4270 4fbe 55d8 ddbe 672e 1e3f 79c1 01bf
00000340: 972a d7be da4b 14bf 6a41 00bf 42ca 10bf
00000350: 6992 1d3f c1e8 f4be a519 cfbe d44d 00bf
00000360: 2f95 d0be 2fae d2be a2c7 18bf c3ba cabe
00000370: 5461 f7be 8706 f9be af1e febe fbad 35bf
00000380: aaa5 f2be 9fc2 47bf 0c64 01bf 213e cbbe
00000390: c496 e7be 39f9 eebe 578c d0be 2498 c9be
000003a0: ee76 04bf f537 e8be 16d7 13be f818 1b3f
000003b0: 3677 8f3d fc5c 1abf 58f6 f9be a079 40be
000003c0: 90d6 dfbe 270b d3be 5f30 ddbe 6db4 d5be
000003d0: 03a8 e5be d299 04bf 8c28 f7be b8d2 ebbe
000003e0: 8137 02bf 7ceb ffbe 4439 1c3f 3d2d e3be
000003f0: 88b7 e1be 3e4b 1f3f b62e f8be 8add d7be

gc4.weight f4 [256, 256]
-0.46213132 -0.6144403 -0.6000245 -0.652213 -0.616896 4.3836144e-06 7.5013404e-06 -0.4814757
-0.6184623 -6.03674e-06 -6.3146335e-06 -0.6420783 -0.4668442 -0.50335115 -0.61996853 4.9546034e-06
-0.4762309 -1.2727689e-05 -0.6476803 2.1461714e-05 -1.3253746e-05 -0.45882264 -0.516525 -0.46727747
-0.63027674 -0.4588619 -0.64083695 -0.65015686 -0.65156853 -0.5995453 -0.64808506 -0.60242236
1.7056442e-05 -0.6401495 -3.4008208e-06 -0.6327123 -0.6226597 -0.6055408 -0.63513523 3.6473248e-06
-0.6155533 -0.59860855 1.164708e-05 1.9939294e-05 -0.64970213 1.06676e-05 -0.60486794 -0.5115077
-0.4624211 -0.5034198 -0.46049136 -0.5047725 -0.45968965 -1.2275541e-06 -0.49920347 -0.49029544
-0.62422884 -0.46697885 -0.4791348 -0.6081518 -0.6481018 -0.48769048 7.86602e-06 -0.62011284
-0.65095925 -0.45875856 9.529949e-06 -0.47686183 -0.46519446 -0.60268843 2.7629903e-06 -0.63993925
-0.63946867 -0.45945978 -0.50998604 -0.49299976 -0.6336914 -0.63505715 -0.6467406 -0.49153346
-0.6243573 -1.5464184e-06 -0.6399103 -0.63754505 -0.595878 -2.2879498e-05 -0.4870564 0.59835285
-0.48435524 -0.4597367 -0.6213471 -0.48597205 -0.63719577 -0.6305379 2.3038167e-05 5.449412e-06
1.1904044e-05 -0.51061094 -2.5540867e-06 -1.4893898e-05 -0.4594617 -0.6398245 -0.46809736 -0.48124555
-0.46205655 -1.0571699e-05 -0.49576393 -0.64619774 -1.023245e-05 2.1640048e-05 -0.4595018 -0.473769
-0.59983 -1.4596699e-05 -0.47765875 1.2792136e-05 -0.61294854 -0.64272213 -0.48320138 -0.601408
-0.49388093 -0.6309322 4.7689373e-06 -0.46169046 -0.61642605 -1.9010404e-05 -0.6444848 -0.46166894
-3.3837005e-06 -0.47612762 1.094956e-05 -0.46850994 -0.46384484 -1.5082482e-05 1.1234146e-05 9.6334325e-06
-1.6343183e-06 -0.61572164 0.49467996 -0.59563905 -0.60652536 -0.5078758 -0.49082768 -0.46920717
-0.62099975 -0.46179846 -2.040145e-05 -0.51428723 -0.4588067 8.290952e-06 -0.4938435 -0.48401606
-2.6950202e-06 -0.46476734 -0.6138923 -0.6289869 -0.64372104 -0.6513695 -0.5141357 -0.6431598
-0.651826 -0.629516 0.5024333 -0.5036057 -0.5962906 0.59952927 -0.47408965 -0.6477235
9.1287675e-06 -0.48099184 -0.480775 -0.47363958 -0.5081911 1.19069e-05 -0.48660365 -0.5179176
-1.0881562e-05 -0.59866804 1.8015386e-05 -1.8420329e-05 -1.29367045e-05 -0.61398816 -4.5313955e-06 -0.51167685
-0.51328295 -0.5943663 -0.51588464 -2.107259e-05 -0.6117614 -0.5961496 -0.51128185 -0.45893502
-1.7780785e-05 -0.49252874 -0.5054847 -0.63822037 -0.6131921 -0.49459407 -0.600669 6.1719184e-06
-0.6429671 -0.4801654 -0.6238383 -0.4630249 -0.49305716 -0.47988528 -1.431565e-05 -0.51211244
-0.4794251 -0.5945728 -2.1016573e-05 -0.63583505 -5.36721e-06 8.455087e-06 -0.502922 -1.1063894e-06
-0.5175775 -0.461695 -0.6307645 -0.47968838 -0.63171476 0.62023115 5.3668073e-06 1.1122661e-05
-0.64190483 -3.2320086e-06 2.225799e-06 6.7548644e-06 -0.51310414 -0.5150463 -0.47480205 -0.60774255
1.876038e-05 -0.5117859 -3.200712e-06 1.1609188e-05 -4.291509e-06 -0.4969274 -1.0185169e-05 -0.65072304
-0.49302068 -0.45874104 -0.4751654 -0.63302994 -0.6393834 -0.60580003 -0.6529884 0.6058455
-1.2322122e-05 -0.5085286 -1.4654488e-05 -0.6258605 -0.6286268 -0.62900525 -0.61746615 -0.4895532
00000000: 7a9c ecbe f64b 1dbf 359b 19bf 6ef7 26bf
00000010: e5ec 1dbf f616 9336 06b4 fb36 fc83 f6be
00000020: 8c53 1ebf 348f cab6 4ae2 d3b6 3e5f 24bf
00000030: 3406 efbe 9fdb 00bf 42b6 1ebf b83f a636
00000040: 89d4 f3be 0289 55b7 60ce 25bf ae08 b437
00000050: 685c 5eb7 cdea eabe fb3a 04bf fe3e efbe
00000060: d159 21bf f2ef eabe e40d 24bf ae70 26bf
00000070: 32cd 26bf cd7b 19bf e7e8 25bf 5a38 1abf
00000080: 6e14 8f37 d6e0 23bf a839 64b6 6ff9 21bf
00000090: a066 1fbf b904 1bbf 3998 22bf 90c4 7436
000000a0: e794 1dbf 693e 19bf d467 4337 4f43 a737
000000b0: e152 26bf fef8 3237 a0d8 1abf 2bf2 02bf
000000c0: 75c2 ecbe 1fe0 00bf 86c5 ebbe c538 01bf
000000d0: 715c ebbe 70c2 a4b5 9997 ffbe 0108 fbbe
000000e0: 76cd 1fbf da17 efbe 2851 f5be d6af 1bbf
000000f0: 00ea 25bf 91b2 f9be 4cf8 0337 b7bf 1ebf
00000100: 44a5 26bf 67e2 eabe d2e2 1f37 3c27 f4be
00000110: f82d eebe ca49 1abf d06b 3936 0fd3 23bf
00000120: 38b4 23bf 503e ebbe 728e 02bf 776a fcbe
00000130: 9939 22bf 1b93 22bf cb90 25bf 46aa fbbe
00000140: e1d5 1fbf 888e cfb5 29d1 23bf 2736 23bf
00000150: 768b 18bf 59ed bfb7 755f f9be a72d 193f
00000160: 69fd f7be 9c62 ebbe 9b10 1fbf 54d1 f8be
00000170: 431f 23bf ef6a 21bf 1642 c137 18da b636
00000180: 7bb7 4737 66b7 02bf e066 2bb6 cee0 79b7
00000190: 903e ebbe 8acb 23bf 75aa efbe d165 f6be
000001a0: ad92 ecbe 1a5d 31b7 c5d4 fdbe 376d 25bf
000001b0: 0aac 2bb7 a687 b537 d243 ebbe da91 f2be
000001c0: 758e 19bf 58e4 74b7 b08f f4be ce9d 5637
000001d0: 32ea 1cbf 7089 24bf 2c66 f7be e0f5 19bf
000001e0: f6dd fcbe c684 21bf dc04 a036 b162 ecbe
000001f0: 19ce 1dbf 8878 9fb7 f5fc 24bf df5f ecbe
00000200: 8813 63b6 00c7 f3be 01b4 3737 89e0 efbe
00000210: 127d edbe c40a 7db7 4a7a 3c37 479f 2137
00000220: c05a dbb5 ef9f 1dbf b146 fd3e cd7b 18bf
00000230: 3f45 1bbf 2604 02bf c44d fbbe ec3b f0be
00000240: d7f9 1ebf d970 ecbe c823 abb7 54a8 03bf
00000250: b6e8 eabe 5e19 0b37 0ed9 fcbe f4d0 f7be
00000260: 18dc 34b6 fcf5 edbe 0c28 1dbf 4905 21bf
00000270: e7ca 24bf 27c0 26bf 669e 03bf 1fa6 24bf
00000280: 12de 26bf f627 21bf 789f 003f 4eec 00bf
00000290: 80a6 18bf c07a 193f e1bb f2be 35d1 25bf
000002a0: c227 1937 9044 f6be 2428 f6be e380 f2be
000002b0: d018 02bf bfc3 4737 1d24 f9be 3f96 04bf
000002c0: f48f 36b7 4f42 19bf bf1f 9737 5b85 9ab7
000002d0: b90a 59b7 542e 1dbf 640c 98b6 41fd 02bf
000002e0: 8366 03bf 6428 18bf 0411 04bf 0bc5 b0b7
000002f0: 659c 1cbf 439d 18bf 5ee3 02bf 88f9 eabe
00000300: f227 95b7 ba2c fcbe 7267 01bf 6962 23bf
00000310: 28fa 1cbf 6f3b fdbe 72c5 19bf 6018 cf36
00000320: 7e99 24bf 3dd8 f5be deb3 1fbf 9a11 edbe
00000330: fd71 fcbe 86b3 f5be 402d 70b7 cd19 03bf
00000340: 3577 f5be ec35 18bf bf4c b0b7 16c6 22bf
00000350: fc17 b4b6 52da 0d37 7fbf 00bf 407f 94b5
00000360: f67f 04bf 4963 ecbe c879 21bf b799 f5be
00000370: 0fb8 21bf 78c7 1e3f 8614 b436 779b 3a37
00000380: e053 24bf 7ce5 58b6 f05e 1536 d8a7 e236
00000390: cb5a 03bf 13da 03bf 4119 f3be 0495 1bbf
000003a0: 9c5f 9d37 6704 03bf d0cb 56b6 15c5 4237
000003b0: c8ff 8fb6 456d febe f8e0 2ab7 c995 26bf
000003c0: 356d fcbe 1be0 eabe e148 f3be 400e 22bf
000003d0: a1ae 23bf b615 1bbf 3f2a 27bf b118 1b3f
000003e0: 1cbb 4eb7 ee2e 02bf 8cdc 75b7 6538 20bf
000003f0: b0ed 20bf 7d06 21bf 4312 1ebf b8a6 fabe

gc4.bias f4 [256]
-0.42212623 -0.40313652 -0.4611157 -0.4218525 -0.47367656 -0.22878338 -0.5626924 -0.48996133
-0.40542755 0.006111151 -0.37944487 -0.43905544 -0.44472328 -0.51558006 -0.50876486 -0.08992479
-0.4928299 0.10973987 -0.4723001 -0.4583322 -0.26417118 -0.5171629 -0.4099866 -0.42217755
-0.4802993 -0.43603063 -0.4035855 -0.49593532 -0.4135625 -0.4234279 -0.44500116 -0.4927204
-0.09897687 -0.39540842 -0.036012508 -0.43888965 -0.5038291 -0.50506616 -0.43057564 -0.32074112
-0.4899654 -0.41596317 -0.4497261 -0.17030446 -0.45578936 -0.48737535 -0.44889617 -0.4851922
-0.49912265 -0.42794737 -0.4164801 -0.4458225 -0.4575941 -0.64057386 -0.46512648 -0.4231775
-0.45588118 -0.5001052 -0.498134 -0.40967542 -0.42802608 -0.42261422 0.09021078 -0.43016165
-0.40321764 -0.41958043 -0.29149795 -0.45044947 -0.4016924 -0.41844997 -0.3660421 -0.47870153
-0.49918148 -0.48417878 -0.51111233 -0.4293181 -0.42885816 -0.51428556 -0.46692166 -0.49841028
-0.4887121 -0.38745448 -0.4160965 -0.41112584 -0.46463883 -0.034523286 -0.40528926 0.6367256
-0.413936 -0.4762308 -0.43300456 -0.42555577 -0.4995589 -0.49637145 -0.62171715 -0.47488293
-0.24424408 -0.47060075 0.1794826 -0.6819802 -0.45720932 -0.49822882 -0.45261928 -0.49247485
-0.41209704 -0.29196474 -0.42158708 -0.64355797 -0.30604342 -0.00024943711 -0.4755997 -0.51390475
-0.4587172 -0.71206194 -0.40692833 -0.6358725 -0.46383786 -0.5062896 -0.39697954 -0.4790552
-0.4360076 -0.4013761 -0.22500336 -0.442348 -0.47488058 -0.113104425 -0.4289236 -0.42808574
-0.019900016 -0.4244496 -0.5407911 -0.44366792 -0.40360117 -0.4487214 -0.036314502 0.007127328
-0.53924507 -0.4586243 0.4598198 -0.4280862 -0.4795649 -0.43240145 -0.42263266 -0.5167086
-0.4909604 -0.39457172 -0.4279194 -0.40893203 -0.4390684 -0.28853333 -0.5131394 -0.42269415
-0.23049462 -0.48840368 -0.4068953 -0.49101564 -0.4831116 -0.40764648 -0.4903193 -0.46209434
-0.49901572 -0.48208138 0.64051604 -0.456044 -0.5076604 0.60001546 -0.394764 -0.64961416
-0.51311576 -0.5044119 -0.49537197 -0.47759143 -0.43175086 0.06734918 -0.4135785 -0.5053168
0.23246618 -0.48197982 -0.20714636 -0.2789803 -0.30182618 -0.51512897 -0.37388912 -0.50444525
-0.4862275 -0.44386154 -0.4790531 -0.063034885 -0.6519831 -0.46695814 -0.47749668 -0.40378535
-0.2814263 -0.4432473 -0.43867293 -0.46983472 -0.47287643 -0.4311785 -0.49856356 -0.41838244
-0.39397007 -0.4505977 -0.45489854 -0.50841975 -0.48609748 -0.41311523 -0.74588436 -0.49751565
-0.47809142 -0.40645435 -0.31717777 -0.41226196 -0.81136227 -0.7012641 -0.4366323 -0.44897425
-0.4308486 -0.44099456 -0.5082688 -0.48247653 -0.46097136 0.6374448 -0.43795404 -0.50537974
-0.43202326 -0.3105833 -0.13980304 0.19449037 -0.48636883 -0.47388065 -0.4451333 -0.39469212
-0.47787467 -0.48969194 -0.45968306 -0.10063786 0.26956734 -0.45887604 -0.17979726 -0.47065532
-0.44217655 -0.460721 -0.41206053 -0.42567047 -0.48236895 -0.4038159 -0.46213675 0.45626748
-0.4047965 -0.45448858 -0.36822388 -0.40017706 -0.5129413 -0.5161663 -0.5095869 -0.47094285
00000000: ee20 d8be e967 cebe 5b17 ecbe 0dfd d7be
00000010: bc85 f2be 3146 6abe 9c0c 10bf 36dc fabe
00000020: 3394 cfbe 0d40 c83b 9946 c2be e0cb e0be
00000030: c5b2 e3be 0efd 03bf 6a3e 02bf 7d2a b8bd
00000040: 3354 fcbe 4cbf e03d 52d1 f1be 85aa eabe
00000050: 7241 87be ca64 04bf c3e9 d1be a827 d8be
00000060: cae9 f5be 683f dfbe c2a2 cebe 3ceb fdbe
00000070: 77be d3be 8bcb d8be 31d7 e3be d945 fcbe
00000080: 63b4 cabd f972 cabe da81 13bd 25b6 e0be
00000090: f2fa 00bf 044c 01bf 6974 dcbe 2e38 a4be
000000a0: bfdc fabe 20f9 d4be 8042 e6be 4b64 2ebe
000000b0: 395d e9be 4389 f9be b8d5 e5be 1d6b f8be
000000c0: 018d ffbe eb1b dbbe e13c d5be d942 e4be
000000d0: c649 eabe a6fc 23bf 0f25 eebe b9aa d8be
000000e0: 4269 e9be e506 00bf 6b0b ffbe fac0 d1be
000000f0: 3c26 dbbe e460 d8be 6ec0 b83d 263e dcbe
00000100: 8b72 cebe 3fd3 d6be 383f 95be 50a1 e6be
00000110: a0aa cdbe 133f d6be df69 bbbe 5e18 f5be
00000120: b794 ffbe 48e6 f7be 42d8 02bf 95cf dbbe
00000130: 4c93 dbbe 38a8 03bf 5b10 efbe a22f ffbe
00000140: 7938 fabe 6f60 c6be 9a0a d5be 167f d2be
00000150: 24e5 edbe 4a68 0dbd 1382 cfbe 7300 233f
00000160: 6bef d3be 86d4 f3be c6b2 ddbe 72e2 d9be
00000170: 2fc6 ffbe 6624 febe db28 1fbf db23 f3be
00000180: 1f1b 7abe 95f2 f0be 49ca 373e 4196 2ebf
00000190: 5717 eabe d917 ffbe b7bd e7be aa25 fcbe
000001a0: 62fe d2be 677c 95be 43da d7be 37c0 24bf
000001b0: b9b1 9cbe e2c6 82b9 ce81 f3be 438f 03bf
000001c0: fbdc eabe b149 36bf e958 d0be 8ac8 22bf
000001d0: 287c edbe 329c 01bf e740 cbbe b946 f5be
000001e0: 633c dfbe 2b81 cdbe 4867 66be 707b e2be
000001f0: 8c23 f3be 4ba3 e7bd e09b dbbe 0e2e dbbe
00000200: 5c05 a3bc 7551 d9be 4971 0abf 7128 e3be
00000210: d0a4 cebe d0be e5be 84be 14bd 5c8c e93b
00000220: f70b 0abf ced0 eabe 806d eb3e 1d2e dbbe
00000230: 8889 f5be b963 ddbe 4f63 d8be 0447 04bf
00000240: 295f fbbe 4e05 cabe 4018 dbbe 8a5f d1be
00000250: 93cd e0be a4ba 93be 1b5d 03bf 5e6b d8be
00000260: c806 6cbe 0c10 fabe 9554 d0be 6766 fbbe
00000270: 675a f7be 0ab7 d0be 220b fbbe a197 ecbe
00000280: fd7e ffbe 5fd3 f6be dcf8 233f 997e e9be
00000290: 08f6 01bf 9d9a 193f 821e cabe 1d4d 26bf
000002a0: 8e5b 03bf 2321 01bf 65a1 fdbe dd86 f4be
000002b0: 730e ddbe 5eee 893d 90c0 d3be 715c 01bf
000002c0: 9d0b 6e3e 0fc6 f6be 2d1e 54be 82d6 8ebe
000002d0: f688 9abe 7edf 03bf 656e bfbe 5323 01bf
000002e0: d0f2 f8be d241 e3be 7346 f5be 6f18 81bd
000002f0: 5de8 26bf 2315 efbe 727a f4be f4bc cebe
00000300: 1c17 90be 4ff1 e2be bd99 e0be 2d8e f0be
00000310: dc1c f2be 6ec3 dcbe b943 ffbe 3936 d6be
00000320: 72b6 c9be beb4 e6be 76e8 e8be cc27 02bf
00000330: c5e1 f8be d783 d3be 47f2 3ebf 5fba febe
00000340: 66c8 f4be c91a d0be 2065 a2be 0014 d3be
00000350: 70b5 4fbf 0b86 33bf 458e dfbe f4df e5be
00000360: 3098 dcbe 0aca e1be e71d 02bf 2a07 f7be
00000370: 7004 ecbe 952f 233f 833b e0be 9160 01bf
00000380: 2732 ddbe c604 9fbe 8728 0fbe 7c28 473e
00000390: 5605 f9be 7ca0 f2be 83e8 e3be 1615 cabe
000003a0: fdab f4be e7b8 fabe 945b ebbe 391b cebd
000003b0: bb04 8a3e cdf1 eabe c61c 38be bcf9 f0be
000003c0: f764 e2be 9fe3 ebbe 99f9 d2be 7bf1 d9be
000003d0: 10f9 f6be f5c0 cebe 309d ecbe e49b e93e
000003e0: 7d41 cfbe bab2 e8be d787 bcbe 02e4 ccbe
000003f0: 1f50 03bf 7a23 04bf 4974 02bf 6c1f f1be

gc5.weight f4 [256, 256]
-0.64034885 -0.4847113 -2.555655e-05 -0.6436806 -2.4759282e-05 1.8415974e-05 -0.4933961 -0.5043115
-0.43119806 -0.4786998 -1.3112994e-05 -0.6376987 -0.48395997 -0.50417084 -0.48165146 -0.6233029
-0.4044923 -1.8509934e-05 -0.45126435 -0.50670236 -0.4562095 -0.49233237 1.1770375e-05 -0.46442786
-3.2425523e-05 -0.4403963 1.411232e-05 -4.3252847e-05 -0.4690708 -0.43810317 -0.47941324 -0.51690376
-2.0444346e-05 -0.43566346 -0.47165242 -0.63590926 -0.41219768 -0.41572294 -0.49237686 -7.498781e-05
-1.7973181e-05 -0.49638078 -0.50151885 -8.266727e-06 -0.4736048 -0.45139238 -0.51552093 -0.61080754
-0.5122269 -0.4856264 -0.46275157 -0.4839749 1.3649526e-05 -6.40111e-05 -0.59633815 -4.794835e-05
-0.64834917 -0.41859797 -0.51232105 5.1194584e-05 -5.5266166e-05 -0.50847644 2.3168715e-05 -0.41527095
-0.4146306 -0.41495278 1.9470379e-05 -0.51096 -0.44086984 -0.4651983 -0.4721946 -0.49068367
-0.4544147 4.925452e-05 -0.50428927 -0.48543316 -0.47132298 -0.59379715 -0.4778607 -1.050838e-05
-0.41680655 -1.3223718e-05 -0.47639108 -2.6449245e-05 -0.41599166 1.538089e-05 -2.8125663e-05 0.6492476
-0.39709562 -1.676317e-06 -0.46913877 -0.47714677 -0.61516726 -0.61594546 -0.6037147 -0.49784333
-0.47561163 -0.517774 4.5879555e-05 -0.46986613 -0.48864263 -0.41491106 -0.43147203 -0.6053688
-0.46600065 -0.42456925 -0.5101289 -0.50376344 -0.49627718 -0.4944717 4.902483e-06 -0.44058543
-0.47023708 -0.6136875 -0.4246562 -0.4927538 -0.51153535 -0.6271673 -0.46002278 -0.45561683
-0.65284824 -0.4941453 -3.0900963e-05 -0.51090866 -0.4891857 -7.187835e-06 -0.5022943 8.003044e-06
-0.4702498 -4.292335e-06 -7.661753e-05 -0.45958415 -0.6478307 2.267844e-05 -0.60977924 2.4483597e-07
-0.5979227 -0.4863712 -0.50084 -0.4723686 -0.4648497 -0.4948605 -0.4012697 -0.5182178
-0.39411888 -0.50331974 -3.4426153e-05 -0.6310013 -0.6524521 3.6477802e-05 -0.3945377 -0.4805603
-0.51757234 -0.6208471 -0.4761731 -0.594267 -0.49434265 -0.5046473 -1.0663711e-05 -0.42764586
-0.47662488 -0.6045705 0.6432883 -0.60415983 -0.64662105 -1.2741484e-06 -0.41484892 -1.4360984e-05
8.698304e-05 -0.43554926 -0.46449605 -0.45532763 -0.40867394 -7.796978e-05 -6.0946542e-05 -0.43113846
-8.311683e-05 -0.44176757 3.9586906e-05 -4.6889e-05 2.2900167e-07 -3.4273886e-05 4.508563e-05 2.6818801e-05
-0.50951475 -0.6070824 -0.46473682 -1.3336643e-05 -0.6744222 -0.44040978 -0.47912666 -0.48110944
-0.4560189 -0.395066 -0.3989324 -0.42872795 -0.4720745 -0.48245603 -0.63729674 -6.284402e-05
-0.45819625 1.0337397e-05 -0.41428813 -0.47190273 -0.6452771 -0.4236528 5.524442e-06 -0.39642614
-0.47174492 -0.5159008 -0.48512673 -0.49898666 7.325025e-06 -0.46366036 -0.6245883 -0.4987332
-0.44770268 -0.6325693 -0.48246443 -0.44776893 -0.42959532 -0.4480039 -0.64850646 -0.6092093
-0.40593135 -0.45874402 2.461829e-05 -0.40231165 -0.45873854 -0.4113804 -0.4697556 -0.39627132
0.00010562567 -0.64954877 -0.00017004649 -2.437674e-05 -0.000103085986 -0.44406667 -3.2427728e-05 -1.3081308e-06
-0.48031938 -0.48413247 -0.4993964 -0.65168923 -0.59525776 -0.4482221 -0.40898162 2.0350057e-05
3.2300348e-05 -0.65183187 0.61334205 -0.470284 -0.50801766 -0.00012332303 -0.5136248 -0.43849897
00000000: e7ed 23bf 142c f8be 4662 d6b7 40c8 24bf
00000010: 27b2 cfb7 017c 9a37 6a9e fcbe 8f1a 01bf
00000020: fec5 dcbe 2418 f5be e1ff 5bb7 3940 23bf
00000030: 9ac9 f7be 5711 01bf 059b f6be c790 1fbf
00000040: 9d19 cfbe c845 9bb7 1f0c e7be 3fb7 01bf
00000050: 4b94 e9be fd12 fcbe 6079 4537 7dc9 edbe
00000060: a400 08b8 a07b e1be f4c3 6c37 646a 35b8
00000070: 0c2a f0be 0f4f e0be a775 f5be ce53 04bf
00000080: e67f abb7 480f dfbe 6d7c f1be f3ca 22bf
00000090: 930b d3be a3d9 d4be d218 fcbe c642 9db8
000000a0: 1dc5 96b7 9f25 febe 8a63 00bf 52b1 0ab7
000000b0: 547c f2be e71c e7be 2ef9 03bf e25d 1cbf
000000c0: 4d21 03bf 06a4 f8be c6ed ecbe 8fcb f7be
000000d0: 4500 6537 b33d 86b8 9ea9 18bf 261c 49b8
000000e0: 36fa 25bf 7952 d6be 7927 03bf c4b9 5638
000000f0: 98cd 67b8 832b 02bf 705a c237 659e d4be
00000100: 764a d4be b174 d4be 5254 a337 46ce 02bf
00000110: b1b9 e1be 792e eebe 7ec3 f1be e43a fbbe
00000120: 0ba9 e8be a396 4e38 1a19 01bf b28a f8be
00000130: 3f51 f1be 1703 18bf 28aa f4be 264d 30b7
00000140: ab67 d5be 70db 5db7 88e9 f3be 52df ddb7
00000150: dcfc d4be 3606 8137 67ef ebb7 1735 263f
00000160: 1e50 cbbe d0fd e0b5 f532 f0be 954c f4be
00000170: 9a7b 1dbf 9aae 1dbf 0c8d 1abf 52e5 febe
00000180: 5e83 f3be d68c 04bf cc6e 4038 4b92 f0be
00000190: 5e2f fabe 396f d4be e7e9 dcbe 73f9 1abf
000001a0: a397 eebe 2461 d9be cf97 02bf a4f6 00bf
000001b0: 0b18 febe 652b fdbe 0280 a436 6a94 e1be
000001c0: eac2 f0be a01a 1dbf 8a6c d9be 3a4a fcbe
000001d0: fbf3 02bf 098e 20bf 1b88 ebbe 9c46 e9be
000001e0: 1021 27bf 9d00 fdbe a89b 01b8 e9ca 02bf
000001f0: 8c76 fabe 082f f1b6 5c96 00bf d044 0637
00000200: 95c4 f0be e006 90b6 b9ad a0b8 9d4e ebbe
00000210: 3cd8 25bf 943d be37 7e1a 1cbf 0072 8334
00000220: 7611 19bf a505 f9be 0d37 00bf 4cda f1be
00000230: c800 eebe 5b5e fdbe 3973 cdbe eca9 04bf
00000240: f3c9 c9be 90d9 00bf cd64 10b8 4d89 21bf
00000250: 1a07 27bf beff 1838 d800 cabe 000c f6be
00000260: 9f7f 04bf d6ef 1ebf f6cc f3be e221 18bf
00000270: 7b1a fdbe 9130 01bf 4ae8 32b7 66f4 dabe
00000280: 2d08 f4be 22c5 1abf 8bae 243f 38aa 1abf
00000290: f588 25bf 6803 abb5 1467 d4be f5ef 70b7
000002a0: aa6a b638 5000 dfbe 6dd2 edbe b420 e9be
000002b0: b63d d1be b583 a3b8 daa0 7fb8 2ebe dcbe
000002c0: 024f aeb8 5c2f e2be 1e0a 2638 aeaa 44b8
000002d0: 80e3 7534 4ec1 0fb8 541a 3d38 f0f8 e037
000002e0: 8f6f 02bf c169 1bbf fcf1 edbe 72c0 5fb7
000002f0: efa6 2cbf 647d e1be 1750 f5be fa53 f6be
00000300: 4f7b e9be 1746 cabe de40 ccbe 3b82 dbbe
00000310: c0b3 f1be 7a04 f7be e125 23bf 20cb 83b8
00000320: b398 eabe c86e 2d37 931d d4be 3c9d f1be
00000330: e130 25bf 05e9 d8be 985e b936 5ef8 cabe
00000340: 8d88 f1be 1312 04bf 8862 f8be 2e7b ffbe
00000350: 7cc9 f536 e464 edbe 05e5 1fbf f559 ffbe
00000360: 4939 e5be 10f0 21bf 9405 f7be f841 e5be
00000370: ebf3 dbbe c460 e5be 8504 26bf 24f5 1bbf
00000380: 3cd6 cfbe 7fe0 eabe 6083 ce37 cbfb cdbe
00000390: c7df eabe 74a0 d2be ce83 f0be 13e4 cabe
000003a0: 5a83 dd38 d448 26bf 824e 32b9 a77c ccb7
000003b0: de2f d8b8 b55c e3be 0203 08b8 0893 afb5
000003c0: 6cec f5be 36e0 f7be e3b0 ffbe 1bd5 26bf
000003d0: d062 18bf 5e7d e5be 0a66 d1be 6ab5 aa37
000003e0: 3c7a 0738 74de 26bf fc03 1d3f 10c9 f0be
000003f0: 720d 02bf 4650 01b9 ea7c 03bf f082 e0be
