saved10works.model (torch, 960039 bytes, 12 tensors)

gc1.weight f4 [3, 64]
0	0x3d4feda0	0.050763726
1	0xbd2abcb4	-0.041683868
2	0xbd48d492	-0.049030848
3	0x3d2bfdee	0.041990213
4	0xbcd29aa7	-0.02570851
5	0xbd410a2a	-0.047128834
6	0xbe0bad97	-0.13640438
7	0xbb96752a	-0.0045916038
8	0x3cca957a	0.02472948
9	0xbd102b21	-0.03519738
10	0x3c158b13	0.009127396
11	0xbc071bbe	-0.00824636
12	0x3cb2afbf	0.021812318
13	0xbce79e43	-0.028273707
14	0xbc799ce4	-0.01523516
15	0xbd7a86ba	-0.06116364
16	0x3d69399b	0.056939702
17	0xbd1e01fd	-0.038576115
18	0xbe033873	-0.12814502
19	0xbc54c61a	-0.012986684
20	0xbd144694	-0.03620012
21	0x390bc466	0.00013329237
22	0xbdfcde3f	-0.123470776
23	0xbb60c8b0	-0.0034299307
24	0xbcfd9ebd	-0.030959481
25	0xbc85a4c3	-0.016313916
26	0xbdb4738e	-0.08811103
27	0xbd13108f	-0.035904463
28	0x3c0477dc	0.008085217
29	0xbe5cbb0c	-0.21555728
30	0x3cccfecc	0.02502384
31	0xbd3b9e3a	-0.045805193
32	0x3d20a5d2	0.03922064
33	0xbcb5e8f0	-0.0222058
34	0xbdde0bd3	-0.10842099
35	0x3d85421f	0.06506752
36	0xbd0e8d11	-0.0348025
37	0xbd96f020	-0.07370019
38	0xbdcb20a8	-0.09918338
39	0xbbf662db	-0.0075191087
40	0x3d3fdb3d	0.04683994
41	0xbdbae86b	-0.091263615
42	0x3cc7d77d	0.024394745
43	0x3d27aea0	0.04093802
44	0x3c316419	0.010827088
45	0xbc26163f	-0.01013714
46	0x3cfddaef	0.030988185
47	0xbd19c45f	-0.03754079
48	0xbbf01dfc	-0.007327793
49	0xbcf6d52e	-0.030130949
50	0xbd76da64	-0.060266867
51	0xbd0bc871	-0.034126703
52	0xbd53cc55	-0.051708538
53	0xbd1cce11	-0.038282458
54	0xbd2aefe3	-0.04173268
55	0x3d9bc514	0.07605949
56	0xbca19f35	-0.019729236
57	0xbd826ff0	-0.06369007
58	0x3dc06f1a	0.09396191
59	0xbc8ef382	-0.017450098
60	0xbd95cdff	-0.07314681
61	0xbd00ad1f	-0.0314151
62	0xbd5c52dc	-0.05378996
63	0xbca5d75f	-0.020244299
64	0x3d1bb9c4	0.038018957
65	0xbd9a7191	-0.07541192
66	0x3c6023ec	0.013680439
67	0xbe0805a5	-0.13283403
68	0xbd9e3dc4	-0.077266246
69	0xbc72058b	-0.014771829
70	0xbbdac0c3	-0.006675811
71	0xbd484906	-0.048897766
72	0x3d01c6f3	0.031683873
73	0xbd79e3f1	-0.061008397
74	0xbe611c8a	-0.21983543
75	0xbc404e6c	-0.011737447
76	0xbe067112	-0.1312907
77	0xbd8d5751	-0.0690142
78	0xbce19f5d	-0.02754181
79	0xbd9d0e9a	-0.07668801
80	0xbda41df2	-0.08013524
81	0xbe03fb05	-0.12888725
82	0xbcfaa6c2	-0.030597094
83	0xbd9d8508	-0.07691389
84	0xbcc25b04	-0.02372504
85	0xbb3373f0	-0.0027382337
86	0xbb46ccd4	-0.003033449
87	0xbe5d7ba3	-0.21629195
88	0xbd3b274b	-0.04569177
89	0xbcd6d6f7	-0.02622555
90	0xbcfbd107	-0.03073932
91	0xbcbd9cc8	-0.023146048
92	0xbcdf3571	-0.027247163
93	0xbd3847bf	-0.044990297
94	0xbd3d625f	-0.046236392
95	0xbd049c2b	-0.032375496
96	0x3d777fac	0.06042449
97	0xbdb38cd6	-0.08767097
98	0xbdfe5b60	-0.12419772
99	0xbe1bbd33	-0.15208893
100	0xbced6cf2	-0.028982613
101	0xbd5bf453	-0.053699803
102	0xbe06cc8a	-0.13163963
103	0xbe19d920	-0.15024233
104	0xbda72d93	-0.081629895
105	0xbe0e716c	-0.13910455
106	0xbe001f47	-0.12511931
107	0xbe0ade8e	-0.1356146
108	0xbe144005	-0.14477547
109	0xbd13e593	-0.03610761
110	0x3d5cbd42	0.053891428
111	0xbd01c3d3	-0.031680893
112	0xbd728497	-0.05920848
113	0xbd9b8c8a	-0.07595165
114	0xbc3daaef	-0.011576398
115	0xbcecfb92	-0.028928552
116	0xbcb81d70	-0.022474974
117	0xbd4174f1	-0.047230665
118	0xbd0bfae9	-0.034174833
119	0x3c127f09	0.00894142
120	0xbd655788	-0.05599168
121	0xbdf7c2be	-0.12097691
122	0x3d76d4db	0.06026159
123	0xbd13b7b9	-0.036063883
124	0xbd356dd4	-0.044294193
125	0xbd8e6d4a	-0.06954439
126	0xbd15db36	-0.03658601
127	0xbcdcfe6c	-0.026976787
128	0x3dad7de5	0.08471278
129	0xbddd12e6	-0.1079462
130	0x3cfd966f	0.030955521
131	0xbc963ef9	-0.018340575
132	0xbcf29da7	-0.02961619
133	0xbcc823c3	-0.024431115
134	0xbdab18a7	-0.083543114
135	0xbdcb3d83	-0.09923842
136	0xbd734e78	-0.059401006
137	0xbc542687	-0.012948639
138	0xbd7a56ed	-0.061118055
139	0x373b3e49	1.11605705e-05
140	0xbbc6caa6	-0.006066638
141	0xbc0b89b6	-0.00851672
142	0x3a18a2f6	0.0005822623
143	0xbcb7513e	-0.022377606
144	0xbcf63ace	-0.030057337
145	0xbbdea10f	-0.006794102
146	0xbba22e0d	-0.0049493373
147	0x3c98a3ed	0.018632853
148	0xbd89effa	-0.06735225
149	0xb62f71f9	-2.6143373e-06
150	0xbd545374	-0.0518374
151	0xbe0bcf72	-0.13653353
152	0xbbbf9a0e	-0.005847222
153	0xb6e6b16e	-6.8751897e-06
154	0x3b8c48ba	0.0042811306
155	0xb7e77dee	-2.7595986e-05
156	0x3c0c45ea	0.008561591
157	0xbd4c7641	-0.049917463
158	0x37ac95f3	2.0573823e-05
159	0xbd02f500	-0.03197193
160	0x3aaa52d5	0.0012994657
161	0x3cde09a0	0.027104199
162	0xbcbda5d7	-0.023150368
163	0xbe0b8040	-0.13623142
164	0xba19a459	-0.00058609765
165	0xbd521fdb	-0.05129991
166	0xbdaf21c7	-0.085513644
167	0x3d74a650	0.05972892
168	0xbd57173f	-0.052512404
169	0xbd983fa7	-0.07434016
170	0xbe119a6c	-0.14219064
171	0xbdc0eccb	-0.09420165
172	0x3a405142	0.0007336327
173	0x3cf6454f	0.030062346
174	0xbd839e1f	-0.064266436
175	0xbcc0e044	-0.023544438
176	0xbe1d6bc6	-0.15373144
177	0xbb562a3f	-0.003267899
178	0xbd18783a	-0.037224032
179	0xbc1704fe	-0.009217499
180	0xbd4bc79f	-0.04975092
181	0xb9c31b9f	-0.00037213878
182	0xbad1d867	-0.0016009927
183	0x3c0f04bb	0.008729155
184	0x3aaecabf	0.001333557
185	0x3b4ab5dc	0.003093115
186	0x3e00e68c	0.12587947
187	0xbb4ad310	-0.0030948557
188	0x3cb01ba1	0.02149755
189	0xbc1cfa07	-0.009581096
190	0xbb80bf81	-0.003929079
191	0xbcc5afd7	-0.024131699

gc1.bias f4 [64]
0	0x3d6162c2	0.055025823
1	0x3c5b58db	0.013387884
2	0xbd86a934	-0.06575242
3	0xbdbdd4ff	-0.092691414
4	0xbd7a6f42	-0.06114126
5	0xbc40ba2d	-0.011763138
6	0xbdac0c0b	-0.084007345
7	0xbd6327be	-0.055457823
8	0xbe3aa560	-0.18227148
9	0xbce55fad	-0.027999723
10	0xbb286ede	-0.0025700848
11	0xbb5dd39a	-0.0033848048
12	0xbd8a26b5	-0.06745664
13	0xbd34e0b7	-0.044159617
14	0xbe0544ab	-0.13014476
15	0xbd3bad62	-0.045819648
16	0xbd9b745c	-0.07590553
17	0xbc88c303	-0.016694551
18	0xbc915f26	-0.017745566
19	0x3c91b783	0.0177877
20	0xbc853eb0	-0.016265243
21	0xbbd67282	-0.006544412
22	0xbd985a68	-0.074391186
23	0x3c66d38b	0.014088522
24	0xbd5aea0e	-0.05344587
25	0xbc8a4762	-0.016879741
26	0xbc151612	-0.0090995
27	0xbceabb17	-0.028653665
28	0xbcce9470	-0.025217265
29	0xbd1c1f04	-0.038115516
30	0xbd6ddbf6	-0.0580711
31	0xbd3a5d91	-0.045499388
32	0xbe3a2b75	-0.1818064
33	0x3c588bd7	0.013216934
34	0x3bd98feb	0.006639471
35	0xbc864d27	-0.016394211
36	0xbd33da3a	-0.04390929
37	0xbd75ddd1	-0.060025994
38	0xbdbd4e45	-0.09243444
39	0x3d7db9e6	0.061944865
40	0x39014a24	0.00012330018
41	0x3d33875e	0.043830268
42	0x3d071b78	0.03298518
43	0xbd251783	-0.040305626
44	0xbd645c72	-0.055752225
45	0xbd66aff7	-0.056320157
46	0xbe248662	-0.16066888
47	0xbd300095	-0.042969305
48	0xbd83233c	-0.06403205
49	0xbd30cb78	-0.043162793
50	0xbce57faa	-0.028014977
51	0xbd450c4a	-0.048107423
52	0xbd0540cc	-0.0325325
53	0xbd5ccf6b	-0.053908747
54	0xbd439ceb	-0.04775707
55	0x3dcdc5d7	0.100475006
56	0xbdbf364e	-0.0933653
57	0xb999b121	-0.00029314405
58	0xbaea006d	-0.001785291
59	0xbd3bcb29	-0.045848045
60	0xbb25c17e	-0.0025292332
61	0xbd608bf0	-0.054820955
62	0xbd294960	-0.04132974
63	0xbd19177c	-0.037375912

gc2.weight f4 [64, 128]
0	0xbcbad55c	-0.022806816
1	0xbe3e3db8	-0.18578231
2	0xbc07aacf	-0.00828047
3	0x3d8dae86	0.06918053
4	0xb922a7ee	-0.00015512083
5	0x3d8f0a3e	0.069843754
6	0x3d43f01f	0.04783642
7	0x3a8be77a	0.0010673844
8	0xbca2f860	-0.019893825
9	0x3db00ae8	0.0859583
10	0xbd168e64	-0.036756888
11	0x3b8938e1	0.0041876887
12	0x3cc4cab8	0.024022445
13	0xb98fcaad	-0.0002742609
14	0x3c319e1a	0.010840917
15	0xbe187f2e	-0.14892265
16	0x3d79f703	0.061026584
17	0xbc825b1b	-0.015912583
18	0x395d260c	0.00021090376
19	0xbcd2523d	-0.02567398
20	0xbd102881	-0.035194878
21	0xbdd025b5	-0.10163442
22	0x3d17f5be	0.037099592
23	0xb72e5c7d	-1.0392742e-05
24	0xbd0c8d61	-0.034314517
25	0xbd9781d9	-0.07397813
26	0xbbe9b55f	-0.007132217
27	0xbd1193e8	-0.035541445
28	0xbd481f2f	-0.048857864
29	0xbc278cbc	-0.010226425
30	0xbe398e9c	-0.18120807
31	0x3bfc11e2	0.0076925615
32	0x3c0423f0	0.008065209
33	0xbcced553	-0.025248205
34	0xb8ef45c2	-0.000114094015
35	0xbc2009f7	-0.009768001
36	0xbd984616	-0.07435243
37	0x3d8cf98a	0.06883533
38	0xbdbcf031	-0.092255004
39	0xbe0a6cce	-0.13518068
40	0xbd06f03c	-0.03294395
41	0x3d9355ef	0.07194125
42	0x3b9873e4	0.004652487
43	0xbe0a8b82	-0.1352978
44	0xbbff7f8f	-0.0077971886
45	0xbc8a1a8a	-0.016858358
46	0xbdd5a6f9	-0.10432238
47	0xbc8b80b2	-0.01702914
48	0xbc2c2170	-0.010506019
49	0x3c983546	0.01858009
50	0xb83ccc69	-4.5013065e-05
51	0xbbde19c7	-0.0067779752
52	0xbdfcb64f	-0.1233946
53	0xbcd88e62	-0.02643508
54	0x3d6c6593	0.057714056
55	0xbc571320	-0.013127118
56	0xbe2cf50f	-0.16890357
57	0xbcb52fd5	-0.022117535
58	0x3ca25170	0.019814223
59	0x38eca1cf	0.00011283496
60	0x3b96624b	0.004589354
61	0x3d9a7bca	0.07543142
62	0x3d542d77	0.05180117
63	0x3d1856fd	0.037192333
64	0x353e7ba0	7.0960414e-07
65	0xbb176d40	-0.002310589
66	0x3d8f90e7	0.0701006
67	0xb9839572	-0.00025097613
68	0xbe51046a	-0.2041184
69	0xbdcc9906	-0.099901244
70	0xbd641516	-0.05568417
71	0xbda606b8	-0.0810675
72	0xb808b19a	-3.259033e-05
73	0xbcfb663b	-0.030688396
74	0x3d70124e	0.058611207
75	0x3bef7485	0.0073075914
76	0xb99da8fa	-0.0003007127
77	0x3d8b9cab	0.068169914
78	0x3da8279b	0.08210679
79	0xbdae4fee	-0.08511339
80	0xbd88ee2c	-0.06686053
81	0x3d5bb5ee	0.0536403
82	0xbb80606d	-0.003917745
83	0x3d672b6e	0.056437902
84	0xbd927ecc	-0.07153091
85	0xbd6713ae	-0.056415252
86	0xbde2be1d	-0.110714175
87	0xbd6fd0a3	-0.05854858
88	0xbd144a47	-0.03620365
89	0xbb949b48	-0.0045351125
90	0x3d9746bc	0.073865384
91	0x3b01cf6f	0.0019807478
92	0x3e01a5f6	0.12660965
93	0xbcb8924d	-0.0225307
94	0x370642ba	8.002558e-06
95	0xbbe44869	-0.00696664
96	0x3dfdec1f	0.12398552
97	0xbc4bbc57	-0.01243504
98	0xb780e776	-1.5366571e-05
99	0x36e8a4c7	6.9333214e-06
100	0xbc95258f	-0.018206386
101	0x3ceff483	0.029291397
102	0xbdec2b08	-0.11531645
103	0x3c4c8185	0.012482052
104	0xbe223e26	-0.1584402
105	0xbca1120d	-0.019661928
106	0xbda45f97	-0.08026045
107	0xb7dd3a4e	-2.6372403e-05
108	0x37425576	1.1583199e-05
109	0xbcadddf6	-0.021224003
110	0xbd00f6b2	-0.031485267
111	0xbe37baf0	-0.17942405
112	0xbd902662	-0.07038571
113	0x3c8ec87a	0.017429579
114	0x3d815a52	0.06316055
115	0x3d541172	0.05177445
116	0x3d0a4453	0.033756565
117	0x3c5a8975	0.013338436
118	0xbdc71161	-0.09720112
119	0x3df83081	0.121186264
120	0xbcf2de1c	-0.029646926
121	0x3da7b437	0.0818867
122	0x3e264d22	0.16240361
123	0x3dbb1aa4	0.09135941
124	0xbaa10c51	-0.0012286996
125	0xbb1ae6df	-0.0023636145
126	0xbc534c72	-0.012896644
127	0x3d468474	0.04846616
128	0xbbe37f16	-0.00694264
129	0x3d5f579b	0.054526906
130	0xbde8b54b	-0.11362704
131	0xbd22ee74	-0.039778188
132	0xba94a7ee	-0.0011341551
133	0x3d07d29e	0.033159845
134	0x3d70854f	0.058720883
135	0x37b45906	2.1499127e-05
136	0xb807a9b8	-3.234457e-05
137	0xbc9da967	-0.019245816
138	0xbbbf23ff	-0.0058331485
139	0xbc9b50b9	-0.01895939
140	0xbd65921d	-0.056047548
141	0xb86ea732	-5.6899335e-05
142	0xbbe39139	-0.006944802
143	0xbcc11f6a	-0.02357455
144	0xbce91ba6	-0.028455567
145	0xbcc5014c	-0.02404847
146	0x37c3ba06	2.3332435e-05
147	0xbcbc6f0b	-0.023002168
148	0xbc86ef2d	-0.01647147
149	0x3919eb89	0.0001467896
150	0xbdb3b80d	-0.08775339
151	0xb6b4005f	-5.3644612e-06
152	0xbd2dc4b3	-0.042423915
153	0xbcc15595	-0.023600379
154	0xbc39892e	-0.01132421
155	0xbce7d60f	-0.028300313
156	0x3da19f48	0.078917086
157	0xbc01de4f	-0.007926538
158	0x3d729617	0.059225168
159	0xbd51f1cb	-0.051255982
160	0xbdbd151a	-0.092325404
161	0x3c9d6e3c	0.019217603
162	0x36d99639	6.484592e-06
163	0xbaea89e8	-0.0017893882
164	0xbd12bffa	-0.035827614
165	0x3d6300aa	0.055420555
166	0xb6df800e	-6.6608254e-06
167	0x3d192d5e	0.03739678
168	0x3b9cd438	0.0047860406
169	0xbca8c107	-0.020599855
170	0x3d7dfd51	0.06200916
171	0xbdf9ea6e	-0.12202917
172	0xba3079cf	-0.0006732018
173	0xbbb18976	-0.005417998
174	0x3cc2a28f	0.023759155
175	0x3c81f848	0.01586546
176	0xbae745d6	-0.0017644714
177	0x3a9269f6	0.0011170495
178	0xb7d17e97	-2.497369e-05
179	0xbaba696f	-0.0014222095
180	0xbd1e5c4d	-0.038662244
181	0x3c4c20e2	0.012459012
182	0xbd79c75e	-0.060981147
183	0xbd0e09fb	-0.034677487
184	0xbc8fe027	-0.017562939
185	0x3d1a6805	0.037696857
186	0xbd3588c9	-0.0443199
187	0xb736d3e5	-1.0897381e-05
188	0x3cc448aa	0.02396043
189	0xbc832ad0	-0.016011626
190	0xbb86e67a	-0.0041168304
191	0x3d6f1eea	0.05837909
192	0x37886c50	1.62629e-05
193	0xb752d5e4	-1.2566776e-05
194	0xbcc6194e	-0.024181988
195	0x38ef8fec	0.000114232156
196	0xbc8e81c5	-0.017395863
197	0xbc933e4c	-0.017974041
198	0xbc8d1384	-0.01722122
199	0x3d26c643	0.04071642
200	0xb7582dda	-1.2885279e-05
201	0x3da275f4	0.07932654
202	0x3d5b5cbb	0.05355523
203	0xbc7b3218	-0.0153317675
204	0xb809fa16	-3.2896256e-05
205	0x3d2f379f	0.042777654
206	0x3c692bba	0.014231617
207	0x36947b2f	4.425084e-06
208	0xbc3bee8e	-0.01147045
209	0xbd9d4bc5	-0.076804675
210	0xb888f085	-6.5297856e-05
211	0x3d07aebc	0.033125624
212	0x3d44fc61	0.04809225
213	0x3c7ea8cc	0.015543174
214	0x3d59ad9e	0.05314409
215	0xba132a95	-0.000561395
216	0x3b0b09e5	0.0021215614
217	0xbb1ce61f	-0.0023940874
218	0xbd63cca7	-0.055615094
219	0xbc610f01	-0.013736487
220	0x3cf3dabc	0.029767387
221	0xbd8ae8a1	-0.06782652
222	0xb6f26675	-7.2240896e-06
223	0xbceeb2a0	-0.02913791
224	0x3d590567	0.052983668
225	0xbb154ed0	-0.0022782572
226	0xb6547bfe	-3.1662635e-06
227	0xb7dbc9c7	-2.6200794e-05
228	0x3ce77837	0.028255565
229	0xbc80cbb3	-0.015722131
230	0x3c50c281	0.012741686
231	0xbd1201c3	-0.03564621
232	0x3da4fc2f	0.08055913
233	0x3d933dba	0.07189508
234	0xb6f2cd68	-7.2360745e-06
235	0x37481dea	1.1927894e-05
236	0x37635cc6	1.3551855e-05
237	0xbd027e92	-0.031858988
238	0xbca23a11	-0.019803079
239	0xbcf32ffe	-0.02968597
240	0xbbae6f92	-0.005323359
241	0x3db54e8e	0.08852874
242	0xbd0616cc	-0.032736585
243	0xbd562c0b	-0.052288096
244	0x3d54bf36	0.051940165
245	0xbd7a0ea2	-0.06104911
246	0xbc62156c	-0.013799053
247	0x3c35ef86	0.01110447
248	0x3bdb5fc7	0.006694767
249	0x3c0997b0	0.0083979815
250	0xbc3183f0	-0.010834679
251	0x3d822aab	0.063557945
252	0x385032fb	4.9638544e-05
253	0xb9c3072f	-0.0003719865
254	0xbcaa89d3	-0.020817673
255	0xbdad1871	-0.084519275

gc2.bias f4 [128]
0	0xbd3ccbde	-0.04609286
1	0x3d5c84fd	0.053837765
2	0x3d2a3c9a	0.0415617
3	0x3c999a7c	0.018750422
4	0xbd442dba	-0.04789517
5	0x3c80dc38	0.015730008
6	0x3cbca287	0.023026718
7	0xbd153f0d	-0.036437083
8	0xbd430263	-0.047609698
9	0x3c6e23dc	0.014534917
10	0x3d0f0696	0.03491839
11	0xbca255f4	-0.019816376
12	0x3ca4e118	0.020126864
13	0xbcd97bed	-0.02654835
14	0xbd0e6d2e	-0.03477209
15	0x3d70c4a3	0.058781277
16	0x3d1c6edf	0.038191672
17	0xbc35d882	-0.011098983
18	0xbd335e6a	-0.043791212
19	0xbd0d6a83	-0.034525406
20	0xbd22213c	-0.039582476
21	0xbbb5280d	-0.005528456
22	0x3d38c54c	0.045110032
23	0xb9f23f00	-0.00046204776
24	0xbd292468	-0.041294485
25	0xbcff9e05	-0.03120328
26	0xbd22b6f3	-0.039725255
27	0xbd2d3f69	-0.0422968
28	0x3d3af74e	0.045646004
29	0xbd17afbe	-0.037032835
30	0x3d43900b	0.047744792
31	0xbd83ffac	-0.0644525
32	0x3d5b1d9f	0.053495046
33	0x3d3293b1	0.04359788
34	0xbce09e2a	-0.027419169
35	0xbd0fa537	-0.03506967
36	0xbd06af7e	-0.032882206
37	0x3d019352	0.031634636
38	0xbdd6692d	-0.104692794
39	0x3b5bcf41	0.003354028
40	0xbd2d7da4	-0.04235615
41	0xbb66f7e6	-0.0035242974
42	0x3d119e35	0.03555127
43	0x3d636eb0	0.05552548
44	0xbcd8f1ae	-0.02648243
45	0xbd3505a0	-0.044194818
46	0x3d2781f9	0.040895436
47	0xbb2f0c5f	-0.0026710255
48	0xbcd75a06	-0.026288044
49	0xbd6c0369	-0.05762044
50	0xbcf2c5bc	-0.029635303
51	0xbd302649	-0.04300526
52	0x3cf90653	0.030398523
53	0x3d783994	0.060601786
54	0x3c1ad4fa	0.009450192
55	0xbd6982a2	-0.057009347
56	0x3d8925bf	0.066966526
57	0xbc814143	-0.01577819
58	0xbd4ac96a	-0.04950849
59	0xba9451bf	-0.0011315866
60	0xbd75c69c	-0.06000386
61	0x3bb737cf	0.0055913697
62	0x3d3174ef	0.043324407
63	0x3d70e723	0.05881418
64	0xbc87df49	-0.016585963
65	0xbcf09017	-0.029365582
66	0x3d39eb2c	0.045390293
67	0xbcf7662b	-0.030200085
68	0x3d0bca70	0.034128606
69	0x3d71deda	0.05905042
70	0xbcc7abc5	-0.024373898
71	0x3d340de8	0.043958575
72	0xbb98092c	-0.0046397652
73	0x3d29d463	0.041462313
74	0x3c6a05c1	0.014283598
75	0x3ce8eb0c	0.028432392
76	0xbd328401	-0.04358292
77	0x3ceb3bb5	0.028714994
78	0x3cd17756	0.0255696
79	0xbdc7a456	-0.097481415
80	0x3d5c5a41	0.05379701
81	0x3d19866c	0.03748171
82	0xbd201f05	-0.039092083
83	0x3ccb1678	0.024790987
84	0x3d452f53	0.048140835
85	0xbcea9a46	-0.028638016
86	0x3d3953ac	0.04524581
87	0xbcef0c57	-0.029180689
88	0xbd9ffb57	-0.07811611
89	0xbd05b7ab	-0.032645863
90	0x3d4d7be5	0.050166983
91	0xbcb98c0f	-0.022649793
92	0x3c478041	0.012176574
93	0xbcdcc781	-0.0269506
94	0xbd019328	-0.03163448
95	0xbd19974d	-0.037497807
96	0x3d3725d6	0.044713818
97	0xbd39d51d	-0.045369256
98	0xbae99a0c	-0.0017822399
99	0xbc7037c8	-0.014661737
100	0xbd05f385	-0.03270294
101	0x3d5541b9	0.05206463
102	0x3d6e9254	0.058245018
103	0xbd68b45a	-0.05681262
104	0x3d550835	0.05200978
105	0xbcc59fa1	-0.024123969
106	0xbdb1c8e7	-0.08680897
107	0xbbd9094e	-0.0066234237
108	0xbb3318f4	-0.0027328106
109	0xbd09a4ad	-0.033604313
110	0xbd0f17ae	-0.034934692
111	0x3d288e93	0.041151594
112	0xbaa3dae9	-0.0012501153
113	0x3d04ce86	0.03242352
114	0x3d1b277d	0.037879456
115	0xba0abf35	-0.00052927743
116	0x3d18239e	0.037143342
117	0x3d0e5032	0.03474445
118	0x3db6a521	0.089182146
119	0x3c672760	0.014108509
120	0xbd8f7070	-0.070038676
121	0x3b47ecca	0.0030506128
122	0xbb6bd5af	-0.003598552
123	0x3cdb25f4	0.026751496
124	0xbcf5c299	-0.030000018
125	0xbcf30817	-0.029666943
126	0x3d4770c2	0.04869152
127	0x3d8cc03a	0.06872602

gc3.weight f4 [128, 256]
0	0xb5c40554	-1.4604689e-06
1	0xb6c168ed	-5.764063e-06
2	0x35adce8d	1.2949619e-06
3	0x365207b0	3.1296913e-06
4	0xb68b1944	-4.145464e-06
5	0xb653abd0	-3.1541458e-06
6	0x3680b9d4	3.8363305e-06
7	0x34804290	2.3890289e-07
8	0xb7177fb8	-9.030038e-06
9	0xb6b7063c	-5.454551e-06
10	0x35d43f35	1.5813627e-06
11	0x372c2974	1.02616505e-05
12	0xb520aae0	-5.98533e-07
13	0x37347170	1.0755248e-05
14	0xb714909a	-8.855155e-06
15	0x348c5a40	2.6142698e-07
16	0x36ac33cb	5.132029e-06
17	0xb73faba4	-1.142445e-05
18	0x36d5a35a	6.3669113e-06
19	0xb67bd89c	-3.7527998e-06
20	0xb6a68df3	-4.9637106e-06
21	0xb6ea8793	-6.9895264e-06
22	0xb60fe904	-2.1444293e-06
23	0x3626c6d6	2.4851665e-06
24	0x363acd39	2.7835615e-06
25	0x37401ecf	1.1451265e-05
26	0xb58eb8ff	-1.0633665e-06
27	0x363c8d65	2.8096485e-06
28	0xb6274841	-2.4926997e-06
29	0x3610a45e	2.1553346e-06
30	0xb6fd8640	-7.5556163e-06
31	0x363eb347	2.841656e-06
32	0x36144a5b	2.2097e-06
33	0xb642cfca	-2.9029202e-06
34	0xb5ea50f4	-1.7457919e-06
35	0x35bbd76a	1.399528e-06
36	0x370fba20	8.5668e-06
37	0x35dbef05	1.6386335e-06
38	0xb622245b	-2.4161043e-06
39	0x32f85980	2.89117e-08
40	0x36ea6ba9	6.9862767e-06
41	0xb730e5ed	-1.0543951e-05
42	0x34a5878c	3.0832268e-07
43	0xb6077346	-2.0183666e-06
44	0xb713d2ad	-8.810935e-06
45	0x36916c07	4.333913e-06
46	0xb6e24173	-6.742944e-06
47	0x3682fe4f	3.9039073e-06
48	0x36a8a7d1	5.0263266e-06
49	0xb62a54da	-2.5381364e-06
50	0xb5736798	-9.0675303e-07
51	0xb6fa20cc	-7.4543987e-06
52	0xb5380a8e	-6.85607e-07
53	0x34e9f610	4.3578666e-07
54	0x36842834	3.938587e-06
55	0x372f7a47	1.0459283e-05
56	0xb6e1a494	-6.724682e-06
57	0x35d2dba2	1.5710141e-06
58	0xb65bb00a	-3.2736011e-06
59	0xb6d1e6b8	-6.2555446e-06
60	0xb68daa4a	-4.2219517e-06
61	0x36955236	4.4501166e-06
62	0xb6bc58c4	-5.6131703e-06
63	0x36c90038	5.9902923e-06
64	0xb5a14a2a	-1.2017019e-06
65	0x36d9264e	6.471563e-06
66	0x3507859a	5.0485835e-07
67	0x3643b350	2.9161638e-06
68	0xb7138d9f	-8.7948565e-06
69	0x37016a98	7.7138175e-06
70	0x36d5684e	6.3600373e-06
71	0xb6e2acb2	-6.7554292e-06
72	0xb6994874	-4.56819e-06
73	0x3697200c	4.5038814e-06
74	0xb66eaef0	-3.556659e-06
75	0xb3c3b2e0	-9.112932e-08
76	0xb686f61c	-4.022162e-06
77	0x3600c3ea	1.9187523e-06
78	0x3587e17b	1.0123907e-06
79	0xb66c6067	-3.5222854e-06
80	0x371af89f	9.237002e-06
81	0xb636171e	-2.713357e-06
82	0x35a1fadd	1.2068446e-06
83	0xb602a226	-1.9465892e-06
84	0x36b0fac9	5.274404e-06
85	0xb509e1b8	-5.136494e-07
86	0x35a27d3c	1.2106389e-06
87	0x375ca764	1.31519955e-05
88	0x36495799	3.0002323e-06
89	0x36a12f6d	4.803695e-06
90	0xb70d21ad	-8.412096e-06
91	0xb6ee01e5	-7.0931733e-06
92	0x3529502c	6.307407e-07
93	0x3652858b	3.137017e-06
94	0x364f5472	3.0894557e-06
95	0x35bb0deb	1.3936636e-06
96	0xb5b73837	-1.3650923e-06
97	0xb58e1ba9	-1.0587875e-06
98	0xb749f9cd	-1.2038695e-05
99	0x363797af	2.7357416e-06
100	0xb7340a34	-1.0731212e-05
101	0xb4c7cd82	-3.7216165e-07
102	0xb6555439	-3.1788497e-06
103	0x36c5fd6e	5.9005606e-06
104	0x35813dc2	9.629223e-07
105	0xb715f212	-8.9374535e-06
106	0xb65ba4d2	-3.272948e-06
107	0x363f15d0	2.8473914e-06
108	0x36dc4a26	6.565143e-06
109	0xb733ab57	-1.0709125e-05
110	0x359a9fba	1.1520381e-06
111	0x37177578	9.027652e-06
112	0xb5f628ea	-1.8340336e-06
113	0xb6894998	-4.0914856e-06
114	0xb5ee78e6	-1.7767568e-06
115	0x36d96281	6.4785713e-06
116	0xb6b08314	-5.2604682e-06
117	0xb529eefe	-6.3305185e-07
118	0x374c6fe6	1.2185401e-05
119	0xb70bcd89	-8.3329005e-06
120	0xb464cbf0	-2.1308347e-07
121	0xb59f6c8d	-1.1878016e-06
122	0xb633e08e	-2.6803787e-06
123	0x36858915	3.9796673e-06
124	0xb5a83ca4	-1.2534624e-06
125	0xb732571e	-1.062991e-05
126	0xb6cb6224	-6.0612965e-06
127	0x36a2c3a0	4.85075e-06
128	0xb729431f	-1.0088813e-05
129	0xb6269578	-2.482293e-06
130	0xb6b382fe	-5.349865e-06
131	0x36d5262e	6.3523394e-06
132	0x35a82638	1.2528099e-06
133	0x37156628	8.904877e-06
134	0x371a3c7c	9.193198e-06
135	0xb6ad57f2	-5.16604e-06
136	0xb45eb730	-2.0742004e-07
137	0xb404db30	-1.2373198e-07
138	0xb697198e	-4.5031256e-06
139	0x35bced2e	1.407612e-06
140	0xb409aa70	-1.2821124e-07
141	0xb64fc8a9	-3.0962203e-06
142	0x35b4d452	1.3472838e-06
143	0x36e3d14f	6.789494e-06
144	0x36ba7ca1	5.5577407e-06
145	0xb5dc6da6	-1.6423189e-06
146	0xb52381b0	-6.091095e-07
147	0x367c8776	3.7629775e-06
148	0x36014d27	1.9267407e-06
149	0x35e5401e	1.708049e-06
150	0x375d5d0d	1.3194292e-05
151	0xb5a05f0e	-1.1948594e-06
152	0x37335b72	1.0690523e-05
153	0xb75e7041	-1.3258367e-05
154	0xb66c7685	-3.5235728e-06
155	0x365ccbe2	3.290123e-06
156	0x35bc2b9f	1.4019787e-06
157	0xb58be9fe	-1.0424408e-06
158	0xb72873d4	-1.0040549e-05
159	0x357938d8	9.2842447e-07
160	0x36f4e988	7.2989533e-06
161	0xb5fcb9d2	-1.8829544e-06
162	0xb65540d3	-3.1777206e-06
163	0xb6c89078	-5.977283e-06
164	0xb66f7f0d	-3.5687729e-06
165	0x3606daef	2.0094992e-06
166	0x3757ab94	1.2854947e-05
167	0xb6b526b6	-5.398727e-06
168	0xb7051689	-7.932665e-06
169	0xb465ff18	-2.142009e-07
170	0x36611aa9	3.354313e-06
171	0x36cfe0ac	6.195236e-06
172	0x37575ec0	1.2837059e-05
173	0x36cc134a	6.0819193e-06
174	0x369b5593	4.629322e-06
175	0x35ce909e	1.5390285e-06
176	0x375e6cc6	1.3257557e-05
177	0xb66dd6b4	-3.5440726e-06
178	0x36f249f3	7.220771e-06
179	0xb694d117	-4.435085e-06
180	0x36e3322c	6.770968e-06
181	0x33b254f0	8.304221e-08
182	0xb5e3a640	-1.6961203e-06
183	0x36146042	2.2109748e-06
184	0x36c9d3ca	6.0149223e-06
185	0x33dc21c0	1.02506874e-07
186	0x35a6c704	1.2425885e-06
187	0x35da7f8a	1.6279384e-06
188	0x36b55692	5.4042985e-06
189	0xb6a4954c	-4.9049613e-06
190	0x37278ff4	9.987492e-06
191	0xb6074b3c	-2.016036e-06
192	0x3693eed6	4.4087456e-06
193	0xb62ac980	-2.5449262e-06
194	0x369ac8f0	4.61295e-06
195	0x36d37e3a	6.3029847e-06
196	0xb69bb5e6	-4.6405357e-06
197	0x372ecbd4	1.0418666e-05
198	0xb5e68b6b	-1.7176911e-06
199	0x372a8f71	1.0166187e-05
200	0xb6acac62	-5.1460675e-06
201	0xb692caa2	-4.3747286e-06
202	0xb606c9f5	-2.008511e-06
203	0x35bbe92d	1.4000449e-06
204	0xb5d5d640	-1.5932092e-06
205	0xb7302b87	-1.0500552e-05
206	0xb5881371	-1.0138448e-06
207	0x35c0df33	1.4370074e-06
208	0xb621d1f4	-2.4113078e-06
209	0x360973bc	2.0481957e-06
210	0xb5970e7e	-1.1254594e-06
211	0x35880ae4	1.0135959e-06
212	0xb6bcc0d8	-5.6252866e-06
213	0x34fa0ee8	4.6576974e-07
214	0xb613a42c	-2.2000268e-06
215	0x36887c3a	4.0675777e-06
216	0xb72a22fe	-1.0140937e-05
217	0x35ccd939	1.5262405e-06
218	0x35c64bd0	1.4774214e-06
219	0xb71020b6	-8.590685e-06
220	0x35c8d760	1.4963844e-06
221	0x36775e6a	3.6860824e-06
222	0xb551e198	-7.818685e-07
223	0x372aef29	1.0188473e-05
224	0xb54b2e06	-7.5690366e-07
225	0x3697355a	4.5063616e-06
226	0xb698948c	-4.547246e-06
227	0xb6892e5a	-4.088314e-06
228	0xb73ccf3a	-1.1253922e-05
229	0xb5928394	-1.0916142e-06
230	0x355501f4	7.9351526e-07
231	0x3697e4fb	4.5268075e-06
232	0xb64fc2e2	-3.095884e-06
233	0x36fa54bf	7.4604463e-06
234	0xb6987848	-4.5439556e-06
235	0x35e802da	1.7286177e-06
236	0xb740e29c	-1.1496853e-05
237	0xb6f55a0a	-7.312051e-06
238	0xb60b2d78	-2.073908e-06
239	0xb516a3e4	-5.6117847e-07
240	0x36eec41b	7.1157824e-06
241	0xb510e568	-5.397801e-07
242	0xb759544d	-1.2953836e-05
243	0xb3460840	-4.610797e-08
244	0xb68cfd0a	-4.2017828e-06
245	0x36a7f194	5.0051112e-06
246	0x370482ea	7.898294e-06
247	0xb5ec8991	-1.7623407e-06
248	0xb6422bde	-2.8933787e-06
249	0xb654b923	-3.1698225e-06
250	0xb6769879	-3.6745607e-06
251	0x36c3c1b4	5.834003e-06
252	0xb59b0b0e	-1.1551617e-06
253	0xb68f2328	-4.265825e-06
254	0x36879520	4.040674e-06
255	0x3721e1dc	9.648935e-06

gc3.bias f4 [256]
0	0x3741646b	1.1527077e-05
1	0x36fcef56	7.5380476e-06
2	0xb5cc762c	-1.5233577e-06
3	0xb5b8ec58	-1.3777853e-06
4	0x36c30592	5.8121013e-06
5	0xb66e67fe	-3.5525295e-06
6	0xb595966e	-1.1145146e-06
7	0x363ba362	2.7960273e-06
8	0x374b714e	1.2126124e-05
9	0xb63492c6	-2.6907524e-06
10	0x36ff7836	7.6135866e-06
11	0x35da29e6	1.625446e-06
12	0x3626d26e	2.4858414e-06
13	0x3698fcbe	4.559376e-06
14	0x36b55242	5.4037964e-06
15	0x36aa021a	5.0666395e-06
16	0x36cbfbab	6.0791695e-06
17	0xb689f28a	-4.1111534e-06
18	0x361c3739	2.3277955e-06
19	0x35d424d9	1.5805955e-06
20	0xb63ec289	-2.842544e-06
21	0x36f5babb	7.3233073e-06
22	0xb65e5d91	-3.313504e-06
23	0xb5136bd4	-5.491868e-07
24	0xb6389c62	-2.7509163e-06
25	0xb732aaa0	-1.06493535e-05
26	0x373041ba	1.0505721e-05
27	0xb74288a5	-1.1595116e-05
28	0xb65f3e7c	-3.326596e-06
29	0x36fbf350	7.508708e-06
30	0xb740e15f	-1.1496565e-05
31	0x358acba2	1.0341066e-06
32	0x354df349	7.672248e-07
33	0xb5b2c2ff	-1.3318785e-06
34	0x35954e42	1.1124141e-06
35	0xb51fe3ba	-5.95635e-07
36	0x3740c701	1.1490426e-05
37	0xb645cb74	-2.9473713e-06
38	0x35b2c506	1.3319375e-06
39	0xb6e44274	-6.8026657e-06
40	0x3686732b	4.0069185e-06
41	0xb6859d7b	-3.982042e-06
42	0x35cccf20	1.5259466e-06
43	0x360c42d8	2.0900534e-06
44	0x368b3bb2	4.1494723e-06
45	0x347d21d0	2.3574762e-07
46	0x36fcf1ee	7.5383496e-06
47	0x36c1ec13	5.779331e-06
48	0x37297383	1.010008e-05
49	0xb7040eaa	-7.871227e-06
50	0xb2fa1000	-2.9111106e-08
51	0xb5be8214	-1.4193961e-06
52	0xb696e389	-4.496837e-06
53	0x35e0f4b2	1.6760516e-06
54	0x34c50060	3.6694382e-07
55	0xb6800de0	-3.8163125e-06
56	0x3687a55e	4.042565e-06
57	0x368ed5ee	4.2568345e-06
58	0x36b5a79b	5.413732e-06
59	0x361f914b	2.3777418e-06
60	0xb6e141b0	-6.7131696e-06
61	0x34fb9440	4.686026e-07
62	0xb75e1705	-1.3237591e-05
63	0x36527ac4	3.1363898e-06
64	0xb4916710	-2.7083343e-07
65	0x367e9dd2	3.7940813e-06
66	0xb5265d9c	-6.197604e-07
67	0xb53d1220	-7.043436e-07
68	0xb6606cef	-3.3442009e-06
69	0x36953c30	4.447553e-06
70	0x36e38608	6.7807305e-06
71	0xb6b6fc90	-5.453425e-06
72	0xb6fefa16	-7.5989037e-06
73	0xb69f893a	-4.7545445e-06
74	0x35ab2262	1.27505e-06
75	0xb5dd5e2c	-1.6493191e-06
76	0xb65786e5	-3.2116016e-06
77	0x3725d643	9.884653e-06
78	0xb64549af	-2.9398177e-06
79	0xb650f2d7	-3.1135767e-06
80	0x35b3c743	1.3394532e-06
81	0x369166f3	4.3333216e-06
82	0xb6fb3fc4	-7.487806e-06
83	0x370e6fec	8.489918e-06
84	0x35e3881c	1.6952431e-06
85	0x364a6efe	3.0164952e-06
86	0x363d8f6d	2.824668e-06
87	0x3654935f	3.1676243e-06
88	0x375cf802	1.3170766e-05
89	0x362e1c0c	2.5944346e-06
90	0x36271ede	2.4902906e-06
91	0xb655a308	-3.183437e-06
92	0x3741f5c8	1.1560922e-05
93	0x368ca240	4.1912135e-06
94	0x35782cf0	9.245259e-07
95	0x3664245e	3.3995816e-06
96	0x35a507ed	1.2295765e-06
97	0x3689d0c5	4.107222e-06
98	0xb5c159fb	-1.4405808e-06
99	0xb65705e3	-3.2040923e-06
100	0x3690b786	4.3128994e-06
101	0xb5ede4bc	-1.7724446e-06
102	0x34eba08c	4.3888974e-07
103	0xb6b2ae6a	-5.325118e-06
104	0xb6e37cca	-6.7796545e-06
105	0xb69fe871	-4.765629e-06
106	0xb620883f	-2.3921164e-06
107	0xb5b66fba	-1.3592573e-06
108	0x35732d7c	9.059074e-07
109	0xb6281932	-2.5048616e-06
110	0x362785c2	2.4962796e-06
111	0xb5e8e818	-1.7352895e-06
112	0xb6ff15a4	-7.6021115e-06
113	0x355dbe34	8.26057e-07
114	0xb635e1f1	-2.7102617e-06
115	0xb719a9ba	-9.159028e-06
116	0x35b1f59d	1.325901e-06
117	0x36cc5772	6.0898537e-06
118	0x36526fe2	3.1357563e-06
119	0xb6d0ca6f	-6.2224494e-06
120	0xb6cafc17	-6.0494162e-06
121	0x367c9ac8	3.764102e-06
122	0x3725d0bd	9.883367e-06
123	0xb6994458	-4.5677116e-06
124	0x36acf89a	5.1549405e-06
125	0xb4ab1630	-3.1867376e-07
126	0xb64edcec	-3.0824986e-06
127	0xb648af31	-2.9904297e-06
128	0xb711f4a7	-8.699636e-06
129	0x36d33b7b	6.2952145e-06
130	0x34a997d0	3.158916e-07
131	0xb61a229e	-2.2967938e-06
132	0xb6264b1c	-2.4779647e-06
133	0xb588a56c	-1.0180934e-06
134	0xb5b3edc3	-1.3405737e-06
135	0x36c89a04	5.9783943e-06
136	0x373b6d94	1.1171582e-05
137	0xb52e755c	-6.499083e-07
138	0xb692a8fe	-4.3708123e-06
139	0xb41586e0	-1.3925774e-07
140	0x34d53740	3.971454e-07
141	0xb5ee68b2	-1.7762852e-06
142	0xb72cd3a7	-1.0301278e-05
143	0xb617d067	-2.262206e-06
144	0xb5248edc	-6.130265e-07
145	0x36a8bec2	5.0289973e-06
146	0xb56da0ae	-8.85232e-07
147	0xb5b1ee76	-1.3256929e-06
148	0x35e6f2c8	1.7206994e-06
149	0xb6071615	-2.012942e-06
150	0x35b54506	1.3505639e-06
151	0x369948eb	4.568244e-06
152	0x3688ceed	4.077205e-06
153	0x366996a3	3.4807388e-06
154	0x35b90b29	1.3786822e-06
155	0xb753c4bc	-1.2622386e-05
156	0x36783aac	3.6989031e-06
157	0xb6a8f3cb	-5.0351714e-06
158	0x3585b0e4	9.960754e-07
159	0xb5842f7c	-9.848586e-07
160	0xb6da35ba	-6.503161e-06
161	0xb734bc00	-1.0772608e-05
162	0xb704806e	-7.8977155e-06
163	0x349f58c4	2.9680643e-07
164	0xb5c30bad	-1.453203e-06
165	0xb694e087	-4.436882e-06
166	0x360f7b8d	2.1380577e-06
167	0xb6b3a536	-5.353849e-06
168	0x361ce8db	2.3381351e-06
169	0xb66e1d44	-3.5481798e-06
170	0xb3d50940	-9.920268e-08
171	0x3693ac9b	4.4010353e-06
172	0xb680e314	-3.8411326e-06
173	0xb53bb86e	-6.993131e-07
174	0xb6929fbc	-4.3697346e-06
175	0x35c7cbf5	1.4886015e-06
176	0x35e654e7	1.7161045e-06
177	0x367526d6	3.653045e-06
178	0xb625f55e	-2.4729738e-06
179	0x3716e148	8.993149e-06
180	0xb6d56ed2	-6.360796e-06
181	0xb5e09c2b	-1.6734751e-06
182	0x35c4ff28	1.4677398e-06
183	0xb5153ca2	-5.559506e-07
184	0xb6d58161	-6.3629564e-06
185	0x372ff558	1.0487936e-05
186	0xb6b02904	-5.2499836e-06
187	0x355857d0	8.0594054e-07
188	0x35dbce3a	1.6376791e-06
189	0xb634808c	-2.6896914e-06
190	0x3589c548	1.0264712e-06
191	0xb5af8d93	-1.307972e-06
192	0xb611b2a4	-2.1710666e-06
193	0xb7212f3b	-9.6073445e-06
194	0xb742ac15	-1.1603367e-05
195	0x36bc3282	5.6087165e-06
196	0xb7173be5	-9.014247e-06
197	0xb5f62458	-1.8339006e-06
198	0x34e292ac	4.2202498e-07
199	0xb600b760	-1.9180225e-06
200	0x36d0e274	6.2252457e-06
201	0x35f8b305	1.8529541e-06
202	0xb62fe0ae	-2.6207813e-06
203	0x37312fff	1.0561197e-05
204	0xb6556ef0	-3.1804047e-06
205	0xb5f6cdf2	-1.8388366e-06
206	0x36bcb520	5.6239223e-06
207	0xb6e5823c	-6.839893e-06
208	0xb6077761	-2.0186055e-06
209	0xb6cf39f6	-6.1758283e-06
210	0x3710c8e9	8.629847e-06
211	0xb5be301e	-1.4170107e-06
212	0xb644a18a	-2.9300304e-06
213	0x36542186	3.1609975e-06
214	0x3691b704	4.3426426e-06
215	0x37096227	8.188689e-06
216	0x37188453	9.090715e-06
217	0xb715a4cb	-8.919461e-06
218	0xb6a35911	-4.8681472e-06
219	0x3725c35a	9.88025e-06
220	0xb54d1818	-7.640351e-07
221	0x36a1be69	4.8203406e-06
222	0xb6fb47f1	-7.488758e-06
223	0xb629eb7c	-2.5320032e-06
224	0xb53e33bc	-7.08558e-07
225	0x35fe629e	1.8953176e-06
226	0xb734d089	-1.0777389e-05
227	0x36a83d4c	5.013926e-06
228	0xb5f0b6d9	-1.7934609e-06
229	0xb531016e	-6.593972e-07
230	0x371c609e	9.32082e-06
231	0x37571560	1.2819975e-05
232	0xb75e63cd	-1.3255468e-05
233	0x35b5751f	1.3519638e-06
234	0x37198005	9.1493175e-06
235	0xb6df8e5e	-6.6624916e-06
236	0xb51fcbb5	-5.952855e-07
237	0xb466b460	-2.1486039e-07
238	0x3402a0a0	1.2165629e-07
239	0xb6880b34	-4.05442e-06
240	0xb68c2902	-4.177099e-06
241	0xb6ecfaa5	-7.062527e-06
242	0x3699eaf3	4.587107e-06
243	0xb59665ca	-1.1205495e-06
244	0xb549251a	-7.4932325e-07
245	0xb75956d4	-1.2954424e-05
246	0x3600f4c0	1.921595e-06
247	0xb5e8789a	-1.7320447e-06
248	0x3680d6e4	3.839714e-06
249	0x3703a51a	7.846649e-06
250	0x36ef29a6	7.1276036e-06
251	0xb61e3f47	-2.3580667e-06
252	0x365b5036	3.2680232e-06
253	0xb63d6c18	-2.8226113e-06
254	0xb694c2e9	-4.4334342e-06
255	0x36bb20cf	5.5768537e-06

gc4.weight f4 [256, 256]
0	0x35d47df5	1.5831889e-06
1	0x36c12972	5.756673e-06
2	0xb7315b4c	-1.0571279e-05
3	0x359868b6	1.1355357e-06
4	0x35971192	1.125549e-06
5	0xb4d3a5c0	-3.9422412e-07
6	0xb6275145	-2.4932244e-06
7	0x367cba6e	3.7659443e-06
8	0xb6d4cd1b	-6.3419698e-06
9	0x36b5a8e0	5.41388e-06
10	0x35861b86	9.991788e-07
11	0xb605c860	-1.9935178e-06
12	0x34c27970	3.6223673e-07
13	0xb6755218	-3.655563e-06
14	0xb5bc77f8	-1.4042007e-06
15	0x35f7414e	1.842194e-06
16	0xb67c5489	-3.7600132e-06
17	0x3708d4cf	8.15578e-06
18	0x35a1cc27	1.2054851e-06
19	0x33a18b70	7.52251e-08
20	0x35db21f2	1.6326651e-06
21	0x357ed920	9.493833e-07
22	0xb74a532c	-1.2059503e-05
23	0xb63e7d17	-2.8385018e-06
24	0xb680e13a	-3.840917e-06
25	0x35f2e14e	1.8095977e-06
26	0x365df6c6	3.3075207e-06
27	0x35e3df72	1.6977849e-06
28	0xb4437e78	-1.8206799e-07
29	0xb718ca18	-9.10696e-06
30	0xb5967a77	-1.1211513e-06
31	0xb6fd9c84	-7.5582084e-06
32	0xb64dd8a2	-3.0673477e-06
33	0xb52f6fe8	-6.5355425e-07
34	0x36b05cde	5.25602e-06
35	0x35d983d8	1.6206131e-06
36	0x36a6ccdc	4.9710343e-06
37	0x371d600d	9.380293e-06
38	0x36392916	2.7591063e-06
39	0xb64bebf8	-3.038671e-06
40	0x36f6c578	7.3543597e-06
41	0xb6a0171f	-4.7710632e-06
42	0x36b5464c	5.402404e-06
43	0xb599b004	-1.1450616e-06
44	0xb5dcef0c	-1.6460849e-06
45	0x374ac892	1.2086837e-05
46	0x36dd18e1	6.5892095e-06
47	0x3739b8b2	1.1069862e-05
48	0xb5839b89	-9.805527e-07
49	0xb688884c	-4.068983e-06
50	0xb5dfab61	-1.6664673e-06
51	0xb7295110	-1.0092059e-05
52	0xb58c2ff6	-1.0444771e-06
53	0xb718f20a	-9.11626e-06
54	0x36a90be2	5.037976e-06
55	0x35dc3e6c	1.6409444e-06
56	0xb686f0ca	-4.0215427e-06
57	0xb5ab4949	-1.2761822e-06
58	0xb60e88c4	-2.1239257e-06
59	0x36b14ce2	5.2839614e-06
60	0xb5a4698c	-1.224967e-06
61	0x365d9615	3.3018925e-06
62	0x34e01148	4.1735825e-07
63	0xb6273a88	-2.491901e-06
64	0x35c675dc	1.4786451e-06
65	0xb5be5890	-1.4181878e-06
66	0x35b2ee3a	1.3331367e-06
67	0xb5bd3250	-1.409624e-06
68	0x35990b4b	1.1402675e-06
69	0xb6d1516a	-6.238163e-06
70	0x36a6c96a	4.970633e-06
71	0xb61ee6da	-2.3678208e-06
72	0xb660e134	-3.3509687e-06
73	0x3484a12c	2.4704184e-07
74	0x372838e6	1.0026828e-05
75	0x36e308bc	6.766144e-06
76	0xb6878bb4	-4.039577e-06
77	0x361cf833	2.3390282e-06
78	0x357c6d26	9.403615e-07
79	0x36004931	1.911609e-06
80	0xb699865e	-4.5753977e-06
81	0xb73c48ea	-1.122265e-05
82	0xb62b9b10	-2.5571244e-06
83	0xb5fecf79	-1.8984857e-06
84	0x3728a9bf	1.0053102e-05
85	0x33f7e6a0	1.1543784e-07
86	0x36bacb51	5.566901e-06
87	0x3691fa41	4.35047e-06
88	0xb6b14022	-5.282477e-06
89	0xb4f48020	-4.5541765e-07
90	0x36a16982	4.8104566e-06
91	0x36415169	2.8806628e-06
92	0xb683c032	-3.9264787e-06
93	0xb5c7f64c	-1.4898337e-06
94	0x34c79bf0	3.7180098e-07
95	0x3710278f	8.592279e-06
96	0x36097682	2.0483571e-06
97	0x37414531	1.1519806e-05
98	0xb6212473	-2.4012086e-06
99	0xb6243210	-2.4467045e-06
100	0x34726010	2.2572954e-07
101	0xb64bb0d3	-3.0352282e-06
102	0x3646f652	2.9647676e-06
103	0x3649e91a	3.0087017e-06
104	0x35d9a7c4	1.6216586e-06
105	0x3661b6b0	3.363395e-06
106	0xb6d0840a	-6.2142544e-06
107	0xb4f36e5c	-4.5342574e-07
108	0xb6df3e16	-6.6531456e-06
109	0x34fe83dc	4.7407127e-07
110	0xb4d34808	-3.9354222e-07
111	0xb5f3d9cc	-1.8168298e-06
112	0xb728ce5d	-1.0061628e-05
113	0x349d1e4c	2.9265573e-07
114	0x3677a406	3.6901342e-06
115	0x356346d0	8.4667136e-07
116	0xb63f7d8b	-2.8534294e-06
117	0x3646af79	2.9606438e-06
118	0xb5886cee	-1.0164492e-06
119	0xb737c626	-1.0953785e-05
120	0x368f4793	4.2700644e-06
121	0x339264e0	6.817004e-08
122	0x35bfc202	1.4287073e-06
123	0xb584e323	-9.900872e-07
124	0x3692d036	4.375378e-06
125	0x366d82d8	3.5391913e-06
126	0x363cc308	2.8127706e-06
127	0xb595d746	-1.1164018e-06
128	0x3680416c	3.8223134e-06
129	0xb672bc7a	-3.6170518e-06
130	0xb721d93c	-9.646927e-06
131	0xb451b290	-1.9529602e-07
132	0xb51c8d66	-5.832029e-07
133	0xb75d3178	-1.3184144e-05
134	0x351d22c0	5.8537626e-07
135	0xb6672061	-3.444053e-06
136	0xb6704f53	-3.580896e-06
137	0x36ed1e6d	7.0666924e-06
138	0x35118cf0	5.42218e-07
139	0x37374ca8	1.0925498e-05
140	0x37347a78	1.07573505e-05
141	0xb5854d48	-9.931764e-07
142	0xb639a2ec	-2.7661981e-06
143	0xb6044edc	-1.9715435e-06
144	0x364da648	3.064417e-06
145	0xb43eef38	-1.7782156e-07
146	0x35e8e052	1.7350633e-06
147	0xb5ea2550	-1.7445218e-06
148	0x34d14830	3.8981807e-07
149	0x36fb0bdd	7.481764e-06
150	0x36954aee	4.449269e-06
151	0xb6a85649	-5.016835e-06
152	0x35cb7cfc	1.5161054e-06
153	0xb5de36bd	-1.655622e-06
154	0x364ac09b	3.0212457e-06
155	0xb6007f86	-1.9147715e-06
156	0xb64722ee	-2.9673643e-06
157	0x35bbc89e	1.3990973e-06
158	0xb561f678	-8.417769e-07
159	0x35a9494d	1.2612815e-06
160	0xb5f0b18c	-1.7933066e-06
161	0xb6924079	-4.3586447e-06
162	0xb605c5d2	-1.993369e-06
163	0xb6ada530	-5.175032e-06
164	0x370ad836	8.2757815e-06
165	0x3729de71	1.0124976e-05
166	0x3543aa64	7.289111e-07
167	0x35cb467a	1.514519e-06
168	0x36f2eed9	7.2399675e-06
169	0x358b12fa	1.036183e-06
170	0xb512c074	-5.4669295e-07
171	0xb62e36fa	-2.596002e-06
172	0x35841fd0	9.844025e-07
173	0xb6e1c271	-6.7281585e-06
174	0x36b6d68e	5.449e-06
175	0xb75a2b26	-1.3003859e-05
176	0xb52544ae	-6.156723e-07
177	0xb6ac1289	-5.128157e-06
178	0x364ae54a	3.023381e-06
179	0xb5db6e2a	-1.6348833e-06
180	0xb6742644	-3.6381107e-06
181	0x366f5355	3.566228e-06
182	0xb73285e2	-1.0640799e-05
183	0x37339437	1.070374e-05
184	0x36898eb1	4.0995296e-06
185	0x375e4e5b	1.3250475e-05
186	0xb728be6e	-1.0057918e-05
187	0x35d6581c	1.5969886e-06
188	0xb70adcfe	-8.276895e-06
189	0x3714ffaf	8.881018e-06
190	0xb37e3500	-5.9187187e-08
191	0xb584bff0	-9.890628e-07
192	0xb60507b2	-1.9823024e-06
193	0x36d3e85a	6.3153393e-06
194	0xb73484b6	-1.0759735e-05
195	0x364a176e	3.0113983e-06
196	0xb5b22168	-1.3271756e-06
197	0x340ebfc0	1.3294539e-07
198	0xb74100c2	-1.1503873e-05
199	0x3597f881	1.1322701e-06
200	0x3632fbcf	2.6670639e-06
201	0xb685c335	-3.986434e-06
202	0xb5f9c572	-1.860941e-06
203	0x34c7ee54	3.7240045e-07
204	0x36e1d3f6	6.730198e-06
205	0xb69971c9	-4.5730017e-06
206	0x368e3bdb	4.238898e-06
207	0x371fcba1	9.52455e-06
208	0xb677c151	-3.6918393e-06
209	0x375cadc2	1.3153478e-05
210	0x35d85b2e	1.6119791e-06
211	0x36460bce	2.951117e-06
212	0xb6b082e9	-5.2604487e-06
213	0x350a39e4	5.149325e-07
214	0xb573a2b0	-9.0761296e-07
215	0xb72ca872	-1.0291218e-05
216	0xb75e4184	-1.3247485e-05
217	0xb580f15b	-9.606987e-07
218	0xb5810c36	-9.614803e-07
219	0xb6966053	-4.481562e-06
220	0x36904369	4.299382e-06
221	0x35b11830	1.3194567e-06
222	0x3714f9f0	8.8796805e-06
223	0xb72004b2	-9.537836e-06
224	0xb63264ae	-2.658267e-06
225	0xb6bc6338	-5.614387e-06
226	0xb6848a38	-3.9499973e-06
227	0xb6255706	-2.463757e-06
228	0x36aba2a8	5.115133e-06
229	0xb6cbade4	-6.070115e-06
230	0x368c2ddc	4.177664e-06
231	0x36f99a26	7.4387235e-06
232	0x35ccbf31	1.5254828e-06
233	0x372ff1de	1.0487127e-05
234	0x36af087d	5.2163946e-06
235	0xb71a4e69	-9.197372e-06
236	0x354ebd50	7.7016466e-07
237	0xb6ecc3a5	-7.056124e-06
238	0xb6e04f55	-6.6849557e-06
239	0x35b7164c	1.3641052e-06
240	0x36e2adb2	6.7555457e-06
241	0x35fe2bea	1.8937255e-06
242	0x36378f06	2.7352376e-06
243	0xb530a59c	-6.58061e-07
244	0xb6481b20	-2.9818111e-06
245	0x372930e8	1.0084572e-05
246	0x34cf41fc	3.8604765e-07
247	0xb72ebdc0	-1.0415388e-05
248	0xb752220a	-1.2524901e-05
249	0x364d5e2d	3.0602198e-06
250	0x3689a676	4.1022968e-06
251	0xb62b3497	-2.5511597e-06
252	0x352fe9dc	6.553289e-07
253	0xb68718f9	-4.0262207e-06
254	0xb60ee002	-2.1290039e-06
255	0xb6d207de	-6.2594036e-06

gc4.bias f4 [256]
0	0x36d5abda	6.367901e-06
1	0xb684752c	-3.947547e-06
2	0xb5bc2bb2	-1.4019809e-06
3	0x36ceb7e2	6.160685e-06
4	0xb61b70b5	-2.3162404e-06
5	0x36a5bc34	4.939293e-06
6	0xb5ba49b7	-1.3879534e-06
7	0xb6cfcfec	-6.193286e-06
8	0x3714a762	8.860459e-06
9	0x36c8091a	5.961524e-06
10	0xb579d92c	-9.3075755e-07
11	0x34d16a24	3.900651e-07
12	0x363fcc1a	2.858002e-06
13	0xb712284c	-8.7116605e-06
14	0x36a13d48	4.805308e-06
15	0x3637f888	2.741379e-06
16	0x36e2a7df	6.7548676e-06
17	0x36d20a6a	6.2597e-06
18	0x363dad2e	2.8263999e-06
19	0x36400d44	2.861795e-06
20	0xb591c352	-1.0860188e-06
21	0xb75c238f	-1.3121301e-05
22	0xb6bd70be	-5.645764e-06
23	0x36d5143e	6.350251e-06
24	0xb666c576	-3.4387608e-06
25	0x36236eff	2.43535e-06
26	0xb5a36308	-1.2173268e-06
27	0xb6e61dc3	-6.857999e-06
28	0x35458c7c	7.359265e-07
29	0x35a2f892	1.2142284e-06
30	0x3588a63e	1.0181172e-06
31	0x36df5913	6.6562875e-06
32	0xb68c54cf	-4.182198e-06
33	0x3744d162	1.1731261e-05
34	0x364560a0	2.941153e-06
35	0x35e24c78	1.6860567e-06
36	0xb6d8154e	-6.439782e-06
37	0xb731ea19	-1.0604527e-05
38	0xb639ed3f	-2.7705244e-06
39	0xb633fe89	-2.6821237e-06
40	0xb6cf8c24	-6.1853953e-06
41	0x36dbc867	6.5500385e-06
42	0x361dde95	2.3524383e-06
43	0xb72a4229	-1.0148194e-05
44	0xb60e1f41	-2.117784e-06
45	0xb6aa30fd	-5.072098e-06
46	0x35a0a6dc	1.1969491e-06
47	0xb60fab9c	-2.140855e-06
48	0x369a043d	4.590051e-06
49	0x369dc7d7	4.702229e-06
50	0x36922b0f	4.3561517e-06
51	0x35154b2e	5.5616226e-07
52	0xb5d57b40	-1.5905607e-06
53	0x36bb0304	5.5733854e-06
54	0x360803a6	2.0267703e-06
55	0x363b3538	2.7896149e-06
56	0x35b3defd	1.3401437e-06
57	0x370f6ee5	8.549284e-06
58	0xb5cc8ffa	-1.5241087e-06
59	0xb6850be6	-3.965094e-06
60	0x3694e44c	4.437321e-06
61	0x36b86198	5.4949887e-06
62	0xb6a235c6	-4.8342363e-06
63	0xb695e582	-4.4672643e-06
64	0xb668e9ca	-3.4706777e-06
65	0xb6b704b3	-5.454372e-06
66	0x36a9735c	5.050022e-06
67	0x35823c1e	9.703251e-07
68	0xb72ea7d6	-1.04102855e-05
69	0xb6cf6dcd	-6.1818632e-06
70	0x368c084b	4.1732906e-06
71	0x34bb1a68	3.4850677e-07
72	0x36a5381e	4.923916e-06
73	0xb6b0b846	-5.266661e-06
74	0x3740f6d9	1.15015655e-05
75	0xb6559e93	-3.1831776e-06
76	0xb4d46630	-3.9562428e-07
77	0xb5e83e9c	-1.7303569e-06
78	0xb51deb8e	-5.8829835e-07
79	0x34894960	2.5571626e-07
80	0xb64f8302	-3.092166e-06
81	0xb67d0542	-3.7702998e-06
82	0x36cc54de	6.0895536e-06
83	0xb71724ee	-9.0089e-06
84	0xb607cb1c	-2.0234793e-06
85	0x35b705b1	1.3636219e-06
86	0x370bb10b	8.326267e-06
87	0xb5ac8a31	-1.2855218e-06
88	0x364934a5	2.9981977e-06
89	0xb67c6fd6	-3.7616023e-06
90	0x342c20c0	1.6030663e-07
91	0xb695bb6b	-4.4623644e-06
92	0x36e3381c	6.771659e-06
93	0xb6fccd71	-7.5341018e-06
94	0xb417b730	-1.4129614e-07
95	0x351981ca	5.718581e-07
96	0xb6c64c85	-5.909768e-06
97	0xb62c95da	-2.5717222e-06
98	0xb5f2d87c	-1.809341e-06
99	0xb7051c8f	-7.934067e-06
100	0x35cb18ae	1.5131861e-06
101	0xb57b8c5c	-9.3709036e-07
102	0x3419c620	1.4321313e-07
103	0x36d0956f	6.2162794e-06
104	0xb6f99300	-7.4378913e-06
105	0x372cd42c	1.0301399e-05
106	0x36b892b1	5.5007044e-06
107	0xb6267291	-2.4802614e-06
108	0xb618bbb9	-2.2759034e-06
109	0x35e789b0	1.7250914e-06
110	0xb531d114	-6.6241887e-07
111	0x35107158	5.380912e-07
112	0x356a3541	8.724929e-07
113	0x3559d13e	8.1143287e-07
114	0x372d64a4	1.0335036e-05
115	0xb5b0b2b4	-1.3165031e-06
116	0xb5049d06	-4.940233e-07
117	0xb71a042e	-9.180088e-06
118	0x36a3ffd4	4.887561e-06
119	0xb5d1bfa6	-1.562749e-06
120	0x362c7c3e	2.5702316e-06
121	0xb73a1af3	-1.10927385e-05
122	0x36037960	1.959117e-06
123	0xb596116b	-1.118094e-06
124	0x36786b74	3.7017426e-06
125	0xb7404c9e	-1.1461931e-05
126	0xb55f4274	-8.3170676e-07
127	0x368ceb08	4.1996864e-06
128	0x34fa8f98	4.6670607e-07
129	0xb69d192a	-4.681894e-06
130	0x36c3e22d	5.837783e-06
131	0xb60d2d5a	-2.1037035e-06
132	0xb59689d6	-1.1215986e-06
133	0x352407ac	6.1105925e-07
134	0x3539d100	6.9222006e-07
135	0xb594297f	-1.1038936e-06
136	0xb52caca8	-6.432624e-07
137	0x35c169b8	1.4410389e-06
138	0x35d55aa2	1.5896114e-06
139	0x368cb3f9	4.1932767e-06
140	0xb68cba02	-4.1939793e-06
141	0x3680876e	3.8304634e-06
142	0x36b61561	5.4265115e-06
143	0xb75143dd	-1.2473171e-05
144	0xb5d9600a	-1.6195711e-06
145	0x375d13e9	1.3177262e-05
146	0xb6970cc2	-4.501636e-06
147	0x3536a9d8	6.804744e-07
148	0x3496dbec	2.8099691e-07
149	0x36ea7da4	6.98837e-06
150	0x36a56238	4.9288174e-06
151	0x36aea64a	5.2049627e-06
152	0xb6558bd5	-3.1820866e-06
153	0xb59cfb04	-1.1695961e-06
154	0x372e5d0e	1.0392874e-05
155	0xb5d6f798	-1.6016302e-06
156	0xb4f622e8	-4.5846468e-07
157	0x370762b1	8.069605e-06
158	0xb6b02086	-5.248995e-06
159	0x35dd7005	1.6498385e-06
160	0x368e8008	4.2468346e-06
161	0x369ca3e2	4.6682408e-06
162	0xb4c61d64	-3.6901758e-07
163	0xb5f354f0	-1.8129631e-06
164	0xb61c9178	-2.3330485e-06
165	0x3692aca6	4.371238e-06
166	0x375a2e4f	1.3004595e-05
167	0xb5c30665	-1.4530493e-06
168	0x363799b6	2.7358597e-06
169	0xb7177f27	-9.029906e-06
170	0xb69f148c	-4.7409612e-06
171	0x3665e2fe	3.4255786e-06
172	0x368bf977	4.1715643e-06
173	0x375b1e6f	1.3060503e-05
174	0x355ef8b8	8.306338e-07
175	0xb734db89	-1.0779951e-05
176	0xb6e1887e	-6.7214123e-06
177	0x369fc0ee	4.7610292e-06
178	0x369701ce	4.500361e-06
179	0x36ca94a4	6.037373e-06
180	0xb71c5354	-9.317726e-06
181	0xb6da3df2	-6.5041177e-06
182	0x34f97dc0	4.647136e-07
183	0xb71992f2	-9.153724e-06
184	0x368d4729	4.2104116e-06
185	0xb6489e91	-2.989462e-06
186	0xb5d2579e	-1.5671719e-06
187	0x35886538	1.0162248e-06
188	0x35cb28d9	1.5136567e-06
189	0xb587e6ce	-1.0125457e-06
190	0x36477e4a	2.972682e-06
191	0x330d0540	3.2833896e-08
192	0xb682fd9a	-3.903825e-06
193	0x35fbd7bf	1.8763748e-06
194	0x364092ae	2.8695608e-06
195	0x362e2425	2.594906e-06
196	0xb5d886ff	-1.6132543e-06
197	0x35a23ff8	1.2088558e-06
198	0x35a03ab6	1.1938016e-06
199	0xb489a2d0	-2.56367e-07
200	0x375bc06e	1.3098221e-05
201	0x35d329c1	1.5732877e-06
202	0x33b05ed0	8.212885e-08
203	0x3620c1b1	2.3954601e-06
204	0x366f9b37	3.5704122e-06
205	0xb60d6621	-2.1070084e-06
206	0xb60b4ebc	-2.0758443e-06
207	0xb69efb32	-4.73801e-06
208	0x368720ae	4.027118e-06
209	0x3734f18f	1.0785078e-05
210	0x35f59d30	1.829967e-06
211	0xb6e379dc	-6.7793135e-06
212	0xb5b57937	-1.3520829e-06
213	0xb705bbf6	-7.971181e-06
214	0xb6116cc2	-2.166999e-06
215	0xb682b529	-3.8953917e-06
216	0xb58e5bf0	-1.0606582e-06
217	0x365badf2	3.2734793e-06
218	0x35c65800	1.4777761e-06
219	0x36680b1f	3.4577167e-06
220	0xb5e0df42	-1.6754277e-06
221	0x3645dcda	2.948384e-06
222	0x3611d538	2.1730793e-06
223	0x36c51456	5.873425e-06
224	0x3699fc1c	4.5891047e-06
225	0x35db85d9	1.6355726e-06
226	0x34e01064	4.1735177e-07
227	0xb6eaf264	-7.0019614e-06
228	0x36a07a05	4.7825765e-06
229	0xb3f54b80	-1.1422435e-07
230	0xb514109c	-5.5158466e-07
231	0x375b67b4	1.30775625e-05
232	0xb5b58708	-1.352485e-06
233	0xb6d58915	-6.363853e-06
234	0xb5a9b294	-1.2643454e-06
235	0x35a55334	1.2317673e-06
236	0x37148017	8.851311e-06
237	0xb4a7316c	-3.1142133e-07
238	0xb5524f00	-7.8346056e-07
239	0xb6090290	-2.0416082e-06
240	0xb616caa8	-2.2469703e-06
241	0xb5be289a	-1.416792e-06
242	0xb6fe0a8b	-7.5710172e-06
243	0xb6845be6	-3.944605e-06
244	0x36836673	3.916031e-06
245	0x34731410	2.2638437e-07
246	0xb5a1970e	-1.2039397e-06
247	0xb5b4b16c	-1.3462682e-06
248	0xb68ce5ed	-4.199092e-06
249	0xb504ef84	-4.9522373e-07
250	0xb75d937f	-1.3206968e-05
251	0xb735b874	-1.0831387e-05
252	0x36c827a7	5.9650806e-06
253	0xb73a88b8	-1.1118296e-05
254	0x37106bb4	8.608145e-06
255	0xb658c584	-3.2301477e-06
