saved100.model (torch, 960039 bytes, 12 tensors)

gc1.weight f4 [3, 64]
0.049213313 -0.028044324 -0.09398436 0.033938 -0.0117817335 -0.010148903 0.017328404 -0.035786018
0.008179961 -1.6498638e-05 0.0036829342 -0.02632739 0.007851163 -0.029920863 -0.00024114834 -0.051910155
0.0064098816 -0.03947371 -0.16350517 -0.035780124 -0.019846125 -0.042251874 -0.101426125 -0.018815223
-0.036047723 1.1176621e-06 -0.073562674 -0.0014796708 -0.064895816 -0.22181787 0.048957 -0.017442197
0.0928475 -0.010962706 -0.113307096 0.0017126956 -0.013284642 -0.04713336 -0.036757156 -0.09412905
-0.054711178 -0.0913007 -0.03847954 0.013534315 0.011260037 -0.0143373255 -0.0016632185 -0.021242252
0.0036952063 -0.045337006 -0.006390567 -0.0035375778 -0.0002780347 -0.041194703 -8.4068146e-05 -0.0090196
-0.019695442 -0.06350029 0.05507213 -0.0701982 -0.007903165 -0.005464507 -0.024217885 -0.033524998
0.0134543935 -0.1834541 0.029404975 -0.1407325 -9.4195646e-05 -0.099414684 0.06295588 -0.048766874
0.020069497 -0.021309132 -0.2620481 -0.05802948 -0.13524139 -0.02762814 -0.00790511 -0.06274146
-4.5047127e-05 -0.12506804 -0.07163646 -0.09162108 -0.034677483 -0.009000079 -0.03865772 -0.1843694
-0.013937583 -0.0006281279 -0.01749318 -0.03203711 -0.08300363 -0.037206244 -0.1229403 -0.02716124
0.03942429 -0.10647534 -0.113325976 -0.16312662 -0.03830353 -0.031819563 -0.027888259 -0.13898051
-0.024123685 -0.13423526 -0.1787066 -0.1547903 -0.13966207 -0.02888607 0.062314227 -0.02929557
-0.051490806 -0.097495414 -0.03926255 -0.018716076 -0.028987769 -0.019928835 -0.012538288 -0.12678842
-0.052845854 -0.07020273 -0.071473055 -0.016969766 -0.0021740512 -0.049982827 -0.04410106 -0.035155654
0.17639922 -0.12014907 0.012166833 -0.019992597 2.6317744e-06 0.012320564 -0.17155348 -0.049981143
-0.042789537 9.329656e-06 -0.041142408 -5.8281694e-05 -0.005591936 -0.07372605 -3.0223015e-05 -0.017917138
5.314765e-06 -0.013447363 -0.04299083 0.02533097 -8.644469e-05 -0.019007156 -0.051686097 -0.11015083
-0.015408181 1.4980014e-07 0.05509705 2.728944e-05 -0.005036654 -0.08999851 -0.005312517 -1.0030267e-05
0.06300175 0.020974549 -0.030344395 -0.013716302 -0.0017815158 0.015511178 2.5693544e-05 0.02086354
-0.023457002 -0.0757566 -0.08686522 -0.052788302 0.0017391943 0.00012906354 -0.17669767 -0.03767545
-0.097347245 -0.07652614 0.00013187347 -0.0022649248 -6.5785796e-05 -0.019160638 -6.5089384e-06 -0.06162259
0.0014760128 0.012621916 -0.011665172 -0.0038946997 0.00020938955 6.381633e-05 -0.004443017 5.0712453e-05
00000000: e693 493d 36bd e5bc df7a c0bd 9302 0b3d
00000010: 2c08 41bc 9647 26bc 4cf4 8d3c 5c94 12bd
00000020: 3e05 063c 8e66 8ab7 625d 713b 8aac d7bc
00000030: 2aa2 003c 991c f5bc c4dc 7cb9 be9f 54bd
00000040: fc09 d23b 2faf 21bd e66d 27be 2e8e 12bd
00000050: 5794 a2bc 4d10 2dbd 80b8 cfbd 6222 9abc
00000060: c7a6 13bd 9402 9635 07a8 96bd 83f1 c1ba
00000070: 19e8 84bd 3924 63be 2387 483d f0e2 8ebc
00000080: d526 be3d ec9c 33bc 8d0d e8bd 877c e03a
00000090: d4a7 59bc e90e 41bd ac8e 16bd bbc6 c0bd
000000a0: d418 60bd ddfb babd b99c 1dbd 08bf 5d3c
000000b0: 057c 383c 1ae7 6abc 5a00 daba 3b04 aebc
000000c0: 462b 723b 4cb3 39bd f667 d1bb b5d6 67bb
000000d0: 30c5 91b9 c7bb 28bd be4d b0b8 f2c6 13bc
000000e0: 5658 a1bc 710c 82bd 5093 613d 13c4 8fbd
000000f0: 477c 01bc 9b0f b3bb 9664 c6bc 8251 09bd
00000100: d16f 5c3c 64db 3bbe b4e2 f03c 2e1c 10be
00000110: e78a c5b8 ed99 cbbd 03ef 803d c6bf 47bd
00000120: c968 a43c 7d90 aebc 2b2b 86be 52b0 6dbd
00000130: b87c 0abe 6954 e2bc 6f84 01bc 987e 80bd
00000140: fcf0 3cb8 d611 00be 23b6 92bd d5a3 bbbd
00000150: fa09 0ebd 1175 13bc 8f57 1ebd 55cb 3cbe
00000160: 765a 64bc f3a8 24ba dc4d 8fbc 5839 03bd
00000170: cffd a9bd 9365 18bd 20c8 fbbd 4081 debc
00000180: 5d7b 213d be0f dabd 7317 e8bd aa0a 27be
00000190: 2ae4 1cbd 3b55 02bd eb75 e4bc e850 0ebe
000001a0: 099f c5bc f874 09be ddfe 36be 5981 1ebe
000001b0: 9303 0fbe 7ba2 ecbc 343d 7f3d 43fd efbc
000001c0: 06e8 52bd adab c7bd c5d1 20bd 7552 99bc
000001d0: c277 edbc cc41 a3bc 646d 4dbc d3d4 01be
000001e0: e574 58bd 73c6 8fbd 7760 92bd 2e04 8bbc
000001f0: 877a 0ebb cbba 4cbd 50a3 34bd 60ff 0fbd
00000200: ffa1 343e b710 f6bd 6557 473c 84c7 a3bc
00000210: 8a9d 3036 31dc 493c b7ab 2fbe 07b9 4cbd
00000220: 1544 2fbd 9186 1c37 f184 28bd 7e73 74b8
00000230: 8f3c b7bb affd 96bd 6e87 fdb7 f6c6 92bc
00000240: 7c55 b236 5452 5cbc 2717 30bd e582 cf3c
00000250: a449 b5b8 e5b4 9bbc cdb4 53bd c296 e1bd
00000260: 9872 7cbc c0d8 2034 72ad 613d a0eb e437
00000270: 840a a5bb 2451 b8bd 9f14 aebb ab47 28b7
00000280: 1007 813d d1d2 ab3c cf94 f8bc 57ba 60bc
00000290: c081 e9ba 9922 7e3c 7788 d737 04ea aa3c
000002a0: e628 c0bc 4726 9bbd 64e6 b1bd 8c38 58bd
000002b0: adf5 e33a 3b55 0739 3cf0 34be 9351 1abd
000002c0: fe5d c7bd bdb9 9cbd 8447 0a39 226f 14bb
000002d0: 7bf6 89b8 c5f6 9cbc 5b67 dab6 f867 7cbd
000002e0: c576 c13a 27cc 4e3c 471f 3fbc 383e 7fbb
000002f0: 948f 5b39 22d5 8538 ba96 91bb 15b4 5438

gc1.bias f4 [64]
0.024229728 -0.033665545 -0.0688849 -0.10195435 -0.013785485 -0.041859046 0.038578212 -0.06824806
-0.19400638 -0.011632568 0.0018564429 -0.008612446 -0.080592684 -0.01201706 -0.1055805 -0.043183394
-0.021777594 -0.01704313 -0.06105278 -0.01064943 -0.034939334 -0.03163045 -0.0882666 0.018196149
-0.024393616 -0.0009401391 -0.0033006321 -0.041488387 -0.048358317 -0.030461151 -0.109197326 -0.02434404
-0.15830278 0.020383572 0.0140054375 -0.026418233 -0.049416568 -0.02762711 -0.035882358 0.029832475
0.008611716 0.04385358 -0.026603682 -0.06382598 -0.057515603 -0.03857603 -0.17602713 -0.04095361
-0.03490977 -0.04460451 -0.0355643 -0.03365393 -0.029233776 -0.021912266 -0.01896061 -0.018935466
-0.093210414 0.031006344 -0.078397796 -0.04343574 -0.011698891 -0.042549413 -0.041077014 -0.053902935
00000000: 6c7d c63c e2e4 09bd 8713 8dbd 71cd d0bd
00000010: 84dc 61bc 6474 2bbd 3004 1e3d a4c5 8bbd
00000020: 9ca9 46be 8796 3ebc e353 f33a 371b 0dbc
00000030: c70d a5bd 34e3 44bc 973a d8bd 12e1 30bd
00000040: ed66 b2bc 099e 8bbc 7b12 7abd f27a 2ebc
00000050: 8c1c 0fbd ee8e 01bd 1fc5 b4bd 1710 953c
00000060: 1fd5 c7bc ab73 76ba 6b4f 58bb baef 29bd
00000070: 5f13 46bd aa89 f9bc d9a2 dfbd 276d c7bc
00000080: 201a 22be 73fb a63c 1077 653c 0d6b d8bc
00000090: 0769 4abd 4052 e2bc 61f9 12bd 3c63 f43c
000000a0: 2818 0d3c d09f 333d f7ef d9bc 32b7 82bd
000000b0: 7b95 6bbd e601 1ebd 7540 34be f9be 27bd
000000c0: 8cfd 0ebd 38b3 36bd dfab 11bd b4d8 09bd
000000d0: ac7b efbc 5a81 b3bc 4853 9bbc 8d1e 9bbc
000000e0: 1ae5 bebd 0401 fe3c 068f a0bd ade9 31bd
000000f0: b5ac 3fbc 4b48 2ebd 5f40 28bd 53c9 5cbd

gc2.weight f4 [64, 128]
0.05829598 -0.21445546 0.051837686 0.058689516 1.425908e-05 -0.003729859 -0.021963397 -0.13564728
-0.09608198 -0.00084210164 -0.071125075 -0.002693759 -0.06689951 -0.046362825 0.014702001 -0.04909496
0.052968163 -0.0031009614 0.00925506 -0.020797472 -0.05470798 0.064592786 0.05441752 -0.15586105
-0.02373884 -0.057292853 0.06822322 0.0007044427 -0.08873279 -0.026545767 -0.24277432 0.0051116543
0.04895301 0.0018063402 -0.00040538292 -5.0808925e-05 -0.07539065 -5.5933506e-06 -0.018375205 -0.17032649
-0.011210161 0.007451196 -0.000715675 -0.14424124 0.011588162 -0.00025899042 -0.024392929 -0.03627711
-0.058146883 0.015987094 0.043312795 -0.00039357363 -0.1302355 -0.051842537 0.042631898 -0.012616048
-0.15206605 0.054634683 0.0380861 -0.00010908267 0.006296231 0.1185707 0.013113384 0.016856369
3.0148742e-05 0.049576495 0.0651162 0.016681746 -0.073673256 -0.15284546 -0.028735315 -3.2908145e-05
-0.065407895 -0.07455835 -7.948233e-05 -0.0004147909 -0.0058855666 -0.019215005 -0.009129949 0.0005891835
-0.020667134 0.05103969 0.00023392784 -0.000503871 -0.07698118 -0.061258096 -0.15853597 -0.039456993
-0.06742412 0.06852532 0.0916771 -0.0038524466 4.414012e-05 -0.025201173 -1.0937783e-05 -0.0012198391
0.054518122 0.079240195 -0.046229396 0.03688789 -0.04787322 -0.017259212 -0.085985206 0.008381388
-0.10085631 -0.022295676 0.038306028 -0.022524254 -0.005817444 -0.027923618 2.5857142e-05 -0.13236824
-0.18543074 -0.06269757 0.07686964 0.07645356 -0.04990232 -0.15380673 -0.16331345 -0.006367411
-0.032794595 0.062467653 8.6357526e-05 -5.5473236e-05 -0.0025061264 0.0131410705 -0.004110482 0.08937232
0.023309564 0.02961418 -0.11900121 -0.06615059 6.207129e-06 -0.0005072394 -0.013104538 0.030559452
-9.2882765e-06 0.00015595133 0.0049673086 -0.0139828045 -0.06927103 -0.036383223 0.0021307447 -2.6463726e-05
-0.08197358 0.00012892432 -0.017159294 -0.020761171 -0.05271656 -0.121271044 -0.108462155 -0.0002299765
-0.025462627 -0.019779034 0.0406777 -1.7926975e-06 0.07677841 -0.012162807 0.035387013 -0.03871765
-0.07669861 -0.015858067 4.4103308e-05 2.1749831e-05 -0.035697248 2.1548138e-05 -2.8065455e-05 0.07607946
0.001065813 -0.02372701 -0.0013540143 -0.15915023 0.006509404 -5.2871783e-05 0.035073508 -0.009694191
-0.037453793 -0.003555506 -0.01624656 -0.00044948087 -0.05846977 -0.017737933 -0.04013902 -0.03574723
-0.086513646 0.116447575 -0.028876806 5.2192325e-05 0.027882705 -0.08626799 -0.043514084 0.056832764
-1.2700764e-05 -0.045037486 -0.050570395 -0.10210686 -0.08380839 -0.06174561 -0.012402226 -3.23884e-05
2.1798853e-06 0.09981067 -4.621222e-05 -0.00036855892 0.012465761 -0.025277376 -0.0038866587 -1.6609474e-06
-0.036665045 -0.09770933 -0.06828937 -0.0005763507 0.031052481 0.019672647 0.0667649 0.0036556176
0.0035969047 0.02079163 -0.092330925 0.00017771473 3.362176e-05 -0.080384225 -1.5874461e-06 -0.02641921
0.020947171 0.036919437 0.024402771 -0.012294247 0.022773584 -0.04126598 -0.0058795176 -0.0177277
0.07425409 0.009835157 -0.02778878 -0.06089795 -0.007967547 -0.040096495 -1.9061212e-05 -0.071346395
0.0166181 0.06454374 -0.10517928 -0.13717659 -0.0122709945 -0.16455866 0.012210848 -0.070968755
0.0065028206 0.010787095 2.7751366e-06 -4.3465436e-05 -7.4759926e-05 -0.012464649 -0.002855262 -0.13121405
00000000: c4c7 6e3d 369a 5bbe c153 543d 6b64 703d
00000010: 483a 6f37 a670 74bb 95ec b3bc 1fe7 0abe
00000020: a1c6 c4bd 7cc0 5cba 06aa 91bd c789 30bb
00000030: 9c02 89bd f2e6 3dbd a9e0 703c cc17 49bd
00000040: 25f5 583d 8039 4bbb 89a2 173c 765f aabc
00000050: 7a15 60bd 3949 843d e8e4 5e3d 0a9a 1fbe
00000060: f577 c2bc e9ab 6abd 9eb8 8b3d 59aa 383a
00000070: 89b9 b5bd 8276 d9bc d599 78be aa7f a73b
00000080: f482 483d b8c2 ec3a 9389 d4b9 ab1b 55b8
00000090: 6a66 9abd 84ae bbb6 9987 96bc 116a 2ebe
000000a0: d3aa 37bc 2a29 f43b 239c 3bba fab3 13be
000000b0: 46dc 3d3c 1bc9 87b9 aed3 c7bc 4f97 14bd
000000c0: 6d2b 6ebd 5ef7 823c c268 313d 8f58 ceb9
000000d0: 745c 05be d758 54bd c99e 2e3d 8ab3 4ebc
000000e0: 34b7 1bbe 9ec8 5f3d 2c00 1c3d 50c3 e4b8
000000f0: 9d50 ce3b 32d5 f23d 85d9 563c 5e16 8a3c
00000100: eee7 fc37 b910 4b3d a45b 853d 28a8 883c
00000110: 01e2 96bd 8583 1cbe 5366 ebbc da06 0ab8
00000120: 93f4 85bd 0cb2 98bd c0af a6b8 4b78 d9b9
00000130: b6db c0bb c968 9dbc c895 15bc 6f73 1a3a
00000140: 1f4e a9bc fe0e 513d 874a 7539 3616 04ba
00000150: 4fa8 9dbd c5e9 7abd 4157 22be a89d 21bd
00000160: a815 8abd 0157 8c3d 34c1 bb3d 5479 7cbb
00000170: 1823 3938 b172 cebc 6c81 37b7 02e3 9fba
00000180: 654e 5f3d af48 a23d 095b 3dbd c217 173d
00000190: b616 44bd 3163 8dbc 0319 b0bd 1752 093c
000001a0: c18d cebd 6ca5 b6bc c8e6 1c3d c984 b8bc
000001b0: 42a0 bebb 12c0 e4bc cae7 d837 8a8b 07be
000001c0: 8ee1 3dbe 9567 80bd d46d 9d3d af93 9c3d
000001d0: 6066 4cbd 837f 1dbe a43b 27be b7a5 d0bb
000001e0: a053 06bd 15de 7f3d d81a b538 efab 68b8
000001f0: d33d 24bb a54d 573c 39b1 86bb d608 b73d
00000200: b3f3 be3c 7099 f23c e8b6 f3bd f679 87bd
00000210: d546 d036 43f8 04ba 6bb4 56bc d157 fa3c
00000220: d8d4 1bb7 de86 2339 cec4 a23b 2218 65bc
00000230: f8dd 8dbd 9306 15bd f7a3 0b3b 6bfe ddb7
00000240: c4e1 a7bd dc2f 0739 a691 8cbc 5513 aabc
00000250: 52ed 57bd f45c f8bd 6821 debd d925 71b9
00000260: 0097 d0bc a407 a2bc a99d 263d 9e9c f0b5
00000270: 003e 9d3d 8346 47bc f9f1 103d 6696 1ebd
00000280: 2914 9dbd c7e8 81bc 91fb 3838 6873 b637
00000290: 4737 12bd 46c2 b437 1b6e ebb7 8ccf 9b3d
000002a0: c0b2 8b3a 255f c2bc 2e79 b1ba 47f8 22be
000002b0: d74c d53b a5c2 5db8 3da9 0f3d 62d4 1ebc
000002c0: 2669 19bd 7e03 69bb 8117 85bc 4da8 ebb9
000002d0: ff7d 6fbd 244f 91bc d068 24bd b06b 12bd
000002e0: 112e b1bd 117c ee3d 0d8f ecbc 15e9 5a38
000002f0: 456a e43c 46ad b0bd d33b 32bd 79c9 683d
00000300: 5e15 55b7 3a79 38bd e722 4fbd 671d d1bd
00000310: bca3 abbd f7e8 7cbd b532 4bbc c8d8 07b8
00000320: 254a 1236 8969 cc3d fed3 41b8 243b c1b9
00000330: 313d 4c3c 8012 cfbc 50b7 7ebb b8ed deb5
00000340: 162e 16bd d41b c8bd 4cdb 8bbd 3e16 17ba
00000350: c661 fe3c 8828 a13c 09bc 883d 1693 6f3b
00000360: 0cba 6b3b 3553 aa3c ff17 bdbd ef58 3a39
00000370: 1705 0d38 7ca0 a4bd 3c10 d5b5 196d d8bc
00000380: 6799 ab3c d638 173d 52e8 c73c cf6d 49bc
00000390: ab8f ba3c 8406 29bd f8a8 c0bb ae39 91bc
000003a0: 8712 983d a323 213c 4ca5 e3bc 2170 79bd
000003b0: 508a 02bc 393c 24bd a4e5 9fb7 0f1e 92bd
000003c0: af22 883c 822f 843d 3c68 d7bd 0578 0cbe
000003d0: 480c 49bc 1182 28be 0210 483c 1158 91bd
000003e0: 9d15 d53b 5bbc 303c 7c3c 3a36 a84e 36b8
000003f0: 6ec8 9cb8 8738 4cbc 591f 3bbb fa5c 06be

gc2.bias f4 [128]
0.033685293 -0.028811947 0.04070597 0.047837734 -0.018957991 -0.037410706 -0.00063392986 0.028206622
-0.068866275 -0.032049987 -0.009467608 -0.04171605 -0.041672044 0.045653045 -0.02963822 -0.071725376
0.049370445 -0.020614995 -0.07822386 -0.033811264 -0.0062532197 0.006544791 0.017572459 -0.032833084
-0.04000033 -0.029360356 0.029059658 -0.0009574509 0.042234715 -0.039876945 0.05052832 -0.05845263
0.04285501 0.048241485 -0.028891312 -0.010845796 -0.029649677 -0.00034235726 -0.0442074 0.049911827
-0.036379296 0.04249901 -0.033942867 0.0566582 0.026454689 -0.034372237 0.049837276 -0.035760015
-0.030439448 -0.06603387 0.029552545 -0.033014014 -0.050683405 0.04941453 0.037574954 -0.05735845
0.06588104 0.034336638 -0.024630858 -0.030701263 -0.055508554 0.029138613 0.045428507 0.04868806
-0.003899577 0.03649427 0.014743917 0.036011536 -0.0023733578 0.058296524 -0.034365322 -0.012610982
-0.08471822 0.051693257 -0.025386218 -0.050269358 0.05764889 -0.021302141 -0.034516726 -0.0007633635
0.050058775 0.026941232 -0.024052434 -0.03592341 0.05092202 -0.029957598 0.06641977 -0.015462567
-0.084302895 0.03136242 0.038679145 -0.0376393 -0.030154392 -0.030172862 -0.0029099775 -0.0327893
0.04859661 0.048551574 0.0556275 0.039312437 -0.013201313 -0.022702392 0.053137522 -0.044193015
0.049548004 -0.053478517 0.033270862 -0.021657413 -0.04742912 -0.037768994 -0.0012631952 0.068763405
0.056099486 0.05311909 0.05304579 0.038649723 -0.029436333 0.06101519 0.061785713 -0.047374547
-0.07257312 0.042090017 -0.0013259486 -0.026444433 -0.0033855257 0.046739053 0.00136976 0.016368143
00000000: 97f9 093d 0807 ecbc 4ebb 263d 80f1 433d
00000010: ca4d 9bbc f83b 19bd 502e 26ba 9311 e73c
00000020: c309 8dbd d946 03bd 071e 1bbc 73de 2abd
00000030: 4eb0 2abd b0fe 3a3d dacb f2bc c1e4 92bd
00000040: aa38 4a3d c7e0 a8bc d533 a0bd ae7d 0abd
00000050: cfe7 ccbb b075 d63b 1ef4 8f3c fc7b 06bd
00000060: 63d7 23bd 2185 f0bc 850e ee3c 71fd 7aba
00000070: 4ffe 2c3d 0256 23bd c9f6 4e3d 066c 6fbd
00000080: bc88 2f3d dd98 453d 79ad ecbc 91b2 31bc
00000090: e1e3 f2bc 6a7e b3b9 d212 35bd 5870 4c3d
000000a0: 7502 15bd 7113 2e3d ad07 0bbd 6e12 683d
000000b0: 81b7 d83c e7c9 0cbd 2c22 4c3d 1879 12bd
000000c0: 265c f9bc c43c 87bd 2e18 f23c b439 07bd
000000d0: 6799 4fbd e466 4a3d 32e8 193d b2f0 6abd
000000e0: a4ec 863d 93a4 0c3d a7c6 c9bc 3781 fbbc
000000f0: f05c 63bd 1ab4 ee3c 3e13 3a3d 226d 473d
00000100: 0c90 7fbb 047b 153d 7890 713c d580 133d
00000110: 568a 1bbb 56c8 6e3d a7c2 0cbd 4b9e 4ebc
00000120: bf80 adbd 4fbc 533d c2f6 cfbc 3ee7 4dbd
00000130: 3e21 6c3d d481 aebc 6961 0dbd 751c 48ba
00000140: 6e0a 4d3d dcb3 dc3c 9c09 c5bc 6d24 13bd
00000150: 9c93 503d a369 f5bc 1707 883d b556 7dbc
00000160: ffa6 acbd e275 003d 066e 1e3d ab2b 1abd
00000170: 5806 f7bc 142d f7bc 52b5 3ebb 134e 06bd
00000180: 3d0d 473d 04de 463d a9d9 633d 1406 213d
00000190: 524a 58bc 5efa b9bc bba6 593d bc03 35bd
000001a0: d9f2 4a3d 4a0c 5bbd 0747 083d e36a b1bc
000001b0: 0945 42bd a9b3 1abd cc91 a5ba d4d3 8c3d
000001c0: 93c8 653d 6793 593d 8b46 593d 2c4f 1e3d
000001d0: 7724 f1bc 10eb 793d 0413 7d3d d00b 42bd
000001e0: 37a1 94bd 9566 2c3d 74cb adba ffa1 d8bc
000001f0: b2df 5dbb 7371 3f3d 8589 b33a 7c16 863c

gc3.weight f4 [128, 256]
-5.598258e-07 -7.5878907e-06 8.165798e-07 3.1922423e-06 -3.2304515e-06 -2.3860066e-06 3.85344e-06 1.3526735e-06
-8.62453e-06 -4.7993985e-06 -6.841435e-07 5.7895622e-06 -5.551957e-07 1.086234e-05 -8.67714e-06 -3.9002557e-06
5.557475e-06 -9.721709e-06 6.144697e-06 -3.7398536e-06 -7.3078763e-06 -4.760105e-06 -1.7286777e-06 3.5338455e-06
2.3833015e-06 1.0628014e-05 1.6267343e-06 3.4112477e-06 -1.0127651e-06 1.72931e-06 -8.311746e-06 2.4590663e-06
-9.941164e-07 -1.223377e-06 1.2311078e-06 2.2531972e-06 5.5060123e-06 -7.1099305e-07 -3.0705612e-06 1.0007776e-06
7.6287733e-06 -9.161935e-06 -1.3860065e-06 -5.753983e-07 -5.7953657e-06 -3.2775188e-07 -7.4574396e-06 4.224188e-06
6.121165e-06 -3.5884445e-06 3.3606727e-06 -7.946665e-06 -3.3896583e-07 -5.7744046e-07 2.6341056e-06 1.0180453e-05
-5.480194e-06 4.840243e-07 -1.9830998e-06 -6.2778163e-06 -6.63445e-06 5.0871276e-06 -6.661866e-06 7.0592687e-06
1.6682156e-07 4.2168913e-06 -1.5934334e-06 1.5277376e-06 -9.555104e-06 8.114332e-06 8.4019375e-06 -7.35712e-06
-4.5719094e-06 5.152601e-06 -3.826663e-06 -1.2966075e-07 -2.7574895e-06 9.508142e-08 -1.0941142e-06 -4.568053e-06
1.0402431e-05 -3.3295619e-06 -1.3626211e-06 2.4706678e-06 5.8407345e-06 1.4946627e-06 2.5178074e-06 1.10649235e-05
1.6315148e-06 4.5112547e-06 -7.456854e-06 -7.985144e-06 8.9297697e-07 3.4528048e-06 -1.4625084e-06 -8.937189e-07
6.408332e-07 -1.2003601e-06 -8.086343e-06 -3.6203414e-07 -1.0068137e-05 -5.7287195e-07 -2.7734416e-06 6.4267697e-06
3.551604e-07 -8.238929e-06 -3.0050228e-06 1.1079906e-06 8.939148e-06 -8.329367e-06 1.327664e-06 1.0307977e-05
1.488258e-06 -4.2096785e-06 -2.5135541e-06 8.093397e-06 -4.9239675e-06 -2.1101291e-06 1.1238171e-05 -7.354195e-06
-4.9467815e-07 -1.3753114e-06 -2.615835e-06 3.6738961e-06 -1.3699607e-06 -6.2319823e-06 -6.262049e-06 5.309347e-06
-5.586031e-06 -3.2358903e-06 -5.890989e-06 5.9637437e-06 -1.0287764e-06 8.17862e-06 9.763028e-06 -5.584316e-06
-1.203933e-06 1.0062481e-06 -5.6351337e-06 7.727653e-07 -1.2480193e-06 -2.6027105e-06 2.895081e-06 7.394679e-06
5.162535e-06 -2.9314463e-06 -1.5189446e-06 3.6406236e-06 2.4719293e-06 1.385414e-06 1.0262046e-05 -2.214988e-06
1.0856311e-05 -1.067343e-05 -3.2419223e-06 3.7990567e-06 -2.9197486e-07 -3.866674e-06 -8.356289e-06 -4.4435114e-07
7.969634e-06 -2.025994e-06 -1.3184888e-06 -1.2356895e-06 -6.014664e-06 2.3732932e-06 1.1253475e-05 -7.322338e-06
-9.0512385e-06 -1.8252284e-06 4.5578954e-06 7.1920213e-06 1.125793e-05 6.6228313e-06 4.6505675e-06 1.6920828e-06
1.072482e-05 -3.2972225e-06 7.878849e-06 -4.7238645e-06 8.364299e-06 2.9264993e-07 -1.6202754e-06 5.3616077e-08
3.7466073e-06 1.4385333e-06 3.6641716e-06 2.4140295e-06 7.3264328e-06 -5.578897e-06 1.0095781e-05 -3.021969e-06
2.8684406e-06 -1.6077229e-06 5.0414055e-06 3.009311e-06 -5.0752465e-06 7.8890625e-06 8.3239183e-07 8.539631e-06
-7.1361123e-06 -2.1108533e-06 -1.4655459e-06 -1.7092648e-06 1.0522118e-06 -9.081616e-06 1.2075976e-06 4.6483592e-07
-2.846181e-06 2.3064943e-06 -6.456048e-09 6.042552e-07 -6.672998e-06 1.8002365e-06 1.9063757e-06 4.175582e-06
-7.4938926e-06 -8.2016606e-07 2.591893e-06 -7.697145e-06 2.0600642e-06 6.0224406e-06 -2.5406355e-06 1.01496935e-05
-4.103848e-07 4.97996e-06 -3.6953072e-06 -2.4539731e-06 -9.303672e-06 -8.909934e-07 -8.659208e-07 5.7756442e-06
-1.7539951e-06 8.278815e-06 -4.967288e-06 -9.490193e-07 -9.973296e-06 -2.567689e-06 -2.2494287e-06 1.7269973e-06
8.004295e-06 -1.6322547e-06 -9.629048e-06 -7.980907e-08 -3.1760064e-06 6.152908e-06 4.7374065e-06 -6.706128e-07
-2.948535e-06 -3.4881823e-06 -4.077876e-06 4.895861e-06 -2.46445e-06 -6.471875e-06 3.2941425e-06 9.971567e-06
00000000: f046 16b5 7c9b feb6 f032 5b35 4e3a 5636
00000010: bcca 58b6 481f 20b6 cc4c 8136 828d b535
00000020: 13b2 10b7 850a a1b6 fca5 37b5 f643 c236
00000030: c208 15b5 653d 3637 0894 11b7 f1de 82b6
00000040: 597a ba36 6c1a 23b7 8c2e ce36 32fa 7ab6
00000050: 2e36 f5b6 feb8 9fb6 ea04 e8b5 0127 6d36
00000060: cff0 1f36 f94e 3237 2a56 da35 caec 6436
00000070: 58ee 87b5 a41a e835 ad72 0bb7 7006 2536
00000080: 946d 85b5 ea32 a4b5 8b3c a535 a235 1736
00000090: 49c0 b836 12db 3eb5 d70f 4eb6 7552 8635
000000a0: aafa ff36 36b6 19b7 d206 bab5 1275 1ab5
000000b0: d075 c2b6 e0f5 afb4 eb3a fab6 80bd 8d36
000000c0: 6864 cd36 02d1 70b6 eb87 6136 ab52 05b7
000000d0: 1cfb b5b4 6801 1bb5 97c5 3036 b6cc 2a37
000000e0: 82e2 b7b6 e6ed 0135 6515 05b6 08a6 d2b6
000000f0: 7e9d deb6 18b2 aa36 fe88 dfb6 a8de ec36
00000100: 901f 3334 d27e 8d36 f4dd d5b5 aa0c cd35
00000110: dc4e 20b7 ca22 0837 0cf6 0c37 2edd f6b6
00000120: 6768 99b6 81e4 ac36 c966 80b6 e038 0bb4
00000130: 4f0d 39b6 902f cc33 7ad9 92b5 4747 99b6
00000140: 1a86 2e37 7071 5fb6 4ee3 b6b5 c0cd 2536
00000150: 87fb c336 389c c835 9af7 2836 7ca3 3937
00000160: 6cfa da35 625f 9736 e335 fab6 eff7 05b7
00000170: e9b4 6f35 bcb6 6736 684b c4b5 e5e7 6fb5
00000180: b905 2c35 0f1c a1b5 94aa 07b7 985d c2b4
00000190: 52ea 28b7 76c7 19b5 5d1f 3ab6 88a5 d736
000001a0: e0ac be34 ee39 0ab7 e6a9 49b6 44b6 9435
000001b0: 59f9 1537 5cbe 0bb7 3032 b235 6df0 2c37
000001c0: 28c0 c735 dd40 8db6 88ae 28b6 e0c8 0737
000001d0: 8f38 a5b6 be9b 0db6 948b 3c37 0ec4 f6b6
000001e0: 06ca 04b5 5797 b8b5 b48b 2fb6 0e8d 7636
000001f0: 7edf b7b5 521c d1b6 971e d2b6 f226 b236
00000200: a46f bbb6 2c28 59b6 36ab c5b6 2b1c c836
00000210: 7d14 8ab5 e836 0937 e3cb 2337 e960 bbb6
00000220: d396 a1b5 6c0e 8735 6e15 bdb6 0770 4f35
00000230: 9e81 a7b5 3aaa 2eb6 1d49 4236 cf1f f836
00000240: d739 ad36 ddb9 44b6 8ade cbb5 7051 7436
00000250: 6ce3 2536 76f2 b935 272b 2c37 34a5 14b6
00000260: 8023 3637 0812 33b7 cd8f 59b6 4cf3 7e36
00000270: b8c0 9cb4 7abe 81b6 fd31 0cb7 288f eeb4
00000280: 51b5 0537 50f6 07b6 eef6 b0b5 f8d9 a5b5
00000290: 92d1 c9b6 de44 1f36 4fcd 3c37 68b2 f5b6
000002a0: c6da 17b7 5ffa f4b5 06f0 9836 fe52 f136
000002b0: 71e0 3c37 b039 de36 120c 9c36 861b e335
000002c0: c0ee 3337 da45 5db6 662f 0437 b081 9eb6
000002d0: 6454 0c37 801d 9d34 3d78 d9b5 8047 6633
000002e0: 396e 7b36 a113 c135 fde5 7536 b600 2236
000002f0: 94d5 f536 5c32 bbb6 0d61 2937 08cd 4ab6
00000300: 6f7f 4036 f0c8 d7b5 5829 a936 92f3 4936
00000310: 094c aab6 445b 0437 8871 5f35 7045 0f37
00000320: bd72 efb6 2fa8 0db6 c6b3 c4b5 e469 e5b5
00000330: b939 8d35 3e5d 18b7 bd14 a235 908e f934
00000340: 0401 3fb6 45c9 1a36 00d4 ddb1 1a34 2235
00000350: 9ee8 dfb6 a89f f135 92de ff35 fa1b 8c36
00000360: 0c74 fbb6 6229 5cb5 62f0 2d36 fc22 01b7
00000370: a23f 0a36 5f14 ca36 c97f 2ab6 9a48 2a37
00000380: dc52 dcb4 8819 a736 e5fc 77b6 f0ae 24b6
00000390: f816 1cb7 9a2c 6fb5 a071 68b5 68cc c136
000003a0: d06a ebb5 3de5 0a37 aeac a6b6 1cc0 7eb5
000003b0: fb52 27b7 9050 2cb6 e4f4 16b6 2dcb e735
000003c0: 2f4a 0637 d813 dbb5 728c 21b7 8063 abb3
000003d0: 6023 55b6 1475 ce36 03f6 9e36 2904 34b5
000003e0: 72df 45b6 8416 6ab6 b0d4 88b6 2047 a436
000003f0: ee62 25b6 fc28 d9b6 f010 5d36 8e4b 2737

gc3.bias f4 [256]
1.041677e-05 8.323534e-06 -2.043878e-06 8.698612e-07 2.5006716e-06 -3.1863226e-06 -2.6929047e-06 9.4021584e-07
8.214738e-06 -3.3797842e-06 2.8776055e-06 -1.5281685e-06 2.0198213e-06 4.3727327e-06 4.065838e-06 4.3099762e-06
5.3189597e-06 -3.975798e-06 -1.139908e-06 4.1647468e-07 -8.2503834e-07 8.175356e-06 -3.643235e-06 8.1492203e-07
-8.388247e-07 -1.0137773e-05 1.0177579e-05 -7.465705e-06 -3.8268877e-06 2.7692806e-06 -1.0536253e-05 1.1675456e-06
4.2827412e-07 -6.344089e-08 -5.3259123e-07 -1.502342e-06 9.94603e-06 -2.6909236e-06 -1.4226107e-06 -2.0520697e-06
3.2909343e-06 -3.6786696e-06 1.7374864e-06 2.2056233e-06 6.5667664e-06 1.1038578e-06 8.323622e-06 1.0431813e-06
1.0128334e-05 -9.714327e-06 -3.5033736e-09 1.8673434e-06 -6.6483835e-06 -8.8578133e-07 3.3168135e-08 -2.4689107e-06
4.301849e-06 4.7338126e-06 4.7454496e-06 2.6315356e-06 -7.3105816e-06 -1.1973132e-06 -1.0874839e-05 1.8057042e-06
8.782572e-07 3.6029355e-06 -1.7625989e-06 -2.393691e-06 -2.893065e-06 5.361122e-06 7.384999e-06 -8.217057e-06
-9.560455e-06 -5.468662e-06 -3.8634994e-08 -1.1041444e-06 -1.3597692e-06 8.137876e-06 -2.315012e-06 -4.3305804e-06
-1.4481408e-06 4.418898e-06 -8.201666e-06 5.4159063e-06 2.7987653e-06 3.3227561e-06 1.1604567e-06 5.6240024e-06
1.103743e-05 -7.159782e-07 1.8694534e-06 8.537063e-08 7.419554e-06 3.2303199e-06 1.6509548e-06 3.778408e-06
1.332332e-06 4.5008446e-06 1.0808516e-06 -2.190778e-06 2.9362209e-06 -6.461678e-07 1.4340735e-06 -5.8068135e-06
-8.475169e-06 -5.38624e-06 -1.7625598e-06 2.1558617e-07 2.193724e-06 -1.4363527e-06 3.1087661e-06 -2.8365798e-06
-8.843535e-06 2.0286302e-07 9.519596e-07 -7.2033577e-06 -5.957013e-07 7.1983145e-06 4.192754e-06 -7.2165585e-06
-7.141512e-06 -8.5230204e-07 5.3472263e-06 -5.039692e-06 5.5756873e-06 1.0395431e-06 -2.3788011e-06 -5.426218e-07
-7.852118e-06 5.77899e-06 -3.1597249e-06 -1.4201312e-06 -1.5264916e-06 -2.1505969e-06 -1.4191705e-06 3.7093675e-06
9.134095e-06 7.166025e-07 -3.6260367e-06 -4.230191e-06 2.2721615e-06 7.3034016e-08 -1.0783816e-05 -1.1781665e-06
-2.4936483e-06 5.1818265e-06 1.9746926e-06 -3.345324e-07 1.9175638e-06 -4.5495244e-07 -2.7824467e-07 4.9933724e-06
3.1583966e-06 3.8070577e-06 -6.2731857e-07 -1.1283224e-05 6.139846e-06 -5.4950797e-06 1.3700417e-06 -4.914225e-06
-7.81808e-06 -9.979712e-06 -5.7430207e-06 -1.6893096e-06 2.087686e-07 -4.4042868e-06 1.977727e-06 -4.6677433e-06
3.132041e-06 -1.3129275e-06 1.5640162e-06 4.3587847e-06 -4.8640095e-06 -1.1910834e-06 -2.8174263e-06 -1.3745635e-06
-6.443212e-07 3.834623e-06 -2.9101645e-06 8.662169e-06 -6.1744854e-06 -8.5828117e-07 -2.5055476e-07 -6.0074694e-07
-6.166037e-06 9.058822e-06 -5.5100136e-06 3.9558836e-07 6.809387e-07 4.952624e-07 2.6151483e-06 3.0143508e-07
1.05774006e-07 -1.0556429e-05 -7.4768705e-06 7.855151e-06 -9.672084e-06 -2.4630765e-07 1.6399961e-06 -3.621934e-06
5.611141e-06 2.529732e-06 5.039891e-07 1.0168987e-05 -4.2368406e-06 -3.3044996e-06 6.565523e-06 -8.341246e-06
-4.4699386e-06 -6.7245237e-06 8.612511e-06 -2.5343115e-06 -3.2293644e-06 4.24461e-06 6.530724e-06 8.3979585e-06
7.120129e-06 -8.205113e-06 -4.5711827e-06 5.343656e-06 -2.5731651e-08 4.5267775e-06 -8.202935e-06 -1.5919991e-06
-1.7406137e-06 -5.9334866e-07 -9.959173e-06 3.0979663e-07 1.7061409e-06 1.9536576e-06 7.4032205e-06 1.1261763e-05
-1.0602237e-05 -1.4927475e-06 1.0363462e-05 -4.4159697e-06 -2.503076e-07 -1.0805211e-06 -1.0280212e-06 -3.833803e-06
-3.0526087e-06 -5.8542473e-06 4.292054e-06 -1.2205362e-06 -1.364222e-06 -1.1219263e-05 2.9432217e-06 7.877626e-07
5.41128e-07 6.755474e-06 5.9271115e-06 -1.7673631e-06 3.45029e-06 -2.243852e-06 -4.908514e-06 4.492871e-06
00000000: b0c3 2e37 4ea5 0b37 8f29 09b6 6880 6935
00000010: 36d1 2736 9bd4 55b6 c0b7 34b6 2463 7c35
00000020: 08d2 0937 40d0 62b6 e31c 4136 781b cdb5
00000030: 448c 0736 7db9 9236 486d 8836 6a9e 9036
00000040: 8479 b236 d867 85b6 f1fe 98b5 d897 df34
00000050: 3478 5db5 e328 0937 4d7e 74b6 04c1 5a35
00000060: 982b 61b5 6715 2ab7 5ec0 2a37 eb81 fab6
00000070: b768 80b6 e1d7 3936 ddc4 30b7 90b4 9c35
00000080: 8ced e534 003d 88b3 64f7 0eb5 14a4 c9b5
00000090: e0dd 2637 b795 34b6 88f0 beb5 4ab6 09b6
000000a0: d2d9 5c36 10df 76b6 9433 e935 5204 1436
000000b0: 1858 dc36 4428 9435 afa5 0b37 7003 8c35
000000c0: ddec 2937 b7fa 22b7 00c0 70b1 6ea1 fa35
000000d0: 2e15 dfb6 6ec6 6db5 c074 0e33 90af 25b6
000000e0: 9a58 9036 24d7 9e36 1a3b 9f36 7099 3036
000000f0: 6b4d f5b6 5eb3 a0b5 1473 36b7 865b f235
00000100: 60c1 6b35 f6c9 7136 7092 ecb5 4ca3 20b6
00000110: 7a26 42b6 b0e3 b336 a9cc f736 fedb 09b7
00000120: d765 20b7 737f b7b6 a0ef 25b3 1d32 94b5
00000130: 5081 b6b5 e987 0837 9a5b 1bb6 674f 91b6
00000140: bd5d c2b5 0b46 9436 e399 09b7 48ba b536
00000150: 6cd2 3b36 84fc 5e36 fdc0 9b35 d0b5 bc36
00000160: 672d 3937 a631 40b5 eee9 fa35 0055 b733
00000170: 7cf5 f836 79c8 5836 6096 dd35 8e90 7d36
00000180: 94d2 b235 f605 9736 c711 9135 4805 13b6
00000190: e40b 4536 5074 2db5 647a c035 26d8 c2b6
000001a0: 9330 0eb7 73bb b4b6 1891 ecb5 e07b 6734
000001b0: e437 1336 b4c8 c0b5 32a0 5036 125c 3eb6
000001c0: b25e 14b7 90d2 5934 2a8a 7f35 5fb4 f1b6
000001d0: 48e8 1fb5 0d89 f136 7caf 8c36 c425 f2b6
000001e0: 1fa1 efb6 c0c9 64b5 536c b336 a01a a9b6
000001f0: ca16 bb36 6e86 8b35 7ea3 1fb6 b0a8 11b5
00000200: 97bc 03b7 25e9 c136 a90b 54b6 569b beb5
00000210: dae1 ccb5 f952 10b6 547a beb5 73ee 7836
00000220: a43e 1937 8c5c 4035 d656 73b6 10f1 8db6
00000230: 707b 1836 e0d6 9c33 23ec 34b7 7e21 9eb5
00000240: 8d58 27b6 8ddf ad36 f684 0436 c899 b3b4
00000250: 7faf 0036 3040 f4b4 a861 95b4 be8c a736
00000260: d7f4 5336 c17c 7f36 0165 28b5 144d 3db7
00000270: e004 ce36 6062 b8b6 46e2 b735 dfe4 a4b6
00000280: 662a 03b7 896e 27b7 2cb4 c0b6 3cbc e2b5
00000290: e029 6034 89c8 93b6 17b9 0436 9c9f 9cb6
000002a0: 0e30 5236 d837 b0b5 30eb d135 ad41 9236
000002b0: 8635 a3b6 50dd 9fb5 0413 3db6 a47d b8b5
000002c0: 6af5 2cb5 29ab 8036 3f4c 43b6 bc53 1137
000002d0: 6d2e cfb6 a264 66b5 fc83 86b4 0443 21b5
000002e0: dbe5 ceb6 58fb 1737 a8e2 b8b6 4061 d434
000002f0: c0c9 3635 2cf2 0435 e87f 2f36 ecd4 a134
00000300: e025 e333 841b 31b7 d4e1 fab6 9ec9 0337
00000310: 4945 22b7 443c 84b4 d61d dc35 5a10 73b6
00000320: 5647 bc36 77c4 2936 de49 0735 779b 2a37
00000330: 2f2a 8eb6 dfc2 5db6 6a4d dc36 61f1 0bb7
00000340: 7bfc 95b6 38a3 e1b6 747e 1037 2413 2ab6
00000350: 0fb8 58b6 ec6c 8e36 7e22 db36 f5e4 0c37
00000360: 71e9 ee36 b1a8 09b7 2962 99b6 a84d b336
00000370: 8008 ddb2 b9e4 9736 569f 09b7 acac d5b5
00000380: 089f e9b5 9c46 1fb5 5316 27b7 2052 a634
00000390: 8efe e435 951b 0336 2e69 f836 e7f0 3c37
000003a0: 43e0 31b7 6a5a c8b5 bbde 2d37 e42c 94b6
000003b0: 0462 86b4 6c06 91b5 8afa 89b5 1ea4 80b6
000003c0: 6bdb 4cb6 9a6f c4b6 7704 9036 4ed1 a3b5
000003d0: 501a b7b5 5e3a 3cb7 2a84 4536 a276 5335
000003e0: 0842 1135 14ad e236 80e1 c636 2236 edb5
000003f0: 888b 6736 1595 16b6 d0b3 a4b6 78c1 9636

gc4.weight f4 [256, 256]
-6.7590395e-07 6.793317e-06 -1.0840078e-05 1.097128e-07 1.2676771e-06 1.6016684e-06 -4.9682376e-07 3.7575455e-06
-7.5652465e-06 7.694794e-06 1.9605295e-06 -1.0329197e-06 1.7754928e-06 -1.4157999e-06 -3.83362e-06 -2.5074828e-06
-3.6272672e-06 5.029673e-06 2.2554977e-06 1.7014371e-06 -1.4313034e-06 1.0223481e-06 -8.1166745e-06 -8.5783495e-07
-3.8596772e-06 -1.5134844e-07 3.117953e-06 1.6104378e-06 1.1346465e-06 -1.0344321e-05 -8.105633e-07 -4.3577925e-06
-3.062651e-06 3.56305e-07 4.543579e-06 1.5893193e-08 5.6273393e-06 9.853107e-06 3.4250534e-06 -8.289185e-07
8.03521e-06 -7.751027e-06 5.889953e-06 9.383897e-07 -8.4863814e-08 8.156759e-06 8.169916e-06 1.0852857e-05
-1.4040767e-06 -1.813954e-06 5.320579e-07 -8.430504e-06 1.0939635e-06 -4.4812496e-06 3.6840622e-06 -1.848446e-06
-3.0956667e-06 1.8578138e-06 -5.818465e-07 3.0080262e-06 -9.465226e-07 2.2976226e-06 -2.4583528e-07 -4.95122e-06
-9.378588e-07 1.4071371e-06 -5.7445607e-07 -2.3978387e-06 -1.5882667e-06 -2.9415455e-06 6.0695556e-06 -1.5023182e-06
-3.2161486e-06 -1.7492964e-06 7.3370875e-06 8.3462555e-06 -4.535114e-06 3.1326617e-06 1.0582254e-06 4.359991e-06
-3.7279765e-06 -1.0811286e-05 -1.7248033e-06 -4.6231798e-07 5.5442642e-06 9.3145894e-07 4.9539913e-06 7.4559775e-06
-5.657036e-06 9.227417e-07 3.4028526e-06 2.623489e-06 -2.6170705e-06 -9.5185715e-07 -1.8308309e-06 8.597441e-06
6.02083e-07 1.0456068e-05 1.7321009e-06 -6.0551047e-06 -1.734311e-06 -2.3167386e-06 7.1154886e-07 2.7722772e-06
2.8461773e-07 -1.2161781e-06 -6.7662095e-06 -1.6158384e-06 -7.2446096e-06 1.1910231e-06 -1.173778e-06 -2.543079e-06
-1.0716482e-05 1.852839e-06 3.1643797e-06 1.7809111e-06 -1.4599034e-06 2.2141398e-06 -3.1471632e-07 -8.732669e-06
4.8687625e-06 7.664846e-07 2.1797041e-07 -1.1045843e-06 4.7861195e-06 3.1094046e-06 1.0215233e-06 -1.2795289e-06
1.5758371e-06 -3.3041174e-06 -6.8330874e-06 1.7600813e-06 -8.282774e-07 -1.0225538e-05 -2.0871878e-06 -2.7909336e-06
-4.7712683e-06 7.703449e-06 6.274015e-07 6.596947e-06 9.678261e-06 -3.8250737e-06 -8.2156726e-07 -2.572543e-06
1.1807733e-06 -6.1214678e-09 -7.5982314e-07 2.6455973e-06 1.4128661e-06 8.193622e-06 5.086089e-06 -5.1650154e-06
2.48683e-06 1.008276e-06 4.243353e-06 -2.9360122e-06 2.1344636e-07 -1.7130924e-07 3.415525e-06 -1.0566288e-06
1.3425819e-06 -5.297668e-06 -3.6861127e-06 -2.8994693e-06 3.571136e-06 1.073561e-05 -5.762215e-07 2.2525678e-06
7.900993e-06 4.371475e-07 -1.2662049e-06 -3.0191522e-06 -2.1049427e-06 -8.23977e-06 5.0808103e-06 -1.1194645e-05
-7.020208e-08 -7.996883e-06 3.4463753e-06 1.3348034e-06 -3.992988e-06 4.757443e-06 -1.0850294e-05 1.0857713e-05
7.277326e-06 1.054744e-05 -5.549895e-06 2.6176428e-06 -7.2826974e-06 4.2228667e-06 8.2723943e-07 8.7405977e-07
6.369703e-08 8.374756e-06 -1.0017565e-05 3.1884838e-06 5.327047e-08 1.1861812e-07 -1.0515314e-05 -2.453229e-06
6.6773237e-07 -4.271597e-06 -7.5497155e-07 -8.3041226e-07 8.244723e-06 -4.3476894e-06 9.2797745e-07 1.0523617e-05
-2.548933e-06 1.0125311e-05 2.61574e-06 2.3951018e-06 -6.3516145e-06 -6.319915e-07 1.1400236e-06 -8.730836e-06
-1.0825635e-05 -1.0633053e-06 -3.5345965e-07 -3.858419e-06 4.410123e-06 3.7449022e-06 8.6798e-06 -6.6927455e-06
-2.4519559e-06 -4.287369e-06 -3.7950106e-06 -1.5093135e-06 7.988001e-06 -1.3263407e-06 3.2525593e-06 5.240915e-06
8.9398236e-07 1.08251825e-05 4.49407e-06 -6.2649256e-06 -1.2641458e-06 -7.9536185e-06 -7.279541e-06 -6.4833677e-07
8.312149e-06 1.6114739e-06 2.6518398e-06 -2.2825386e-06 -3.007784e-06 1.0124183e-05 -1.6721873e-06 -1.01803125e-05
-8.836843e-06 -2.0166408e-07 4.66662e-06 -2.2897052e-06 -9.830683e-08 -5.0278204e-06 -2.3621212e-06 -6.2768377e-06
00000000: c46f 35b5 26f2 e336 c8dd 35b7 409b eb33
00000010: 0e25 aa35 e8f8 d635 785d 05b5 242a 7c36
00000020: f9d8 fdb6 e318 0137 a491 0336 daa2 8ab5
00000030: 784d ee35 8406 beb5 8ca2 80b6 3a46 28b6
00000040: fa6b 73b6 90c4 a836 285d 1736 ef5c e435
00000050: 361b c0b5 9d37 8935 da2c 08b7 f845 66b5
00000060: 6082 81b6 5882 22b4 063e 5136 3926 d835
00000070: 284a 9835 858c 2db7 7c95 59b5 2739 92b6
00000080: f287 4db6 304a bf34 0c75 9836 8085 8832
00000090: 7ad2 bc36 c64e 2537 f8d9 6536 d882 5eb5
000000a0: f7ce 0637 680a 02b7 50a2 c536 a6e5 7b35
000000b0: 603e b6b3 03d9 0837 8611 0937 aa14 3637
000000c0: b573 bcb5 fc76 f3b5 bed2 0e35 bd70 0db7
000000d0: 4dd4 9235 a45d 96b6 b53b 7736 1f18 f8b5
000000e0: 26bf 4fb6 ff59 f935 3030 1cb5 7fdd 4936
000000f0: 8a14 7eb5 db30 1a36 58fb 83b4 a822 a6b6
00000100: 2ac1 7bb5 dddc bc35 5234 1ab5 8eea 20b6
00000110: 6e2c d5b5 5e67 45b6 16a9 cb36 43a3 c9b5
00000120: 03d5 57b6 5ec9 eab5 1a31 f636 e506 0c37
00000130: 552c 98b6 b83a 5236 5908 8e35 0a4c 9236
00000140: 262e 7ab6 1f62 35b7 ca7f e7b5 8034 f8b4
00000150: de08 ba36 5f09 7a35 763a a636 5c2e fa36
00000160: 92d1 bdb6 54b2 7735 905c 6436 330f 3036
00000170: eea0 2fb6 2083 7fb5 dfba f5b5 ba3d 1037
00000180: d49e 2135 786c 2f37 897a e835 f42c cbb6
00000190: 79c6 e8b5 4479 1bb6 4401 3f35 5c0b 3a36
000001a0: 90cd 9834 903b a3b5 4c09 e3b6 c9df d8b5
000001b0: b916 f3b6 3edb 9f35 b48a 9db5 c4a9 2ab6
000001c0: f1ca 33b7 10af f835 a15b 5436 a407 ef35
000001d0: e6f1 c3b5 a296 1436 48f6 a8b4 8782 12b7
000001e0: 5a5e a336 6cc0 4d35 400b 6a34 3a41 94b5
000001f0: 7498 a036 2aab 5036 461b 8935 47bc abb5
00000200: 5a81 d335 4ebc 5db6 c647 e5b6 ef3b ec35
00000210: ca56 5eb5 5a8e 2bb7 9d11 0cb6 e04b 3bb6
00000220: e218 a0b6 103e 0137 b46a 2835 585b dd36
00000230: d15f 2237 2259 80b6 ac89 5cb5 f4a3 2cb6
00000240: 107b 9e35 0055 d2b1 a6f6 4bb5 048b 3136
00000250: b6a1 bd35 5777 0937 2ca9 aa36 254f adb6
00000260: 6ae3 2636 1954 8735 2062 8e36 4e08 45b6
00000270: b02f 6534 20f1 37b4 4636 6536 7dd1 8db5
00000280: c332 b435 9fc2 b1b6 ef5e 77b6 8194 42b6
00000290: a6a7 6f36 181d 3437 a4ad 1ab5 d22a 1736
000002a0: 828e 0437 18b1 ea34 78f2 a9b5 a49c 4ab6
000002b0: a442 0db6 8b3d 0ab7 d47b aa36 a2d0 3bb7
000002c0: 00c2 96b3 5a2a 06b7 4748 6736 7f27 b335
000002d0: 81fb 85b6 20a2 9f36 a809 36b7 8629 3637
000002e0: c12f f436 e9f4 3037 3c39 bab6 c3aa 2f36
000002f0: e55d f4b6 26b2 8d36 760f 5e35 eea0 6a35
00000300: d0c9 8833 4e81 0c37 1d11 28b7 bcf9 5536
00000310: 80cb 6433 00bb fe33 ee6a 30b7 27a2 24b6
00000320: 383e 3335 bd54 8fb6 40a9 4ab5 7fe9 5eb5
00000330: d152 0a37 5ee2 91b6 201a 7935 978e 3037
00000340: 560e 2bb6 e1df 2937 128a 2f36 89bb 2036
00000350: f41f d5b6 20a6 29b5 ea02 9935 a87a 12b7
00000360: c09f 35b7 e4b6 8eb5 20c3 bdb4 9177 81b6
00000370: abfa 9336 ee50 7b36 759f 1137 3f92 e0b6
00000380: 488c 24b6 38dc 8fb6 c9ad 7eb6 9e93 cab5
00000390: 3404 0637 b804 b2b5 8b46 5a36 1edb af36
000003a0: 00fa 6f35 ce9d 3537 c4cb 9636 4d37 d2b6
000003b0: b8ab a9b5 8870 05b7 c842 f4b6 5d09 2eb5
000003c0: 6874 0b37 d249 d835 43f6 3136 b72d 19b6
000003d0: 56d9 49b6 09db 2937 eb6f e0b5 1ccc 2ab7
000003e0: f441 14b7 0089 58b4 f695 9c36 d6a8 19b6
000003f0: c01c d3b3 a6b4 a8b6 ef84 1eb6 a09d d2b6

gc4.bias f4 [256]
6.136842e-06 -6.451337e-07 4.3308648e-07 5.475781e-06 -2.8617674e-06 2.3919165e-07 1.644171e-06 -5.5425226e-06
9.590648e-06 5.109176e-06 -2.0659281e-06 -1.4632724e-07 3.103571e-07 -4.0386412e-06 1.484977e-06 8.183549e-07
8.5202455e-06 5.689916e-06 2.9022353e-06 4.4177978e-06 -7.8748485e-07 -1.0031207e-05 -6.647365e-06 6.203053e-06
-3.91086e-06 1.8094311e-06 1.8966393e-06 -7.470464e-06 2.060987e-06 2.339862e-06 -1.9190898e-06 8.534594e-06
-3.2909904e-06 7.651487e-06 4.110754e-06 1.1424155e-06 -4.183952e-06 -9.281484e-06 -2.4752724e-06 -2.5664922e-06
-5.52609e-06 7.1316904e-06 -8.623779e-07 -1.07424075e-05 8.0213294e-07 -7.0811884e-06 1.3445277e-06 -2.5654879e-06
3.2206767e-06 4.7450626e-06 4.7654485e-06 1.0098559e-06 1.237228e-06 6.0739712e-06 -7.909316e-07 3.8110547e-06
7.282491e-07 7.640191e-06 -2.818306e-06 -5.3248714e-06 4.4048547e-06 5.9837453e-06 -5.5592673e-06 -4.775433e-06
-1.8746186e-07 -7.72856e-06 3.731417e-06 1.0768455e-06 -7.87682e-06 -7.329367e-06 4.20194e-06 1.9943502e-06
3.56563e-06 -5.539101e-06 1.0522201e-05 -4.2395363e-06 -1.2820672e-06 2.6578678e-06 1.9541037e-06 -1.1007667e-06
-4.081843e-06 -4.1353824e-06 6.63106e-06 -8.651022e-06 2.7731232e-07 -8.3027476e-07 9.288916e-06 1.8549667e-06
4.2215415e-06 -3.6342028e-06 -1.5040932e-06 -4.1882563e-06 5.5317573e-06 -8.267995e-06 -1.2605017e-06 -1.3379934e-06
-3.6393903e-06 -1.7229825e-06 -1.3215656e-06 -6.860015e-06 -8.4490625e-07 -2.2547629e-06 -7.4293484e-07 8.310881e-06
-6.278755e-06 7.719696e-06 4.3785576e-06 -1.6592955e-06 -8.179054e-07 3.38674e-07 -5.4839575e-08 4.554961e-06
-2.0295909e-06 7.9255085e-07 8.800452e-06 -1.0253191e-06 -7.47394e-07 -9.756486e-06 1.9042045e-07 4.7666163e-08
1.9576398e-06 -8.982394e-06 4.632932e-06 1.7319428e-07 3.1966733e-06 -9.839844e-06 -1.7646164e-06 4.105424e-06
-6.4939206e-07 -3.8520293e-06 6.1745836e-06 -1.9316371e-06 1.9822946e-06 2.9938765e-06 9.278108e-07 -5.490808e-07
6.489515e-07 -1.5493653e-06 -9.3031224e-07 4.097429e-06 -3.3106203e-06 2.7473939e-06 5.940676e-06 -8.7519375e-06
5.212687e-07 1.0201844e-05 -3.9067236e-06 -1.3448412e-06 -2.4999395e-07 4.758987e-06 7.860124e-06 5.793423e-06
-2.512938e-06 -2.296941e-06 8.895068e-06 5.4191446e-07 3.22289e-07 5.9343092e-06 -4.0116684e-06 -1.600556e-07
2.868596e-06 5.4795682e-06 -1.6636328e-06 5.4966245e-07 -4.93994e-06 5.6515246e-06 9.740743e-06 1.111104e-06
5.436382e-07 -7.0465608e-06 -5.1789966e-06 2.7641815e-06 4.3636655e-06 9.8725095e-06 2.1523404e-06 -9.795316e-06
-7.3196434e-06 5.4583916e-06 4.418796e-06 6.5746267e-06 -9.823616e-06 -1.7541506e-06 -1.8224698e-06 -7.196908e-06
3.945085e-06 -5.5089004e-07 4.282333e-08 -2.9452588e-07 2.6229377e-06 1.920064e-06 2.1457338e-06 3.0007604e-06
-3.5282535e-06 -4.605364e-07 2.4962796e-06 2.2357012e-06 -1.0666653e-06 1.9344704e-06 -1.8423725e-07 -7.5681396e-07
1.1125632e-05 1.7576257e-06 -1.75383e-06 -8.2261977e-07 3.3153024e-06 -7.164299e-07 -1.2567826e-06 -5.853658e-06
4.538448e-06 9.864263e-06 4.874953e-07 -5.5401956e-06 3.8095664e-07 -4.8196657e-06 -2.2622405e-06 -2.5741224e-06
-4.6457626e-07 3.006555e-06 -1.6617892e-06 4.5064317e-06 -1.0011506e-06 2.204892e-06 4.62795e-06 3.602305e-06
4.2646934e-06 -3.569421e-07 2.3584998e-06 -2.2526563e-06 4.4915582e-06 -1.2739615e-06 -1.7001106e-06 9.915104e-06
1.2011253e-07 -6.162034e-06 -2.12912e-06 2.2020226e-06 8.086534e-06 1.5756345e-06 5.862105e-07 -9.698904e-07
-1.4660355e-06 3.621317e-07 -6.432053e-06 -3.685299e-06 4.931171e-06 3.1685763e-06 -8.756477e-07 1.7307597e-06
-3.2043406e-06 1.7241377e-06 -1.0968233e-05 -1.08665345e-05 8.555604e-06 -6.840527e-06 5.554606e-06 -3.4670568e-06
00000000: 12eb cd36 402d 2db5 f482 e834 9abc b736
00000010: ca0c 40b6 406a 8034 49ad dc35 e8f9 b9b6
00000020: 85e7 2037 7d6f ab36 60a4 0ab6 201e 1db4
00000030: 289f a634 aa83 87b6 6c4f c735 ecac 5b35
00000040: 2df2 0e37 02ec be36 06c4 4236 983c 9436
00000050: 8c63 53b5 b54b 28b7 6e0c dfb6 d223 d036
00000060: 083a 83b6 94db f235 0890 fe35 ccaa fab6
00000070: 7d4f 0a36 8606 1d36 b6c9 00b6 cd2f 0f37
00000080: c9da 5cb6 e35e 0037 1cef 8936 1955 9935
00000090: e063 8cb6 acb7 1bb7 db1c 26b6 003c 2cb6
000000a0: c06c b9b6 c14c ef36 287e 67b5 4a3a 34b7
000000b0: 2852 5735 f29a edb6 9f75 b435 bf2a 2cb6
000000c0: ce22 5836 c737 9f36 e4e6 9f36 628a 8735
000000d0: d50e a635 04cf cb36 6850 54b5 6cc1 7f36
000000e0: e67c 4335 5f2e 0037 2122 3db6 4cac b2b6
000000f0: 6acd 9336 fbc7 c836 be89 bab6 a83c a0b6
00000100: 2049 49b4 eaa9 01b7 4269 7a36 2188 9035
00000110: af26 04b7 c8ee f5b6 64fe 8c36 add6 0536
00000120: 0f49 6f36 84dc b9b6 8288 3037 5741 8eb6
00000130: 7e13 acb5 d25d 3236 3f23 0336 0ebe 93b5
00000140: c4f6 88b6 aac2 8ab6 5f80 de36 db23 11b7
00000150: 84e1 9434 0ce0 5eb5 97d7 1b37 2cf8 f835
00000160: c4a6 8d36 21e3 73b6 40e0 c9b5 d988 8cb6
00000170: 6f9d b936 c5b6 0ab7 822e a9b5 1a95 b3b5
00000180: 403c 74b6 3a41 e7b5 a660 b1b5 152f e6b6
00000190: 84cd 62b5 8850 17b6 186e 47b5 f66e 0b37
000001a0: 18ae d2b6 d883 0137 86eb 9236 f6b4 deb5
000001b0: 088e 5bb5 00d3 b534 c088 6bb3 d1d6 9836
000001c0: 1b34 08b6 aebf 5435 a7a5 1337 b29d 89b5
000001d0: 86a0 48b5 caaf 23b7 6076 4c34 80b9 4c33
000001e0: ff5f 0336 17b3 16b7 9574 9b36 48f7 3934
000001f0: 6e86 5636 cf15 25b7 c2d7 ecb5 53c1 8936
00000200: e251 2eb5 ae40 81b6 452f cf36 46a1 01b6
00000210: 9007 0536 68ea 4836 ac0e 7935 8c64 13b5
00000220: 9c33 2e35 c9f3 cfb5 92ba 79b5 a67c 8936
00000230: 062c 5eb6 de5f 3836 0556 c736 49d5 12b7
00000240: 50ed 0b35 9628 2b37 8016 83b6 6480 b4b5
00000250: e836 86b4 63af 9f36 fade 0337 2065 c236
00000260: f2a3 28b6 2525 1ab6 073c 1537 1478 1135
00000270: 1007 ad34 541f c736 f89b 86b6 c0db 2bb4
00000280: 1b82 4036 22dd b736 fd49 dfb5 848c 1335
00000290: c3c1 a5b6 3aa2 bd36 2c6c 2337 3e21 9535
000002a0: 88ee 1135 7f71 ecb6 3ec7 adb6 4780 3936
000002b0: 9a6b 9236 1ba2 2537 ed70 1036 9056 24b7
000002c0: 429b f5b6 3a27 b736 2b45 9436 9d9b dc36
000002d0: 1cd0 24b7 2870 ebb5 969b f4b5 f87c f1b6
000002e0: 0660 8436 e0e0 13b5 c0ec 3733 541f 9eb4
000002f0: ba05 3036 73da 0036 6dff 0f36 ac60 4936
00000300: efc6 6cb6 a43f f7b4 c285 2736 0e09 1636
00000310: 572a 8fb5 f3d1 0136 c0d2 45b4 dc27 4bb5
00000320: 3aa8 3a37 8fe7 eb35 2465 ebb5 00d2 5cb5
00000330: 767c 5e36 b050 40b5 b9ae a8b5 8a6a c4b6
00000340: f948 9836 b07e 2537 6cdc 0235 ebe5 b9b6
00000350: 4886 cc34 9db8 a1b6 ffd0 17b6 16bf 2cb6
00000360: e06a f9b4 39c4 4936 a40a dfb5 f435 9736
00000370: 465f 86b5 c2f7 1336 ca49 9b36 21bf 7136
00000380: 7019 8f36 c0a1 bfb4 b846 1e36 572c 17b6
00000390: 31b6 9636 fcfc aab5 5b2f e4b5 0c59 2637
000003a0: 48f8 0034 78c3 ceb6 01e2 0eb6 76c6 1336
000003b0: 66ab 0737 647a d335 145c 1d35 2e2d 82b5
000003c0: 99c4 c4b5 006b c234 ead2 d7b6 f450 77b6
000003d0: 7076 a536 baa3 5436 0d0e 6bb5 734c e835
000003e0: 270a 57b6 ec68 e735 3404 38b7 694f 36b7
000003f0: 0a8a 0f37 ae87 e5b6 b461 ba36 95ab 68b6
