saved1_works.model (torch, 960039 bytes, 12 tensors)

gc1.weight f4 [3, 64]
00000000: ac77 ca3d 2477 d63d 77a9 49bd 4fe1 dd3d
00000010: 6edd 70b6 1685 1c3c 843f 84bd 43f9 9c3d
00000020: 47f7 de3d 620c 42bb 5c32 e33d 84b8 f93b
00000030: b6a4 c53d 54c8 56b6 2c32 873d 7126 6435
00000040: 4cb5 c53d cbe5 143c 14a9 66bd 1947 183d
00000050: 7c59 2e38 86ea b6b5 ea2a 80bd 6853 b33d
00000060: 9b26 a1bb 1077 4cbd 65a3 0bbd 5ce1 adb9
00000070: 4cb6 7e3c 4ec9 fbbd 5ce1 d23d ea26 f8bb
00000080: 5117 be3d 0124 c83c eaa6 28bd d03b a63d
00000090: 043f 9e36 d579 d13d 7a0c 4b36 a117 57bd
000000a0: b301 193d 2846 f7bc 49b7 603d be6e e53d
000000b0: d861 923d 4832 3537 08c0 7d3d 8972 4eb6
000000c0: c157 893d eb53 dab9 0dc6 80bc a138 cab7
000000d0: 9678 85bb 7ab9 2a3d 740e 38b7 5907 053d
000000e0: 4cdb 1a3d ccdb 7fbb 4400 933d b79b 16bb
000000f0: 161d ca35 3e80 d3ba 6fa7 0cbc 2c8e d2b6
00000100: fd13 453d 4e40 94bc affb ad3d 9a87 a7bd
00000110: 62de 95b9 1d44 98bd 458e ec3d f0ac 533d
00000120: 65d6 f93d 9ffb d2bb e2c4 f5bd 6eb8 c8bd
00000130: ed99 a7bd 3729 9f37 6e72 463d 4268 db3b
00000140: 7b60 82bd f710 a2bd 5f91 953d 39de 24bd
00000150: e4db cb39 73d3 0eb7 6114 943d abb8 b6bd
00000160: 5613 a038 ab10 a43c f3c1 083d e944 9ab6
00000170: c841 a83d 59d4 bf3d 4883 acbd e42c 4538
00000180: 35ab e23d bf1c 0abd a762 1fbd 4ed1 f1bd
00000190: 2398 e0b8 0f71 f93c b399 7e36 c153 d4bd
000001a0: e14b 483c 1c22 9cbd 0586 dabd ff63 8cbd
000001b0: efe9 d9bd acf2 48ba 7d30 ea3d c241 cab6
000001c0: 35ad 463d 113d 46bc c2a9 8fba 7f93 b535
000001d0: e87e 9f36 f898 55bd 412c 5e36 71a1 bdbd
000001e0: db40 80bb 50ea 3cbd 3473 09bd a77c c5ba
000001f0: 55dd deba aed4 3bb9 f7e4 1bbc f208 a1bb
00000200: b9ea e43d 0647 a4bc a546 b83d 1c8f 0e3d
00000210: d0e8 f3bb 3934 913d 6fb7 08bd 67c2 28bd
00000220: 75da d1bd 7619 83bc 8949 1f3d 941b d9bc
00000230: 4f1e 5b3d 1838 ccbb 2142 ca3d 15e7 42bb
00000240: 40f3 98bc 8182 973c c852 8d3d 2e91 e03d
00000250: 886c 313c e9c9 a5bb f5d2 e23c d944 3fbd
00000260: 3338 4db6 446c adbd 8724 f33d fdb1 42bb
00000270: 2647 973d 95b8 483d 3cb9 063d 1930 0138
00000280: eeed e13d 59db 0c3d f1dc a23c d0af d8bd
00000290: 09d6 0837 c142 7cbc f306 2038 eb13 b73d
000002a0: 4ce2 093d d52f 7fbd 0fcb 7ebd 8378 8cbb
000002b0: 8f8f 8e3d 7ef4 91b6 2d77 a2bd aa8e a6b6
000002c0: 9626 b1bd 537d 6e37 cbe1 8d3b bde6 4ebc
000002d0: a088 0637 a174 513b 919e 88b6 edde 79bd
000002e0: 0d60 853d 65be 833d e09d c53c 4ff1 d235
000002f0: c0fa 6534 8557 2536 9386 12bc 2e17 5737
0.09886107 0.10471943 -0.04923388 0.1083399 -3.5891676e-06 0.009553215 -0.06457427 0.076647304
0.10887008 -0.0029609432 0.1109359 0.007620873 0.09650557 -3.2005091e-06 0.066013664 8.499256e-07
0.0965372 0.00908799 -0.05631359 0.03717718 4.156817e-05 -1.3628312e-06 -0.06258185 0.08756143
-0.004917932 -0.049918234 -0.034091372 -0.00033165037 0.015546393 -0.12294255 0.1029689 -0.0075729983
0.09281791 0.02443123 -0.041174807 0.08116877 4.716103e-06 0.10228316 3.025662e-06 -0.05251277
0.037355136 -0.03018482 0.054862294 0.11202763 0.071475685 1.0800148e-05 0.061950713 -3.076306e-06
0.06706191 -0.00041642724 -0.015719438 -2.4106646e-05 -0.004073213 0.04168079 -1.097062e-05 0.03247771
0.037806794 -0.0039040921 0.07177785 -0.0022980997 1.5058638e-06 -0.0016136242 -0.008584841 -6.2750387e-06
0.048114765 -0.01809707 0.084952705 -0.08180161 -0.00028585183 -0.074348666 0.11550573 0.051678598
0.12199096 -0.006438687 -0.12000443 -0.09800802 -0.08183656 1.897347e-05 0.048448972 0.006695778
-0.063660584 -0.07913392 0.07303118 -0.04025099 0.00038883009 -8.513091e-06 0.072304495 -0.08921941
7.632996e-05 0.02002748 0.03338809 -4.59758e-06 0.08215672 0.09366674 -0.084234774 4.7010268e-05
0.110678114 -0.03371882 -0.03891244 -0.118075 -0.0001070949 0.030449418 3.7938414e-06 -0.10367537
0.012225122 -0.07623693 -0.106700934 -0.0685501 -0.106403224 -0.00076655555 0.1143503 -6.0277243e-06
0.048505027 -0.01209952 -0.0010960626 1.3528478e-06 4.753343e-06 -0.052147835 3.3106337e-06 -0.09259308
-0.0039139814 -0.046121895 -0.033557132 -0.0015067057 -0.0017003218 -0.00017912939 -0.009515039 -0.0049143964
0.11177582 -0.020053398 0.089978494 0.03480445 -0.007443525 0.07090039 -0.03337806 -0.04120102
-0.102467455 -0.016003352 0.038888488 -0.026502408 0.0534957 -0.006232273 0.09875894 -0.0029739786
-0.018670678 0.018494846 0.06900555 0.10965191 0.0108290985 -0.00505947 0.027688483 -0.046696518
-3.0580093e-06 -0.08467916 0.118722014 -0.002970814 0.07386617 0.049004156 0.032891497 3.080079e-05
0.110317096 0.034388874 0.019880744 -0.105804086 8.156066e-06 -0.015396775 3.8153445e-05 0.08939346
0.03366308 -0.062301476 -0.06220537 -0.004286827 0.069609754 -4.3497994e-06 -0.07932887 -4.963794e-06
-0.08649938 1.4215085e-05 0.004329895 -0.0126282545 8.018833e-06 0.0031960385 -4.0715754e-06 -0.061003614
0.06512461 0.06432799 0.024123132 1.5716449e-06 2.1418509e-07 2.463786e-06 -0.008943218 1.2820396e-05

gc1.bias f4 [64]
00000000: 4047 b83d 2475 ec3d 0d92 fbbc 468a 0dbd
00000010: 73de 12b4 7518 01bc c127 073d dca5 373d
00000020: 85c7 e2bd 1e5b acb7 8eb5 e13d 6a99 063d
00000030: 5405 09bb b24e b6b9 c6ba 90bd ea75 23bc
00000040: 1765 1ebd 8049 063d ed14 b23d 4cdf 8b3d
00000050: 42f1 18bc e656 aeb9 abc1 9bbc e169 043e
00000060: 7c27 7735 229a ccbc 4add 723d be79 c7b7
00000070: 31db 95bd 0699 cc3d 9e01 50bd 8e70 a236
00000080: 1d41 04be 77e7 bd3d f77c cd3d 419a 4a3d
00000090: a853 00bb 3b36 f6bd e70d c0bb e262 9c3d
000000a0: f669 8e3d 8366 eb3d ac61 893d fbfa 073d
000000b0: a4ca 023b d6c8 7bbb 0c5e f0bd b7db 48bc
000000c0: 0a1a 7b3d f5fd 9738 f914 9a36 27d3 02b9
000000d0: 7fbe 9336 285a 34bd 44d9 87ba c188 b43c
000000e0: 4699 21bd 5338 a03d 11c7 86bd 1aed 41bb
000000f0: e3ed 0036 1ad2 8e38 d798 01bc 188c 59bc
0.08997965 0.1154578 -0.03070929 -0.034555696 -1.3678236e-07 -0.007879366 0.032996897 0.04483591
-0.110732116 -2.0546428e-05 0.11020957 0.03286115 -0.0020907717 -0.00034772378 -0.07066874 -0.009976843
-0.038670626 0.03278494 0.086953975 0.068297 -0.009334864 -0.0003325261 -0.019013247 0.12931015
9.207213e-07 -0.02497584 0.05929307 -2.377934e-05 -0.07317198 0.099901244 -0.050782792 4.8410793e-06
-0.12915464 0.09272664 0.10033601 0.049463514 -0.0019581113 -0.120220624 -0.0058610323 0.07636048
0.06953804 0.11494162 0.067080826 0.033198338 0.001995721 -0.0038419268 -0.11736688 -0.012259415
0.06130413 7.247544e-05 4.591999e-06 -0.00012476426 4.403118e-06 -0.044031292 -0.0010364433 0.022037866
-0.039452814 0.07823243 -0.06580938 -0.0029590786 1.9211955e-06 6.810222e-05 -0.007909975 -0.01327803

gc2.weight f4 [64, 128]
00000000: 1cef 2ebb 8325 58bd c5b6 613d 9ada 513d
00000010: d3b0 973d 133d 5abd 040b 553d e774 20bd
00000020: 781f ca3c 39ab a13c 07d8 15bb 3747 693b
00000030: 225e 25bc cc6c 75b9 d176 203d f6a3 9bbd
00000040: 286a 883d a754 6bb8 8706 9c3d b34b 04bd
00000050: 788d 29b9 0712 c23c ee2c 783d d3f6 b1bd
00000060: f2f3 3dbc ad27 53bd de30 c3ba cbed b2bc
00000070: b6cb 0fbd ef75 8fbc 3967 abbd 6ef2 683d
00000080: e5f6 ac3d 3e77 4abb 757c 0eb6 b643 adbb
00000090: ddf3 8bbd ee0a e4ba b025 a13c 6682 5dbd
000000a0: 3f13 47bd 33d2 cfbb 15bf 6d3a d3d1 9ebc
000000b0: 3b28 11bc 8e48 bfba 27ca e0bc 9293 f7bc
000000c0: 9032 86bd 3a0c ae3d 3bef ffbb 2ade 0c3d
000000d0: 64a2 acbc e433 8e3c 930f b43d 022f 513d
000000e0: 4144 8abd 200d bf3c 9349 c73d 766d d73b
000000f0: 51ee 8e3d bdfd c13d 27a6 10bc 3305 ec3c
00000100: d889 98bd d2cc a1bb 9bf0 9c3d 1f07 b7bb
00000110: 201e 40bd 2280 90bd a3cc 4abd dc39 9fbd
00000120: a026 84bd ab24 32bc 9294 13bb 0952 583c
00000130: bb80 1f38 7a5c 9fb8 9d5f b538 2a74 61bd
00000140: e93f 1ebb 9d64 5b3d 6f18 edbc 40ba 1836
00000150: c75d d2bb bb0d b1bc 9be2 15bd 4358 89bd
00000160: 02b9 a4bd dd75 4bbc 9bd7 b93d 1229 92b6
00000170: 47da 7538 ca12 0c3c 042f d43c d89d 543d
00000180: 1d53 9f3d 51d4 c4bb f890 06bb 4031 b1bb
00000190: c030 fcb4 953d 233a e4ac 24bd f628 b43d
000001a0: f5ae b7bc e76d 31bd 3956 9fbc 3a63 d03b
000001b0: 9955 143d 7304 793c 39a6 393c e860 6cbd
000001c0: d3b1 a1bd 9fbc 443c e562 bb3d 9314 773d
000001d0: 37d0 3bbd cab4 dfbb 3300 61bd 75b2 88b6
000001e0: 06c6 d83c c1d9 403d df1d 953d ead8 a93b
000001f0: 775a 1eb8 e859 64bd b7b3 313d 72b0 b03d
00000200: 6e0e 18ba 2fb5 b43d 8a8d 83bd b4bc c6bc
00000210: 45ef 793d 12a8 12bc f8d3 85bc 3342 26bd
00000220: 4daf 5a3d 840f 063a 7369 193d 41a9 34bd
00000230: 2c5d 7fbd f850 e0bb 8602 b13c 11f7 febc
00000240: 61c2 61bc 8aed 80b8 a5ac 9fba 14d8 0cbc
00000250: 08d4 4235 9ffc 99bd 378b 95bd 708b 2abd
00000260: 7134 19bd 24e0 e43c 79ce 2fbc 31cd 62bc
00000270: 5f38 ae3d 3edb 263d f113 813d 03d8 70bd
00000280: cd4a dcbc 57ef 2d3d 133f a6bb f945 84bc
00000290: 0300 c73b 6c84 44b6 a9db 81bd 6153 383d
000002a0: 2ef5 a03d 91fd 463c 0186 b1bb ea75 94bd
000002b0: 96b9 c8bb 0a15 abbb 6d88 333d 3d45 8abb
000002c0: 0837 efbc bac6 723d ef06 52bc 4c27 873d
000002d0: b020 cdbc bbcf 313c 8158 51bc 2799 a63c
000002e0: 4ed2 99bc 435b 583d 65cd 123c bad2 4e3d
000002f0: ae5d c33d b001 06bd 84f8 77bd b49d a43d
00000300: 5e74 623d 78be 3bbd de1f 7d3b 38f5 fabc
00000310: 1c37 83bd c228 843c b3f1 0a3d a73e 393c
00000320: 3f01 b6bc 3840 bc3d fa45 bbb8 ca00 3abd
00000330: 229e 84b8 d7c2 b535 a1a0 ba39 3675 56bd
00000340: 6e7d 263d b0cc 0ebd a74d 80bd f786 dbba
00000350: 08d5 ad3d 7d09 993d 9b58 b23d 0fe6 803d
00000360: 8b35 6d3d 0e6b dabb 1f17 33bd a21d 4c37
00000370: 68e7 a2b7 b3b9 93bd ee70 cdbc e778 a53c
00000380: 3b01 623d bffe f3bb d5cf 3db7 6dbd 80bb
00000390: d42e 35b7 b9a5 4dbd d205 6a3d 2970 42bc
000003a0: 08ab ba3d 6d76 9c3d b205 18bc 72a9 043d
000003b0: cc92 813c 1720 acbb 20e3 02bb 129c 1e3c
000003c0: d088 103d 4a83 bb3d 75dd 4fbc 0791 ecbc
000003d0: 433b abbc f194 22bd c329 c23c f909 74b8
000003e0: f923 a23d 1152 1d3d 60a6 76bd b26b 123c
000003f0: e92b 2638 9464 28bc 405f 8f3c 6106 92bd
-0.0026692813 -0.05277015 0.055105943 0.051233865 0.074067734 -0.0532809 0.05201246 -0.039173987
0.024673209 0.019734966 -0.0022864358 0.0035595426 -0.010093244 -0.00023405551 0.039175812 -0.075996324
0.06660873 -5.6107205e-05 0.076184325 -0.032298755 -0.00016169797 0.023690237 0.060589723 -0.08689656
-0.011593806 -0.05155151 -0.0014891883 -0.021841904 -0.035106383 -0.01751229 -0.083692975 0.056871824
0.08445529 -0.0030893828 -2.1232092e-06 -0.005287613 -0.068336226 -0.0017398277 0.019671291 -0.054079436
-0.04860234 -0.0063421964 0.0009069306 -0.019387161 -0.008859689 -0.0014593767 -0.027440144 -0.030221734
-0.06552613 0.08498426 -0.007810501 0.03439156 -0.021073528 0.017358728 0.08792033 0.05107022
-0.067513 0.023321688 0.0973083 0.006574328 0.06979049 0.09472225 -0.008828676 0.028811073
-0.074481666 -0.0049377466 0.07663079 -0.0055855657 -0.04690373 -0.070556894 -0.049511563 -0.07774708
-0.0645268 -0.010873 -0.0022518975 0.013203152 3.8028444e-05 -7.598936e-05 8.648562e-05 -0.055042423
-0.002414698 0.05356275 -0.028942315 2.2758177e-06 -0.0064198705 -0.021612993 -0.03659306 -0.06706288
-0.080431 -0.0124182375 0.090743266 -4.3559203e-06 5.861584e-05 0.008549402 0.025901325 0.051908344
0.077795245 -0.0060067554 -0.0020533185 -0.0054074824 -4.6974128e-07 0.0006227133 -0.040203944 0.08796875
-0.022422293 -0.0433177 -0.019450294 0.006359485 0.036214445 0.015198815 0.0113311345 -0.057709605
-0.078952454 0.012007861 0.09149722 0.060322355 -0.045852866 -0.0068269717 -0.05493183 -4.073891e-06
0.026461612 0.047082666 0.07281088 0.005183329 -3.7754387e-05 -0.055749804 0.04338428 0.08627404
-0.000580049 0.088236205 -0.06423481 -0.024259903 0.0610192 -0.008951204 -0.016336426 -0.040590476
0.053389836 0.00051140063 0.03745408 -0.044106726 -0.062344715 -0.0068455897 0.021607649 -0.03112367
-0.013779254 -6.147761e-05 -0.0012182189 -0.008596439 7.257918e-07 -0.07518887 -0.07301944 -0.041636884
-0.037403528 0.02793891 -0.010730379 -0.013842867 0.08506846 0.04073643 0.06302632 -0.058799755
-0.026891137 0.04246458 -0.005073437 -0.016146647 0.0060729994 -2.9283356e-06 -0.06340725 0.04500139
0.07859264 0.012145416 -0.005417586 -0.07249053 -0.006125639 -0.005221014 0.043831278 -0.0042196796
-0.029201046 0.05927155 -0.012819036 0.06599292 -0.02504 0.010852749 -0.012777449 0.0203367
-0.018777039 0.05282141 0.008960103 0.050493933 0.09539352 -0.032716453 -0.060539737 0.08037892
0.055286758 -0.045835942 0.003862373 -0.030634508 -0.06406996 0.016132716 0.03392191 0.011306441
-0.022217391 0.09191936 -8.929889e-05 -0.04541091 -6.323705e-05 1.3542257e-06 0.00035596362 -0.052357875
0.040646963 -0.034863174 -0.06264811 -0.0016748597 0.08487898 0.07472513 0.087083064 0.0629388
0.05791239 -0.006665594 -0.043723222 1.2166247e-05 -1.9419662e-05 -0.07213154 -0.025078263 0.020199252
0.055176955 -0.0074461396 -1.13136675e-05 -0.0039288313 -1.0799344e-05 -0.050206874 0.057134457 -0.011867561
0.09114653 0.076397754 -0.009278702 0.03238816 0.015817069 -0.005252849 -0.0019971803 0.009680765
0.035286725 0.09155901 -0.012687077 -0.028877748 -0.020902282 -0.039692823 0.023701554 -5.818342e-05
0.079170175 0.038408343 -0.06021726 0.008936809 3.961838e-05 -0.010277886 0.017501473 -0.07130123

gc2.bias f4 [128]
00000000: b08b f938 ed6e 583d f266 bb3d d77f 7a3d
00000010: d27f afbb dfc4 6cbd 023d 8bbd e056 c6bc
00000020: e81c 13bd 7ea2 80bb 5fe4 0e3d be2b dabc
00000030: 471b 203d 2413 f3bc 92cc 17bc 192b 8fbc
00000040: e597 8c3d c508 6cba add0 2dbd aee1 ca3b
00000050: 6779 ae36 6b17 973b 28ae 963d 0c91 753b
00000060: 1216 b73c 2848 f23c 496e 06bd 928b 55bc
00000070: a616 403d 5b5d d73c 7988 763d c564 e2bc
00000080: 3225 c63d c1bb 883d 8c69 c8bc 3bf3 33bc
00000090: a7cf 033d f4cc 70b9 c432 30bd 4e75 d03c
000000a0: 9460 953c 7f65 303d dd73 a7bb b84f b43d
000000b0: 6d9c 99bc 5c59 73bc 7d33 863d af43 07bc
000000c0: bfbe 0e3d a307 0cbb 7945 69bc 8265 2c3c
000000d0: cdc3 583d de59 953d 0622 9b3d bd0a 2c3c
000000e0: 1102 9b3d ac72 893c ca65 9b3c ccde 6abc
000000f0: 0f8f ae3b 8062 1e3d 471d 6fba fe78 903d
00000100: 78a4 dfbc 01ad 0ebd d5af 243d eb7c a1bb
00000110: b0be 8a3d 6823 9a3d 5e57 e33c 5951 1bbc
00000120: ee2a ff39 8284 623d 84d0 fdbb d3fe 77bc
00000130: 0ba2 6cbb 8431 54ba 8c53 b3ba 5fb9 41bd
00000140: 5086 a03d f46b 8b3d 3971 47bd 34f9 09bb
00000150: e3c8 aa3d fe70 c63c 0b56 553d 3f66 e93c
00000160: 040b 2cbd fbf7 57bc 7ef2 643d d456 02bb
00000170: 8621 64b9 59a2 8e3c ea5e a5bc a114 bb3c
00000180: 3c88 763d 19e7 40bc db62 eeba fe53 81bb
00000190: 6fe9 08ba 2302 8f3b 5d78 b73d 9748 8d3a
000001a0: a4e7 7c3d efe8 17bd d845 05bc d825 84bd
000001b0: ec23 ccbb 7fd9 6a3c 6e4d 05bd b276 be3d
000001c0: e59f ff3c 0ad3 6d3d 4439 d03d 70eb 483d
000001d0: a174 18bc cf17 4a3d 2267 ca3d 325b ceba
000001e0: 87cd 63bb 806b 383d 9f59 82bc 2e77 e83b
000001f0: 17bc 6dbb 37f3 23bd 7457 4e3d 4525 903d
0.00011899264 0.052840162 0.09150495 0.061157074 -0.0053558135 -0.05780494 -0.06798746 -0.024211347
-0.03591624 -0.0039256206 0.03488576 -0.026632186 0.039088514 -0.029672213 -0.009265082 -0.017476605
0.06864909 -0.00090039923 -0.042435337 0.006191454 5.199737e-06 0.004610946 0.073574364 0.0037470488
0.022349391 0.029575422 -0.03282002 -0.013033764 0.0468966 0.026289633 0.060188744 -0.027635941
0.09675063 0.06676436 -0.024464391 -0.010983284 0.032180455 -0.00022964535 -0.043017164 0.02544656
0.018234529 0.043065544 -0.0051102475 0.08804268 -0.018751347 -0.014852848 0.06552789 -0.008255883
0.03484988 -0.0021366857 -0.014237755 0.010522248 0.052921105 0.072925314 0.07574849 0.010500607
0.075687535 0.016778313 0.018969435 -0.0143353455 0.0053271125 0.038668156 -0.0009121489 0.070543274
-0.027300104 -0.034832958 0.04020675 -0.0049282215 0.06774652 0.075262845 0.02775162 -0.009479844
0.00048669375 0.05530215 -0.0077458043 -0.015136438 -0.0036107327 -0.00080945366 -0.0013681515 -0.047295924
0.07838118 0.068077 -0.048691962 -0.0021053078 0.08339097 0.0242238 0.05208401 0.028491138
-0.042002693 -0.013181682 0.05589532 -0.001988818 -0.00021756263 0.017411398 -0.02018686 0.022836985
0.060188517 -0.011773848 -0.001818742 -0.00394678 -0.00052227726 0.0043642684 0.08958504 0.001077908
0.061744347 -0.037087377 -0.008134328 -0.064525306 -0.006229868 0.014334082 -0.032544546 0.09299983
0.031204173 0.05806259 0.101671726 0.049052656 -0.00930515 0.049339112 0.09882952 -0.0015743731
-0.0034759955 0.045024395 -0.015911875 0.0070942855 -0.003627544 -0.04002687 0.05037637 0.070383586

gc3.weight f4 [128, 256]
00000000: 4431 3e35 1e8e 04bb de12 fbb5 9ebc 24ba
00000010: 651c c936 2837 c339 807d 17b9 74d7 34ba
00000020: 5057 0d39 5029 e036 1375 daba 597d 86b8
00000030: be0c 263a eb19 c2ba 08cd 8437 0cd4 44b8
00000040: 7147 8a3a dea9 79ba c4b6 b4b9 6cf6 11ba
00000050: b306 3fb7 92e6 c2ba b840 c333 5019 7039
00000060: 6c57 303a 146f 8f37 8fc5 df3a 256e c7b6
00000070: f6e9 423a 1ecc 82ba 9c92 adba f1a3 aeba
00000080: 3630 0ab7 76a7 dcb4 408f 3b38 e401 33ba
00000090: 94bc c635 b8de 73b9 6d7f 8eba eff5 8eba
000000a0: 62cd 9cb7 321e f5ba c45a 22ba 89ae 8dba
000000b0: 2898 a3ba 4022 61b8 049b 2dba 604d 0239
000000c0: db5b b3ba 00a9 b6b8 3fce ffba 776f f9ba
000000d0: 2c9c bd35 84cd e739 437a 03bb de5f 153b
000000e0: 1c3e cf39 9465 f439 0dc9 bf36 386e 083b
000000f0: c0ec 043a 225d 01bb c25e 1436 680b 1939
00000100: 5867 0eb9 8821 05ba d98b 8cb5 a559 143b
00000110: 3fe5 943b 8cc3 40ba b479 1d3a a89e d5b9
00000120: accf 3fbb b051 bd39 3866 07ba 4ada d63a
00000130: 9c79 4436 88ed 5a3a 4293 49ba d060 c633
00000140: 0cfe e83a ea66 953a 027b a334 aa9b 5038
00000150: c4ed 54ba 99f0 d9ba 2032 d638 b317 9cb8
00000160: 9917 dbba 8cd5 7aba 0879 383a 98ac 44ba
00000170: 0c15 d7b9 fe67 36b7 3c8d 483a 91c2 803a
00000180: a246 68ba 63fa 9035 34ee b739 d6a9 56b5
00000190: 362d bcb7 3aea 7aba 344f 33ba 7c86 1bb7
000001a0: f485 1a3a 217b 89ba 9670 4aba afa4 1b36
000001b0: 480a 5a3a 0629 d0ba f8a1 d439 e8a5 ec37
000001c0: 5736 32b5 b4ad 5bb6 02d5 95ba c2e9 9abb
000001d0: ea41 76ba e624 593a 6263 9fb8 a2d3 4437
000001e0: b8d8 17ba 0069 4d38 458d 9fba d821 d3b9
000001f0: 064b 5eba 4040 813a 9ed9 6e3a 4036 253a
00000200: b792 b2ba 941e 9339 f431 df39 a012 5a38
00000210: 1e8b 083a fb6d 2fbb e071 0038 3827 0239
00000220: 5384 b735 9442 75ba 02b6 8735 0abe 6f3a
00000230: dc40 9eb9 8304 3db5 c0e7 0cb8 184a 7cb9
00000240: be5e 42ba 2415 8939 4484 94b9 dc9f 8e36
00000250: 30e2 4539 2a59 793a 8802 f739 0cd6 3cba
00000260: 438d bb37 592e c33a e545 d5ba be96 7fbc
00000270: 6b53 1a34 c6c4 46b7 785e 083b 2d90 99ba
00000280: 61df 8bba 4899 00b6 ab17 f436 f0fd 1c39
00000290: 78da 1339 1291 ec33 5e95 19ba 1c42 9cb9
000002a0: e001 96b8 e94e 3335 9477 08ba 4c25 553a
000002b0: fcbc 67ba d2f0 18b7 6df6 b536 ae53 e6ba
000002c0: 18ab 14bb b037 f3b9 eafb 00b7 a20e 57ba
000002d0: d4b7 5437 ca7d b1ba 64fe a1b9 70ee bf38
000002e0: 9e0d c937 a0b5 92b8 ed5d 9eba c0bb 7eb4
000002f0: 20b4 b5b9 941f 9e34 300d c5ba feed e7ba
00000300: 5895 4739 0843 7539 982b 2ab7 3cdd 32b6
00000310: a614 2ab6 90fb c9b9 583b daba 683e 38b9
00000320: b8f5 3739 ddd9 20bb 9a1b 82ba 5c41 e8b9
00000330: 9c99 67ba 3fbc 95ba d8c5 1635 f968 3736
00000340: a6af b23a 6166 ec3a d917 dcbb a04a 6738
00000350: 0054 1536 060a e5ba 685f 093a fb2c 5d36
00000360: b8fd 1d3a ca31 1eba ab2d 9f3a c453 f5b9
00000370: 424f 3fba 9608 8dba d27f 0dbb 9017 ddba
00000380: 142e 0eba 4ad5 4b3b d06a 24b9 d062 5fb9
00000390: 1741 a4ba 2b96 beba b8fc a9b9 bd28 b0ba
000003a0: 69f0 bd36 6024 103a 6dd3 2a37 3e2c dcb5
000003b0: 8aec a9ba c89c 6839 76a2 16b4 1695 e5ba
000003c0: 7046 d3b8 02c0 2c3b 8b0c ab3a 68c7 12ba
000003d0: 8c10 2abb a601 83b7 4d96 323c c0c1 173a
000003e0: c06c 2138 2b2b 3637 efed cc36 40c6 06bb
000003f0: b610 e6ba 7e22 7db7 086f 7ab6 4c8c 9339
7.0852207e-07 -0.002022631 -1.8706448e-06 -0.00062842097 5.9935724e-06 0.00037234393 -0.00014447235 -0.000689856
0.00013479334 6.6805296e-06 -0.0016666971 -6.412966e-05 0.0006334296 -0.001480875 1.5831101e-05 -4.6927526e-05
0.0010549856 -0.00095239084 -0.00034468446 -0.0005568031 -1.1386047e-05 -0.0014869741 9.0921674e-08 0.00022897613
0.0006726894 1.7098653e-05 0.0017072427 -5.9434847e-06 0.00074353756 -0.0009979045 -0.0013242546 -0.0013324005
-8.236666e-06 -4.1100037e-07 4.4717686e-05 -0.000682859 1.4807033e-06 -0.00023257255 -0.0010871716 -0.0010907034
-1.8692288e-05 -0.0018701016 -0.00061933347 -0.0010809462 -0.0012481259 -5.3676078e-05 -0.00066225254 0.0001242659
-0.0013683991 -8.709915e-05 -0.0019516422 -0.0019030411 1.4127049e-06 0.00044212874 -0.0020061887 0.0022792737
0.00039528392 0.00046614988 5.715649e-06 0.0020817649 0.0005070679 -0.001973935 2.2108875e-06 0.00014595466
-0.00013580674 -0.0005078544 -1.0471514e-06 0.002263644 0.00454393 -0.00073533575 0.000600721 -0.00040744734
-0.002926807 0.0003610975 -0.0005165073 0.001639196 2.9277062e-06 0.0008351435 -0.00076894846 9.2377036e-08
0.0017775907 0.0011398469 3.0450616e-07 4.9736038e-05 -0.0008122588 -0.001662749 0.00010213652 -7.443074e-05
-0.0016715407 -0.0009568564 0.0007037078 -0.0007502525 -0.00041023677 -1.0872258e-05 0.000765044 0.000982361
-0.0008860623 1.0801708e-06 0.00035081955 -7.9968356e-07 -2.24324e-05 -0.00095716456 -0.000684011 -9.270032e-06
0.00058945944 -0.0010488966 -0.0007722465 2.3192658e-06 0.0008317572 -0.0015881367 0.00040556467 2.8210648e-05
-6.638924e-07 -3.2734652e-06 -0.0011431279 -0.004727573 -0.0009393977 0.00082833914 -7.600222e-05 1.1731785e-05
-0.00057924865 4.8973598e-05 -0.0012172839 -0.00040270272 -0.00084798073 0.0009861067 0.0009111407 0.00063023344
-0.0013624047 0.00028060807 0.00042571092 5.1992596e-05 0.00052087184 -0.0026768434 3.0623632e-05 0.00012412376
1.3673074e-06 -0.0009355929 1.0111255e-06 0.00091454445 -0.00030184432 -7.041455e-07 -3.3594435e-05 -0.00024060195
-0.00074146304 0.00026146427 -0.00028327305 4.25054e-06 0.00018871645 0.00095118827 0.00047113397 -0.00072035263
2.2357917e-05 0.0014891132 -0.001627144 -0.015599905 1.4372715e-07 -1.1847535e-05 0.002080826 -0.0011715941
-0.001067143 -1.9162708e-06 7.274522e-06 0.00014971918 0.00014100398 1.10159945e-07 -0.0005858744 -0.00029803894
-7.1529066e-05 6.6797526e-07 -0.0005205807 0.0008130863 -0.00088401115 -9.115976e-06 5.422908e-06 -0.0017572546
-0.0022684988 -0.00046390062 -7.688048e-06 -0.00082037796 1.26789855e-05 -0.0013541516 -0.0003089785 9.152002e-05
2.3967408e-05 -6.995653e-05 -0.0012082435 -2.3723896e-07 -0.00034657214 2.945277e-07 -0.0015033837 -0.0017694829
0.00019033754 0.00023389992 -1.014294e-05 -2.6652842e-06 -2.5343993e-06 -0.00038525136 -0.0016649766 -0.00017570856
0.00017543777 -0.002454392 -0.0009926439 -0.00044299185 -0.000883484 -0.00114239 5.6167255e-07 2.7330227e-06
0.001363267 0.0018035882 -0.00671671 5.514419e-05 2.2251625e-06 -0.0017474301 0.0005240352 3.2957748e-06
0.0006026882 -0.0006034641 0.0012144347 -0.00046792452 -0.0007297882 -0.0010760005 -0.002159108 -0.0016867984
-0.00054237363 0.0031102472 -0.0001568005 -0.00021303748 -0.0012531605 -0.0014540603 -0.00032422482 -0.0013439875
5.6606264e-06 0.00054985844 1.0182016e-05 -1.6404153e-06 -0.0012964171 0.0002218365 -1.4028942e-07 -0.0017515745
-0.00010074384 0.0026359563 0.0013050003 -0.0005599172 -0.0025949804 -1.5617185e-05 0.010900092 0.0005789064
3.8486673e-05 1.0858096e-05 6.107373e-06 -0.0020564944 -0.0017552588 -1.5088006e-05 -3.7317532e-06 0.00028142554

gc3.bias f4 [256]
00000000: 29d5 35bc 0588 753d 428b ffbb 314e 5e3c
00000010: 919b b3bb 0ece 013d 5078 173d d470 013d
00000020: f323 a23d d84e 19bc fce5 843d 008a 2dbd
00000030: 7272 103d 599a 183d 350a 53bc 93b5 503a
00000040: 3fa3 553d 63fb 1f3d 44fb f13c f405 443c
00000050: 64ec 51bb 377c 723d e714 39bc b3a6 733d
00000060: 4fd4 e1ba ada4 1fbc e7e1 8b3d 4afd 32bc
00000070: 3ea2 0cbc 541d 9c3d 89bd 963d 6160 5c3d
00000080: 1c00 bfbb c2f8 debb 49f1 283d c64b e03c
00000090: 7405 3bbd 8d63 383d 6288 ab3c eb77 a53b
000000a0: d016 8fba 55b6 263d 3a3e b13c 4cc9 8a3c
000000b0: 4575 9cbc f01e 12bd 77d5 723d ec97 8f3d
000000c0: 50d3 8b3d 8156 9b3d f775 673d 1e6a 6e3c
000000d0: fa46 adbc c280 273c 5dee b83a d76b 043d
000000e0: 2ff4 323d 7fca 413d 27da c8bc 5252 6c3d
000000f0: 64d5 f3bc 602e 233d 915c 35bc 2eb1 283d
00000100: 8f20 4b3d 56ff 3d3d 7f2b cebc cadc 843c
00000110: 7804 0fbc 1a4b 26bc dc92 603d 5336 9a3d
00000120: 7417 9b3d 0e47 0d3d e963 b13c 232e deba
00000130: f6dc fcbb 0202 8a3d 0c64 ba39 21c4 04bd
00000140: ad48 aa3c a0cb 2b3d 8095 14bb 4284 27bc
00000150: d992 4f3d b530 693d 4e3b 1b3a eb45 e2bc
00000160: 37dc a33d c17c ed3c 4719 1d3d 1647 963d
00000170: fe69 9e3d bd63 0cbc 8253 083d 5d8e 1e3d
00000180: 7dfa a53c e658 93bb 54ab 733c 5aa9 d03c
00000190: df6e 0dbd 9fee 8b3c 412e 063d b189 09bc
000001a0: af8a 5c3d 8e1d 363d 8988 03bb e5d6 08bc
000001b0: 028d af3c 4fbf 483d 8f03 a4ba f0f2 c9bc
000001c0: e0b3 1ebc efe3 e3bc 8ec5 ef3c 47f3 1dbd
000001d0: 1cb5 953b 5f12 b8bc 845b a7bc b0af 04bd
000001e0: 0364 613d a73a a13d 8992 a33d 43f0 2dbc
000001f0: ede5 443d b9aa 5f3d f3ed f83c 4075 f23c
00000200: 725e 743d c09d 4f3d 026d 5a3b 568e 0c3d
00000210: c95a 213d 267e aebc ae17 9f3c 08aa 7a3d
00000220: 61ac 46bc b464 7a3d c2ff e2bb a9c6 9d3d
00000230: 5a3c 8d3c 2d69 c2bb 50c0 9c3d 652e 4a3d
00000240: fd42 863d 052c 403d a736 613c 64a3 54bc
00000250: 9083 643d de9f 4ebc 7ef9 0a3d 9ce0 6e3d
00000260: dc4e 34bc fab0 c13c 0633 b03c aee4 35bc
00000270: 3415 c1bb 9c79 42bc cf10 cfbb 7af3 9f3d
00000280: 6b39 6c3d f0df 1bbd 6959 1cbc f4c5 183c
00000290: 1532 853c add3 77bc 5c84 c23b 2614 433d
000002a0: 7971 133d 6e7b 30bc e472 d7bb 9e71 3c3d
000002b0: 3d96 313d 5d63 a5bc adda cabc 74a2 313c
000002c0: daaa 8e3c 2375 213d d0c5 88bc c776 15bd
000002d0: 4521 31bc 95d9 583c 3943 863c d3ec 4a3c
000002e0: be5d 22bc 2774 8c3d 28a4 913b 3bd0 a8bb
000002f0: 8db4 c83b 64a6 a1bb 9ce4 23bc db40 643c
00000300: da44 a63b 0a5f 963d 19d7 b8bb fa86 cfbc
00000310: 35d2 4cbc dc93 c93c 71d0 0b3c faa0 783d
00000320: bb99 503d 61cc e43b 9837 d73c 2b55 8c3d
00000330: 5801 2f3d 34dd 2b3d 521c 27bc 19e6 32bd
00000340: 59d6 563d 6217 f3bc 9269 0cbd b5b9 b1bc
00000350: 45fd d0bc da1e 3a3c 590d 903d 4f4d 0abc
00000360: a1f0 863d 5eb1 803d 2e3a 243d 5afc 9e3d
00000370: 37e7 fd3b 265b 81bc 7fe7 eab9 912b b73c
00000380: 9dc9 8fbb 97a5 b2bb e59c a6bb a6d3 9e3d
00000390: 4f57 b63c 3519 ce3b f7a0 8b3d 57ac a33d
000003a0: 0f59 2ebc 687b a83c 75e7 48bd 2a31 0fbd
000003b0: 59e1 a53c 0160 133d 2b3e a3bc b16c 023d
000003c0: c7af 1c3d b159 7a3d 3352 233d 0259 6a3d
000003d0: 6ef6 d03c 95e7 cfba 1ce8 85bc 81ed 0f3c
000003e0: 43dc 1cbd 6b23 05bd c24b 0cbd bc9d f33c
000003f0: e0e8 ea3c f831 00bd 0d13 04bc 3e2b 543d
-0.011098185 0.05994417 -0.0077985832 0.013568447 -0.0054811914 0.03169065 0.036979973 0.031601742
0.07917013 -0.009357177 0.064891785 -0.042367935 0.035265394 0.037256572 -0.0128808515 0.0007961627
0.052157637 0.0390581 0.029538758 0.01196431 -0.003203177 0.05920049 -0.011296487 0.05948515
-0.0017229411 -0.009743852 0.06830197 -0.010924647 -0.008583603 0.076227814 0.0736037 0.05380285
-0.0058288705 -0.0068045566 0.041245732 0.027379882 -0.045659497 0.045016814 0.020939056 0.0050496957
-0.0010916833 0.04070123 0.021636117 0.016941689 -0.019098887 -0.035674036 0.059285607 0.07011399
0.06827414 0.07584859 0.056508984 0.0145516675 -0.021152008 0.010223569 0.0014109124 0.032329407
0.043689903 0.047312256 -0.024518086 0.057695694 -0.029764839 0.03983915 -0.011069433 0.041184597
0.049591597 0.046386085 -0.025167225 0.016218562 -0.008729093 -0.010149742 0.054827556 0.07529893
0.07572833 0.03449159 0.021654086 -0.0016951006 -0.0077167703 0.06738664 0.00035551225 -0.032413606
0.020786608 0.04194224 -0.0022672117 -0.010224404 0.050677154 0.056931216 0.0005921618 -0.02762123
0.08000987 0.028990151 0.038354184 0.07337777 0.0773506 -0.008568701 0.033282764 0.038709987
0.020261044 -0.0044966815 0.014872391 0.025471378 -0.034529563 0.017081557 0.032758955 -0.008394645
0.053843196 0.04446178 -0.0020070395 -0.008352016 0.021429542 0.04901057 -0.0012513268 -0.024651974
-0.00968644 -0.027818648 0.029269006 -0.038562085 0.004568709 -0.022469698 -0.02042938 -0.03239411
0.05502702 0.07872515 0.07986934 -0.010616365 0.048070837 0.054606173 0.0303869 0.029596925
0.059660383 0.05068755 0.0033329134 0.03431543 0.03939322 -0.021300387 0.019420471 0.06119731
-0.012126059 0.061131194 -0.0069274614 0.07703907 0.017240692 -0.005932948 0.07653868 0.04936065
0.06555746 0.04691698 0.01374594 -0.0129784085 0.05578953 -0.0126113575 0.03392934 0.058319673
-0.01100513 0.02364396 0.021508705 -0.011101885 -0.00589242 -0.011869814 -0.0063191424 0.07810111
0.057671946 -0.03805536 -0.009542801 0.009324539 0.016259233 -0.015126151 0.0059361886 0.047626637
0.035996888 -0.010771615 -0.0065749753 0.04600679 0.04335617 -0.020188982 -0.024762476 0.0108419545
0.017415453 0.03941835 -0.016695887 -0.036490228 -0.010811155 0.013235469 0.016389476 0.012385565
-0.009910045 0.06858092 0.004444618 -0.005151776 0.006125039 -0.0049331654 -0.010003235 0.013931478
0.0050741257 0.07342346 -0.005640876 -0.025332917 -0.012501289 0.024606638 0.008533583 0.060700394
0.05092786 0.0069823717 0.026271626 0.06852182 0.04272589 0.041959003 -0.010199623 -0.04367647
0.05245051 -0.029674236 -0.034280367 -0.021694997 -0.025511393 0.011359895 0.07033796 -0.008441283
0.06588865 0.0628383 0.040094547 0.07762976 0.00774851 -0.015790533 -0.00044804436 0.022359641
-0.004388048 -0.0054518688 -0.0050846213 0.077552125 0.022258429 0.006289626 0.06817811 0.079918556
-0.01064135 0.020566657 -0.04904886 -0.034958996 0.020249056 0.03598023 -0.019927105 0.031841937
0.03825357 0.061120693 0.039873313 0.05721379 0.025508132 -0.0015861864 -0.01634603 0.008784653
-0.038295995 -0.03250448 -0.034251936 0.0297383 0.028675497 -0.031297654 -0.008061183 0.05179905

gc4.weight f4 [256, 256]
00000000: 6c71 5abc 9bbd 5ebc ce12 c0b7 0aea 55bc
00000010: 31ed 42b7 6604 29bc 6982 4bbc 388b 06bc
00000020: 8908 49bc ecca 4237 c47a 48bc b575 cabb
00000030: 683c 58bc 6d5b 29bc cc5e debb 33a1 59bc
00000040: e76a 30bc 2480 2835 fbd0 c8bb 3c4b b5bb
00000050: e96a 0ebc 4ef7 9eb4 571a 7cbc d8ea 5fbc
00000060: c52b 6ab6 e1ab 56bc 50e0 a2bb d67e 1cb5
00000070: c986 2cbc 9012 40bc 479a 41bc 28da 9ebb
00000080: cfff 7fb6 7b8a 41bc 3ed3 3dbc 480b 3ebc
00000090: f383 d1bb 480a aa37 ca82 3ebc 1347 52bc
000000a0: 15b9 a8b8 a88e 36bc 1343 43bc a393 48bc
000000b0: eccb 39bc 78d5 f6bb c831 0dbc 2bb0 aa37
000000c0: 5058 7fb5 3b8b 5bbc bce3 ddbb 61fc 3bbc
000000d0: b7c0 4ebc bbdb 8138 5025 4abc d352 3cbc
000000e0: e46b 07bc e825 c4b3 aec2 b336 5ca7 3dbc
000000f0: 2ee7 69b8 299c 57bc b651 cfbb 7cb0 52bc
00000100: 632d 3ebc c649 4cbc 44e0 df34 63d0 40bc
00000110: a21f 42bc 46ee 19bc 719c 06bc 6a9c 60bc
00000120: 554d 7eb6 b998 ee34 eaad ad36 7eb0 e0bb
00000130: ea63 44bc 3e46 4d36 b488 f8b5 774f 2737
00000140: ebbd 34bc 9872 50bc 0f20 d7bb 478f 3ebc
00000150: e022 3cbc 7c6b 1a35 ea88 55bc cd85 2238
00000160: f4ea 56bc 1099 41bc 49de 28bc a6c4 b3bb
00000170: 4f02 3d36 fdf7 54bc 6fa7 d334 8b58 56bc
00000180: a706 d7b5 61a5 44bc 6fbb 4fbc f113 42bc
00000190: a598 07bc 1ee1 5fb6 f861 e8bb 24c6 eabb
000001a0: d89e 2fbc c3a7 1bbc 357a 4bbc 8066 e432
000001b0: c3f0 34bc e998 42bc b7bb d8bb 2ef6 4bbb
000001c0: 9613 25bc a4fb 3e33 72a3 32bc 928d 64bc
000001d0: 9950 5dbc bc90 4ebc ff77 4dbc c75a 12b7
000001e0: d9ac 5bbc 8ea2 3bbc 29a8 e1bb 1775 d0bb
000001f0: b757 dabb 5349 b5bb 312b bdbb c5a5 4cbc
00000200: 8ccc b7bb 1c0b 09bc 1cbf 42ba bf9c f7bb
00000210: 6dc9 3abc c78d 9738 3746 40bc dcc8 39b4
00000220: 5688 4cbc 05db 10bc ea01 58bc 49a9 17bc
00000230: 2677 c137 5840 2cbb 2b0d 41bc 1334 f9b5
00000240: 1d3c 39bc a41c 02bc 677b 5abc 2710 43bc
00000250: bc59 00bc e7a9 69bc 4306 51bc 8da1 5dbc
00000260: 732b 40bc 2ed9 d835 7281 0fbc fa3b ac35
00000270: 8e59 3bbc 1e0e 02bc 7be8 4838 5702 2bbc
00000280: 1b86 3bbc fe71 1abc d967 54bc 52e2 f1bb
00000290: 754a 7db8 0e0e cf37 2848 fbbb 8dad 49bc
000002a0: 6040 5cbc 0143 a436 a811 eabb f244 6f35
000002b0: 41de fdbb 4799 fdbb f717 62bc 4bb7 66bc
000002c0: a8d2 b3b9 fb5f e6bb 5038 15b5 5469 31bc
000002d0: c99f 3237 b0b8 e0b3 dab8 3abc 6dd1 63bc
000002e0: b185 2438 8a9b dcbb 56a3 8538 c2e3 1834
000002f0: 1d9d 383b 32da 3abc 408d b533 081b 44bc
00000300: 3abe f635 c20c 81bb f929 46bc 0e8b b1b5
00000310: 7d9a 69bc 10da 47bc 029c 59bc ca8d 4fbc
00000320: d3ba 42bc 23a8 5fbc a27c 59bc 57d7 bc35
00000330: 9006 4ebc 26f2 40bc 6fe3 48bc 7d52 5dbc
00000340: 742a c436 8b90 37bc 2da9 f5bb e75f 58bc
00000350: 511b a837 1b43 4dbc b338 35bc cca4 35bc
00000360: 654c 81bc 832a fcbb 7d25 a5b6 b350 cd36
00000370: 401f 46bc 4a3c 03bc 6acf 0f3a a424 40bc
00000380: 0646 4cbc 57bb 97bb f432 a7bb d3a3 69bc
00000390: b048 1c38 901b 72bc 804d 9ebb 634f 04bc
000003a0: bd58 4ebc c07d 6abc 0c40 d7b6 ddba 2ebc
000003b0: 7b17 bf37 02ea 05bc 812e 57bc 1706 0dbc
000003c0: a3ef 50bc 1d81 43bc 3dcd 50bc b386 31bc
000003d0: cef5 49bc a905 93bb d88f 39bc 36ff b5b7
000003e0: 69b9 9138 2d83 3fbc 577d 5637 e4d8 3cbc
000003f0: d072 3d36 16a6 d6b4 6801 51b7 eae7 2fbc
-0.013332706 -0.01359501 -2.289694e-05 -0.013056288 -1.16185265e-05 -0.01031599 -0.012421229 -0.008211903
-0.012270101 1.16105475e-05 -0.012236301 -0.0061785826 -0.013197996 -0.010336739 -0.006786203 -0.013283062
-0.010767675 6.2771346e-07 -0.006128428 -0.0055326503 -0.008692482 -2.960973e-07 -0.015387139 -0.013666831
-3.4894194e-06 -0.013102503 -0.004970588 -5.82991e-07 -0.010530182 -0.011723176 -0.011816568 -0.0048477836
-3.8146861e-06 -0.0118128015 -0.011586009 -0.011599369 -0.0063939034 2.0270367e-05 -0.011627862 -0.012834328
-8.0453385e-05 -0.01114241 -0.011917847 -0.012242231 -0.011340123 -0.0075327717 -0.008617826 2.0347614e-05
-9.5123414e-07 -0.013399894 -0.006771533 -0.011473746 -0.012619189 6.192127e-05 -0.012337998 -0.011494356
-0.008265469 -9.133856e-08 5.3572794e-06 -0.011575546 -5.576683e-05 -0.01315979 -0.0063268794 -0.01285946
-0.011607501 -0.012468761 4.1700162e-07 -0.011768433 -0.011848362 -0.009395188 -0.0082160095 -0.013709167
-3.7893963e-06 4.4442075e-07 5.176048e-06 -0.006856977 -0.011986712 3.0588267e-06 -1.8517226e-06 9.9724775e-06
-0.011031608 -0.012722634 -0.006565101 -0.01163084 -0.011482924 5.752588e-07 -0.013033131 3.874842e-05
-0.013117541 -0.011816278 -0.010306903 -0.005486089 2.8164538e-06 -0.012998578 3.9423637e-07 -0.013082634
-1.6020684e-06 -0.01200232 -0.012678965 -0.011845575 -0.008276139 -3.3360625e-06 -0.007091757 -0.0071647335
-0.010719024 -0.009500447 -0.012419273 2.6589305e-08 -0.01104373 -0.011877277 -0.006614174 -0.0031122076
-0.01007547 4.4466688e-08 -0.010903226 -0.013949769 -0.0135079855 -0.01260775 -0.012540816 -8.723414e-06
-0.013407909 -0.01145233 -0.0068865013 -0.0063616144 -0.0066632885 -0.0055324226 -0.005772971 -0.012490694
-0.0056091007 -0.008364465 -0.000742899 -0.0075565274 -0.011400563 7.226649e-05 -0.0117354905 -1.730254e-07
-0.012483677 -0.008841281 -0.01318405 -0.009256669 2.3062876e-05 -0.002628347 -0.011782925 -1.8567101e-06
-0.011305836 -0.007941399 -0.0133350855 -0.0119057065 -0.007833894 -0.014261699 -0.012757841 -0.013527286
-0.011729109 1.6156462e-06 -0.0087588895 1.2832454e-06 -0.011434926 -0.007937936 4.790023e-05 -0.01043757
-0.011445547 -0.009426592 -0.012964212 -0.007381716 -6.0389244e-05 2.4682868e-05 -0.007668514 -0.012309444
-0.013443083 4.895381e-06 -0.007143218 8.9134767e-07 -0.007747442 -0.0077392193 -0.013799659 -0.014081786
-0.00034298492 -0.0070304847 -5.558877e-07 -0.010828335 1.064683e-05 -1.0464407e-07 -0.011396611 -0.0139049115
3.9225157e-05 -0.006732409 6.372358e-05 1.4238961e-07 0.0028169819 -0.011404561 8.4541625e-08 -0.011969335
1.8383791e-06 -0.0039382884 -0.012094968 -1.3227998e-06 -0.014258024 -0.012197986 -0.013281824 -0.0126680825
-0.011885363 -0.013650927 -0.013274344 1.4069764e-06 -0.012574807 -0.011776483 -0.012261256 -0.013508436
5.8461974e-06 -0.011203895 -0.007496974 -0.013206459 2.003988e-05 -0.012528206 -0.011060881 -0.011086654
-0.015783498 -0.0076954975 -4.9217474e-06 6.1188707e-06 -0.0120924115 -0.0080099795 0.0005485924 -0.011727486
-0.012467867 -0.004630487 -0.0051025096 -0.01426025 3.7260994e-05 -0.014777079 -0.004831016 -0.008075568
-0.012594399 -0.014312208 -6.4149554e-06 -0.010664669 2.2779908e-05 -0.008173468 -0.013133646 -0.008607409
-0.012752446 -0.0119326385 -0.012744245 -0.010835337 -0.012326671 -0.0044867587 -0.011325799 -2.1695723e-05
6.948674e-05 -0.01168899 1.2784577e-05 -0.01152632 2.8230024e-06 -3.998145e-07 -1.2457698e-05 -0.010736445

gc4.bias f4 [256]
00000000: f022 5e3d bac0 973d 13b0 d4bb 21f2 653d
00000010: 66cf 68bb db31 963d dc32 803c f046 84bc
00000020: 829b 913d 4187 cb3c 1315 5bbc 9012 1f3d
00000030: 694d 033d 52db 84bb 57df 07bd 60d4 dc3c
00000040: 99db a3bc ed3d e53c 203a 8b3b f52e e3bc
00000050: 770c 263d 0396 51bd fd8e 873d bf72 5d3d
00000060: 2e77 49bc 6be7 283d 03d6 993d 08ec ebbb
00000070: 9e22 833d 0c57 5f3d 464d ee3c 4a34 5b3c
00000080: 0be9 e0bc de97 a93d 66d4 0cbb b58a 1b3d
00000090: 05f6 f8bc dbd9 22bd 6392 403d 8bb5 853c
000000a0: 442d bdbc daae 783d 701a 07bd 6491 983d
000000b0: c0c0 ae3c ccde 17bd c331 de3c 627e 2cbc
000000c0: b514 10bd ff19 4f3d e383 773d 6dc4 013d
000000d0: 23f4 973c 2094 e63c 4d81 2e3c 5e36 5d3d
000000e0: ded9 a73c c533 10bd 8ab3 0dbd 45e3 873d
000000f0: 7731 4e3d 4e3e 613d 0371 573d a735 423d
00000100: 0c33 9a3d d3a2 6d3d 8f65 cf3c 3a74 d63c
00000110: e8e6 9b3d 1a96 723d cbe1 1ebc 1f9f c839
00000120: 42b6 ebbc 6b69 b8bc 8ad1 dcbc 52ad 443d
00000130: ad7f 3b3d f4bb 3bbd 7f13 f1bb 5850 f1bc
00000140: 363f 133b c479 a6bc 2440 763d 654b 803d
00000150: 52dd 3b3c f9d1 32bb 9aec 903d 30c8 67bb
00000160: b096 803d ec44 bcba deae 343d 4529 5b3d
00000170: f119 e1bc b32a adbc fdd0 07bd 006c 8a3c
00000180: b9bf fcbb 2101 953b b81b 193d f03f 4b3d
00000190: 5251 a53c 432d 0ebd 69e5 d73c 7238 a9bc
000001a0: 90fb 843d 7df5 14bd eb25 633d ba10 3cbc
000001b0: 66a7 1c3d bd99 cfbc dd96 123c 62e8 f1bb
000001c0: fa7a 913c de8d d3ba ce07 923d 5432 433d
000001d0: e59d e33b 5684 16bd e39b a43d d219 88bc
000001e0: 782d 283d deb2 9b3d 4cdb 8d3d 004f 083d
000001f0: af83 113b 547c 953d 8d59 473d 7d3a 4b3d
00000200: 7c9b d73c 958f 553d 2236 453d 8355 093d
00000210: d750 973d 4267 1cbd 2401 c13c b1da c8bc
00000220: c057 163d 9545 983c e378 423c 9a7c 473d
00000230: c47f 54bc 2d18 3a3d 8ceb 5d3d 2102 57bd
00000240: ca5d 7ebc 06ac ac3d 7b28 6cbc 8a03 8e3d
00000250: f840 223d 8ebe 7f3d 5724 1fbd 06e9 5d3d
00000260: 99cb e33c 2d81 9dbc 7f94 903d a5a2 a9bc
00000270: 6899 12bc 136a 8c3d 4a7f a5bc 536a 223c
00000280: 227f aebc f067 3abc e691 cd3b c87e a23c
00000290: a2ac 2abd 755b 01bd 3e20 a83d 58d4 dd3c
000002a0: a33a 873d 0c6d 2cbd 3d45 9cbc fb41 c8bb
000002b0: 5ef0 3c3d adb5 8a3d d21f 833d 177e 05bd
000002c0: 1bad e3bc 546e afbb b835 4f3c a153 623d
000002d0: 05fb 69bd 0a85 d23b 54dc 4d3d 58a0 03bd
000002e0: 2e09 aabc 3152 083d 1169 2cbc e28e b0bc
000002f0: d86a 503b 8412 9b3b fbc2 a7bb 83e4 973d
00000300: 35dc 6e3c 4ed6 0c3d db32 1a3d 2ddb 2abc
00000310: b18e bb3b 5d47 3a3d dc82 023c cbda 253d
00000320: 64a8 a73d efff bb3c fa46 b73c b554 50bc
00000330: 05e9 4bbc a024 833d c546 173c 2aa6 98bc
00000340: 24c5 39bc 7ffb 8b3d b451 593c 9813 863d
00000350: a54d 29bc d411 933d e574 2f3d ae6b f43c
00000360: c655 3c3d 2b80 143d 7ab2 aabc 2a6a 21bc
00000370: ba70 823c 6878 593b 0194 14bd cbcf 673d
00000380: 457d 333d 8b47 703b e14b 2c3c 0395 2bbd
00000390: 9b2d 8dbc 27fa 053b 87e1 003d 12c1 ac3d
000003a0: f6e0 52ba 868e b03b 5ad7 2b3b 0ed8 30bc
000003b0: cafc 40bc 6400 0fbc fcad 683d 48d0 fcba
000003c0: 20ab 113d 6ea7 833c 3856 833d 92e4 473d
000003d0: e2a3 0b3c cafa 943d aa74 6a3c 2a80 99bb
000003e0: d019 2f3c 8268 b93c e3ea 54bd bb93 9f3d
000003f0: cb46 2bbc 1046 82bb f036 38bd 00e6 d13b
0.054232538 0.074098065 -0.0064907162 0.056139115 -0.003552401 0.07333728 0.015649252 -0.016147107
0.07109739 0.024844768 -0.013371724 0.038836062 0.032056246 -0.0040544653 -0.033171978 0.026956737
-0.020002173 0.02798363 0.0042488724 -0.027732352 0.04053923 -0.051168453 0.0661907 0.05406451
-0.012296481 0.041236322 0.075115226 -0.007199768 0.06403087 0.054526374 0.029089581 0.013379166
-0.027454874 0.082809195 -0.0021488904 0.03797408 -0.030390749 -0.039758544 0.047014605 0.016321918
-0.023092873 0.060713626 -0.032984197 0.07449606 0.021332145 -0.03707771 0.027123338 -0.010528179
-0.035175998 0.0505619 0.06042851 0.031681467 0.01854903 0.028146803 0.010650945 0.054006927
0.02048963 -0.03520562 -0.03459505 0.06635145 0.050340142 0.05499106 0.05259801 0.047414448
0.07529268 0.05801661 0.025316982 0.026178468 0.07612401 0.05922518 -0.009697388 0.00038265527
-0.02877343 -0.022511205 -0.026955385 0.048016854 0.045776058 -0.045833543 -0.0073570604 -0.029457256
0.0022468097 -0.020321734 0.060119763 0.0626438 0.011466341 -0.0027285798 0.07076378 -0.0035367124
0.06278741 -0.0014363802 0.04411208 0.053506155 -0.02747819 -0.021138525 -0.03315829 0.016897202
-0.007713285 0.0045472537 0.03737995 0.049621522 0.020180378 -0.034711134 0.026354508 -0.020656798
0.06493294 -0.03636693 0.055456083 -0.011478597 0.03824558 -0.025341863 0.008947101 -0.0073824385
0.017758835 -0.0016140302 0.07130395 0.04765542 0.0069463127 -0.0367473 0.080375455 -0.016613875
0.041058987 0.076024756 0.06926593 0.033278465 0.0022203734 0.07299104 0.048669387 0.049616326
0.026319258 0.052138884 0.04814733 0.033528816 0.07388466 -0.03818441 0.023560114 -0.024518343
0.03670478 0.018587867 0.011869642 0.048702814 -0.012969915 0.045433212 0.054179713 -0.052492265
-0.015525291 0.08431248 -0.014413948 0.06934269 0.03961274 0.062437586 -0.038853016 0.054177307
0.027807044 -0.019226635 0.070595734 -0.020707438 -0.008947708 0.068561696 -0.020202298 0.009913045
-0.021300856 -0.01137732 0.006273496 0.019835845 -0.04166854 -0.03158136 0.08209275 0.027078792
0.06602981 -0.042096183 -0.019075984 -0.006111381 0.04612767 0.06772933 0.064025536 -0.03259095
-0.027792504 -0.0053537283 0.012647085 0.055255536 -0.057124157 0.006424551 0.05025895 -0.032135338
-0.02075633 0.03328151 -0.010523097 -0.021552507 0.0031801965 0.004732432 -0.005119679 0.07416632
0.014578869 0.034384064 0.037646156 -0.010428232 0.0057237973 0.045478214 0.00796577 0.04049186
0.08186415 0.022949187 0.022372711 -0.012715508 -0.012445693 0.0640347 0.009233181 -0.01863392
-0.011338506 0.068350784 0.013264108 0.06546706 -0.010333453 0.07181135 0.04283609 0.029836502
0.045980237 0.036255043 -0.020837057 -0.009851972 0.015922893 0.003318334 -0.03627396 0.05659465
0.04382064 0.0036663737 0.010516138 -0.041890156 -0.01723366 0.0020443292 0.03146508 0.08435263
-0.0008044386 0.005388084 0.0026220889 -0.010793699 -0.01177902 -0.0087281205 0.05680655 -0.0019288147
0.03556359 0.016071048 0.06412929 0.048801966 0.008522959 0.07274397 0.014310041 -0.004684468
0.0106873065 0.022632841 -0.051981818 0.07791849 -0.01045389 -0.0039756373 -0.044974267 0.006405592

gc5.weight f4 [256, 256]
00000000: 6d0e 81bb f4bc 81bc b68a 81b7 9f37 16bc
00000010: c3b3 43bd 8a9b 9cbc 2a03 d2bc 8ea1 0dbd
00000020: d0bf 163d a638 6abc f190 f4bc 5e67 0a3d
00000030: c00f 99bc db87 14bd 355d dbbb 7328 e83c
00000040: b928 863d a274 b63c e28f 953c 6a76 20bd
00000050: 6405 553c 31b3 c4bc 2f2d 743d fd16 f03b
00000060: 9a8c 063d 05bf f13c 25f4 2abc c128 cbbb
00000070: 5d87 523b e9ec f93c b9c0 6bbc d976 48bd
00000080: 8150 9435 15ba 0f3d e717 c2bb 6dd8 e8bb
00000090: 0928 6e3d 62ae 563d 407e a7bc 4a7c 42bd
000000a0: 52ca 8abc d1b9 e4bc 4d2b 00bd 86c3 06bc
000000b0: a80b b5bb 5618 873c 5a06 3ebd 3d5b 143d
000000c0: afaf 2fbd 9a62 8abc 6cd9 e93b f040 95bc
000000d0: a6ec f1bb ad9b b1bc d1ff 7c3d 106e 71bb
000000e0: 80be ebbb 22c3 513d aae4 2fbd b461 92bc
000000f0: 026e 023d 6ed1 1cbd 2fe3 d0bb 5dea 5d3d
00000100: 2ba5 673d 259a 5b3d e07b 293c 1407 38bd
00000110: 55d8 e83c ef58 403c 379e 11bb 79b7 9abc
00000120: b31c 893c 0303 603d 605a 12bd 3246 64bc
00000130: 54c9 2dbb 0641 923d 837a 21bc 10d8 f7ba
00000140: 63a2 503d d07a 8ebb 45b2 00bc 0e48 223d
00000150: 3fb4 633d c524 4a3d 1aac 4f3d 3464 3a3b
00000160: a618 943d c29a 97bc bae4 93ba c9cb b4bb
00000170: a13a 4b3d e940 493d dade 1fb9 e636 053c
00000180: 86a5 0fbc 00a6 48bd d759 2539 fa92 44bc
00000190: 32f4 a1bc f2fd 613d e2a7 1d3d a2d2 813d
000001a0: 0e23 f8b9 33d1 393d 179c 24bd 13b0 10bd
000001b0: 66c1 87bc 8c04 e4bb e45e e03b 64fe f23c
000001c0: 24dd 9bba 7f9c 8e3c 5d28 343d ea70 cbbc
000001d0: b1fd 2bbd 9b52 323c bce6 2b3c 1275 723c
000001e0: a05f 8a3c bc47 d8bc c271 09b9 c3bd 2cbd
000001f0: a315 9dbc e119 22bd f975 00bd ad8b 5dbc
00000200: 9481 0ebb 13b5 46bd 69e9 b0bc d2ca 5f3b
00000210: c781 7f3c fb11 313c 9b1e 043d b0e1 86bc
00000220: 92e4 923d faaa 8cbc 7fdf 17bc b9c5 29bb
00000230: 10cb 963b ba70 c3bc 4ebf 8e3d 5ce7 44bd
00000240: 2c93 9b3d f7b9 08bd 6efb b73b b709 b5b6
00000250: abdb 993b 7955 f63c 1a82 9c3d e9d4 32bc
00000260: a5b4 52bd 2309 fe3c 1376 9ebb 27bd dbbb
00000270: 5fae bbbc fa1a 06bc 757a 61b7 4595 2c3d
00000280: 526d 8cbb 6c36 803d 3ecf dbba 3273 8cbb
00000290: c93b b03c 90a1 af39 517e 6a3d 6950 533d
000002a0: a003 61bc ef26 053d 9da2 eb3b e9af 6e3c
000002b0: 2332 7e3d 59c0 08bd 1e84 57bd 8881 173d
000002c0: e848 393d 385b df3c 5089 4a3c 06cc 60bc
000002d0: 16e5 0c3a 3ca2 1abd 0cec 103d b016 863d
000002e0: f0ca 26bd 5d40 663d 9bdb 593b a9d8 3a39
000002f0: 0a8c 47bc 4447 ea3c 27a4 61bc c0a6 45bc
00000300: 30ff 4c3c d54b 963d 6aa8 8d3d be7e 283d
00000310: 47dd a4ba a077 44bc 78ce 833c 2322 7d3b
00000320: bfe1 463c 98cf ef3b b53a 5f3d 9ba1 20bb
00000330: 664b c23c d74a 363d 9f42 4339 57b4 963d
00000340: dc7f 38bb c998 67bc 10ee a6bc 7a6b f9bc
00000350: 4871 afbc 6f05 a93b 26b4 243d 1bcd d5bc
00000360: 1377 b63c 875a 8d3c 68aa 53bc 86b6 a63c
00000370: 135c 263d e903 ad3c ab94 5fbb ff92 573a
00000380: 9641 813d f9e4 0dbc 67a1 babc db7d 8d3d
00000390: a7d4 d9bb 2b83 723d 5af6 583b 1d68 9b3d
000003a0: 2b5c 173d 8128 1dbc a4d0 5dbd 9632 dd3a
000003b0: 992c b23c 9c85 bc3c 9112 06bd 505d 2c3d
000003c0: 9361 24bc 9998 91bc ce5d 07bd 8c5c 503c
000003d0: 43d0 853d 3bf9 aa3c ceeb 793d 0c3d e137
000003e0: 0777 09b9 b1a6 6c3c b76c 07bd 32da a5ba
000003f0: c7b3 1bbd 1af9 01bd 4521 38bd b546 003d
-0.0039384873 -0.01583717 -1.544259e-05 -0.009168535 -0.047778856 -0.019117136 -0.025636274 -0.0345779
0.03680402 -0.014295733 -0.02985427 0.033789985 -0.018684268 -0.036262374 -0.0066944608 0.0283396
0.06550736 0.022272412 0.018257085 -0.03917543 0.0130017735 -0.024011226 0.059613403 0.007326959
0.03284893 0.02951003 -0.010434185 -0.0061999266 0.003212414 0.030508475 -0.01438921 -0.048941467
1.1050289e-06 0.03508957 -0.0059232595 -0.007105878 0.05814365 0.0524124 -0.020445943 -0.047481813
-0.016942177 -0.027920635 -0.031291295 -0.008225327 -0.005525071 0.016491096 -0.046392776 0.036219824
-0.042892154 -0.01689272 0.0071365144 -0.018219441 -0.007382947 -0.021680677 0.061767403 -0.0036839284
-0.00719434 0.051211484 -0.04294268 -0.017868854 0.031843193 -0.038285665 -0.0063747386 0.054178584
0.056554 0.0536138 0.0103444755 -0.044928625 0.028423468 0.011739953 -0.0022219548 -0.018886315
0.016737318 0.054690372 -0.03573072 -0.0139327515 -0.0026517706 0.071413085 -0.009855869 -0.0018908996
0.050936114 -0.0043481365 -0.007855003 0.039619498 0.055591818 0.049351472 0.05070124 0.0028441073
0.07231264 -0.018506411 -0.0011283376 -0.005517457 0.04961646 0.04913417 -0.0001524644 0.008130765
-0.008767491 -0.048986435 0.00015769094 -0.011997933 -0.019769762 0.05517382 0.038490184 0.06339003
-0.00047328364 0.045365524 -0.04018792 -0.035324167 -0.016571712 -0.00695855 0.0068472493 0.029662319
-0.0011891467 0.017408608 0.043983806 -0.024834115 -0.041989986 0.0108839525 0.010492023 0.01479842
0.0168913 -0.026401393 -0.00013107716 -0.04217316 -0.019175356 -0.03957546 -0.031362507 -0.013522071
-0.0021744715 -0.04851253 -0.021595674 0.003414799 0.015594906 0.0108075095 0.03225575 -0.016465038
0.071725026 -0.017171372 -0.009269594 -0.0025905205 0.0046018437 -0.023857463 0.06970082 -0.048072204
0.0759643 -0.033380475 0.0056146896 -5.3953513e-06 0.004695376 0.030070053 0.076420024 -0.01091502
-0.051441807 0.031010216 -0.004835853 -0.0067058983 -0.022910295 -0.008185143 -1.3439557e-05 0.042134542
-0.004285493 0.0626038 -0.0016770137 -0.0042861933 0.021512883 0.00033498975 0.05724937 0.051590357
-0.013733774 0.032507833 0.007191016 0.014568307 0.062059533 -0.033386562 -0.05261623 0.036988765
0.045235544 0.027265176 0.012361839 -0.013720518 0.00053747126 -0.037752375 0.03538136 0.06547296
-0.04072088 0.056213725 0.0033242467 0.00017819054 -0.012179384 0.028598435 -0.013772047 -0.012063682
0.012512013 0.073386826 0.06916888 0.041136496 -0.0012578153 -0.011991411 0.016089663 0.0038625083
0.012138783 0.0073184483 0.054499347 -0.0024510387 0.023717593 0.044504967 0.00018621467 0.07358616
-0.0028152382 -0.014135548 -0.020377189 -0.030446757 -0.021416321 0.0051581184 0.040210865 -0.026098778
0.022273576 0.01725508 -0.012919046 0.020350706 0.040615153 0.021120029 -0.0034115713 0.0008223503
0.06311338 -0.008660548 -0.02278204 0.06908771 -0.0066476646 0.059207123 0.0033105821 0.075882174
0.036953133 -0.009592176 -0.054154053 0.0016876038 0.021749781 0.023012929 -0.03273255 0.042081177
-0.010033029 -0.01777296 -0.033048443 0.012717377 0.065338634 0.020870795 0.061015896 2.6850517e-05
-0.0001310968 0.014444039 -0.033062663 -0.0012653528 -0.038013246 -0.031731702 -0.044953603 0.03131743
