saved.model (torch, 960039 bytes, 12 tensors)

gc1.weight f4 [3, 64]
0	0x3dc38422	0.09546687
1	0x3dd0e2fd	0.101995446
2	0xbd7784a5	-0.060429234
3	0x3dd4e0c0	0.1039443
4	0xbc393959	-0.011305177
5	0x3c47fd68	0.012206413
6	0xbd937550	-0.0720011
7	0x3d976667	0.073925786
8	0x3dd5ee89	0.104458876
9	0x35682228	8.647644e-07
10	0x3de00b54	0.10939661
11	0x3c283c5d	0.010268298
12	0x3dba9ef5	0.0911235
13	0xb54ba598	-7.5864364e-07
14	0x3d811bc5	0.06304125
15	0xb08940b2	-9.98645e-10
16	0x3dd86c1c	0.10567495
17	0x3c544783	0.012956503
18	0xbd712bb3	-0.058879565
19	0x3d0f92ca	0.0350521
20	0xb1dba318	-6.3922805e-09
21	0x3c7f6309	0.015587577
22	0xbd8f865c	-0.07008049
23	0x3dac2fa9	0.08407528
24	0xb63c3d89	-2.8050001e-06
25	0xbd4de466	-0.050266646
26	0xbd1b316d	-0.037888933
27	0xbc3cbb09	-0.011519202
28	0x3c385836	0.0112515
29	0xbe015737	-0.12630926
30	0x3dd8964f	0.10575544
31	0xb7dd1b2c	-2.6357906e-05
32	0x3d9e03a6	0.0771554
33	0x3cb30a27	0.021855427
34	0xbd38d66c	-0.045126364
35	0x3d948c4f	0.07253324
36	0xbc64bb2c	-0.013960641
37	0x3dc556b4	0.09635678
38	0xaf8750dc	-2.461381e-10
39	0xbd75af7d	-0.05998181
40	0x3d0a2f3a	0.033736445
41	0xbd0516b8	-0.03249237
42	0x3d584293	0.052797865
43	0x3dd11b6c	0.102103084
44	0x3d7ec4b8	0.062199324
45	0x369cf456	4.6776067e-06
46	0x3d7c3647	0.0615752
47	0xb0a3d5d4	-1.1920585e-09
48	0x3d84de9c	0.06487772
49	0xb3bb83a4	-8.7318114e-08
50	0xb9aa37e9	-0.00032466583
51	0xbc5138e8	-0.012769915
52	0xb45650d0	-1.9959703e-07
53	0x3d0ed8ef	0.034874853
54	0xbbe54912	-0.006997236
55	0x3c8c8365	0.017152498
56	0x3d09e928	0.03366962
57	0xbc1b1635	-0.009465744
58	0x3d9d4155	0.07678477
59	0xbc71b508	-0.014752634
60	0xbac9d725	-0.0015399201
61	0xbc44313b	-0.011974628
62	0xbbed88e6	-0.0072489856
63	0x3144229a	2.8541423e-09
64	0x3d4b274d	0.049598027
65	0xbc8a5324	-0.016885348
66	0x3dafd3d8	0.08585328
67	0xbda165b5	-0.07880727
68	0xbc8dbd76	-0.017302256
69	0xbd9ea2c5	-0.077458896
70	0x3de88adb	0.113546096
71	0x3d570963	0.052499186
72	0x3dfe0b31	0.12404478
73	0xb75a3cf8	-1.3008008e-05
74	0xbdf5313f	-0.119722836
75	0xbddcbf37	-0.10778659
76	0xbda32a03	-0.079669975
77	0x385b8deb	5.234584e-05
78	0x3d568ae2	0.052378543
79	0x3782925f	1.5565367e-05
80	0xbd29df61	-0.041472796
81	0xbdad375c	-0.084578246
82	0x3da1972f	0.07890164
83	0xbd17697c	-0.036965832
84	0x33ac3536	8.019053e-08
85	0x3ad418f3	0.0016181752
86	0x3d9c1036	0.076202795
87	0xbdb1a1f5	-0.08673469
88	0xb1a884ee	-4.904556e-09
89	0x3cc3ed4d	0.023916865
90	0x3d10b13e	0.03532528
91	0xbc3d8d44	-0.011569325
92	0x3daf6429	0.08564026
93	0x3dc294a0	0.09501004
94	0xbdc661e2	-0.096866384
95	0x32de9a10	2.5914261e-08
96	0x3dbfe3e1	0.09369636
97	0xbcf81c64	-0.030286975
98	0xbd1c3524	-0.038136616
99	0xbdf5c92b	-0.1200126
100	0xbc6a37f1	-0.014295564
101	0x3cdfc6d4	0.027316488
102	0x305e7c7a	8.094002e-10
103	0xbde5576f	-0.11198317
104	0x3c73a966	0.014871931
105	0xbd954d11	-0.0729009
106	0xbdcc00df	-0.09961104
107	0xbd98135e	-0.07425569
108	0xbdefd228	-0.11710006
109	0x36b276ad	5.318629e-06
110	0x3df000c0	0.11718893
111	0xaf84b49e	-2.4138996e-10
112	0x3d4d160a	0.050069846
113	0xb9161a7c	-0.00014314981
114	0xb3052550	-3.100041e-08
115	0xbc23a12f	-0.00998716
116	0xb04a436e	-7.3582995e-10
117	0xbd5a6373	-0.0533175
118	0xbc000ad4	-0.007815082
119	0xbdd2688d	-0.10273848
120	0xbb4fcc2d	-0.0031707392
121	0xbd3f7b63	-0.04674853
122	0xbcf5deb0	-0.030013412
123	0xbc6e16d7	-0.014531813
124	0xbb064e52	-0.002049346
125	0xbc6862d5	-0.01418372
126	0xbbe89d02	-0.007098795
127	0xb63b3d4c	-2.790085e-06
128	0x3de11f6a	0.1099232
129	0xbca5459e	-0.020174798
130	0x3db0fa1e	0.08641456
131	0x3cec231c	0.028825335
132	0xbc8536ec	-0.01626154
133	0x3d962368	0.07330972
134	0xbd278962	-0.040902503
135	0xbd3069f4	-0.043069795
136	0xbdd731a0	-0.10507512
137	0xb9b39c4e	-0.00034257997
138	0x3d2e760a	0.04259304
139	0xbd1ffb0a	-0.03905777
140	0x3d470d0a	0.04859642
141	0xb7468ac0	-1.1834025e-05
142	0x3dc9027f	0.09814929
143	0x3567dde3	8.6377094e-07
144	0xbc16112d	-0.009159368
145	0x3caccce7	0.021093799
146	0x3d90bc13	0.07067122
147	0x3de0e079	0.10980315
148	0x38cf83e1	9.8950935e-05
149	0x3b9732d1	0.004614212
150	0x3d10efb8	0.035384864
151	0xbd488d2d	-0.04896276
152	0x2faff6db	3.2007716e-10
153	0xbd8906b1	-0.066907294
154	0x3deeac31	0.11653937
155	0xbbdf89af	-0.006821833
156	0x3d962a00	0.073322296
157	0x3d3ab4d2	0.0455826
158	0x3d0e06ce	0.03467446
159	0x33055771	3.1046003e-08
160	0x3dba8fd3	0.091094635
161	0x3d073557	0.033009853
162	0x3c81a5c9	0.015826123
163	0xbde7655e	-0.11298631
164	0x3c7c8e67	0.015414811
165	0xbc8777fe	-0.016536709
166	0xb1a49bf8	-4.79076e-09
167	0x3dafb73f	0.08579873
168	0x3d1086fd	0.035284985
169	0xbd80d165	-0.06289939
170	0xbd73ec7e	-0.05955171
171	0xbc48eebf	-0.012263953
172	0x3d6fdf4a	0.058562554
173	0x35948ff0	1.1068751e-06
174	0xbda22984	-0.07918075
175	0x315e6678	3.2363499e-09
176	0xbdb1a1b4	-0.086734205
177	0x3067fef5	8.4399626e-10
178	0x355656ec	7.98477e-07
179	0xbc871694	-0.016490258
180	0x303ee174	6.9441985e-10
181	0x3ac6e3f7	0.001517414
182	0x3ac18d04	0.0014766757
183	0xbd9a5a7a	-0.07536788
184	0x3d7b8d1e	0.061413877
185	0x3d70c92f	0.058785614
186	0x3cc08fa4	0.023505993
187	0xbc609fdf	-0.013709991
188	0xba8ebfd4	-0.001089091
189	0xbc2081a7	-0.0097965365
190	0xbb98d5c0	-0.004664153
191	0xb14ead78	-3.007555e-09

gc1.bias f4 [64]
0	0x3db6c007	0.08923345
1	0x3deafcbf	0.11473989
2	0xbcfda5fe	-0.03096294
3	0xbd16d5b2	-0.03682489
4	0xbc80bcbf	-0.015715001
5	0xbc2d5c51	-0.010581092
6	0x3cef7ecc	0.029235266
7	0x3d35e254	0.044405296
8	0xbde51e05	-0.111873664
9	0xb1997990	-4.466706e-09
10	0x3ddc62bf	0.10761022
11	0x3d11d414	0.035602644
12	0xbb8868d5	-0.0041628876
13	0xb8bc8725	-8.989711e-05
14	0xbd9021b5	-0.07037679
15	0xb89c5227	-7.453962e-05
16	0xbcf4c859	-0.02988069
17	0x3d1ae08d	0.037811805
18	0x3dbb4ef7	0.09145921
19	0x3d8ebd51	0.06969703
20	0xb87694f8	-5.878971e-05
21	0x3b8c90e0	0.0042897314
22	0xbc72a328	-0.014809407
23	0x3e0313b7	0.1280049
24	0x301523b0	5.42566e-10
25	0xbce960c7	-0.02848853
26	0x3d751d62	0.059842475
27	0xbc3caf8b	-0.011516462
28	0xbd91655b	-0.0709941
29	0x3dcca1ce	0.09991799
30	0xbd7da9e0	-0.061929584
31	0xb0cf6f2c	-1.5092829e-09
32	0xbe144665	-0.14479978
33	0x3dbf4a1b	0.09340306
34	0x3dcc2976	0.099688455
35	0x3d2c9f5d	0.04214417
36	0xbc6c0cd3	-0.014407354
37	0xbdf60367	-0.12012368
38	0xb7095a04	-8.186795e-06
39	0x3d942ac1	0.07234717
40	0x3d8f6abd	0.070027806
41	0x3ded7526	0.1159461
42	0x3d89952b	0.06717905
43	0x3cc4baf9	0.024014937
44	0xbc1a91f9	-0.009434217
45	0x3690dcda	4.317245e-06
46	0xbdedf950	-0.11619818
47	0xb91ca824	-0.00014939957
48	0x3d7b443c	0.06134437
49	0xb26420ff	-1.3278849e-08
50	0xb0c68f18	-1.4447066e-09
51	0xbc519db4	-0.012793947
52	0x30bbeed3	1.3673919e-09
53	0xbd1fcc50	-0.039013207
54	0xbbf2dca3	-0.007411556
55	0x3be4cd7d	0.006982504
56	0xbd276bc7	-0.04087427
57	0x3d9a5261	0.07535244
58	0xbd7b65f9	-0.061376546
59	0xbc6fd83b	-0.014638956
60	0xbaeeed3a	-0.0018228658
61	0xbc852efc	-0.016257755
62	0xbc12957e	-0.0089467745
63	0xb94a5144	-0.00019294495

gc2.weight f4 [64, 128]
0	0xb36fbc64	-5.5817864e-08
1	0xbd57329a	-0.05253849
2	0x3d5c83a7	0.05383649
3	0x3d5053e8	0.05086127
4	0x3d92a092	0.071595326
5	0xbd4a52cb	-0.049395364
6	0x3d803e6c	0.06261906
7	0xbd2fc07a	-0.04290817
8	0x3cc6a442	0.024248246
9	0x3da1362a	0.07871659
10	0xbb59cf50	-0.003323514
11	0x3bb11586	0.005404177
12	0xbc3478f3	-0.011015165
13	0xbd3b5a4e	-0.045740418
14	0x3d12244a	0.03567914
15	0xbd97c6a9	-0.07410938
16	0x3d8b4c01	0.06801606
17	0xbc42ac2f	-0.011881872
18	0x3d887d7b	0.066645585
19	0xbd0555e7	-0.032552626
20	0xbc4d1a88	-0.012518533
21	0x3cc89633	0.024485683
22	0x3d7a008e	0.061035685
23	0xbdaee614	-0.08539978
24	0xbc49b6b6	-0.012311628
25	0xbd58e075	-0.052948434
26	0xbbb11282	-0.0054038176
27	0xbcce2773	-0.025165295
28	0xbd0b9877	-0.03408095
29	0xbc770ddb	-0.015078987
30	0xbdb25036	-0.08706705
31	0x3d746a3b	0.05967162
32	0x3daec77f	0.085341446
33	0xbb81f2bc	-0.003965704
34	0xbbf4e83c	-0.0074739736
35	0xbbc424f1	-0.005985849
36	0xbd8d7be4	-0.06908396
37	0xbc69fc27	-0.014281309
38	0x3c913b3a	0.017728437
39	0xbd65bf8e	-0.056090884
40	0xbd48839e	-0.048953645
41	0xbc313fa4	-0.010818396
42	0x39b69f17	0.00034832276
43	0xbc875b0c	-0.016522907
44	0xbbc01fd1	-0.005863168
45	0xb958e3cc	-0.00020684226
46	0xbcf2015a	-0.02954166
47	0xbd09e337	-0.033663955
48	0xbd86e4ac	-0.065865844
49	0x3da872bb	0.08225008
50	0xbc2a459c	-0.010392573
51	0x3d0f9880	0.035057545
52	0xbcbf1d11	-0.02332929
53	0x3c9d80d4	0.01922647
54	0x3db310b8	0.08743423
55	0x3d562486	0.052280925
56	0xbd88792b	-0.06663736
57	0x3cc8678c	0.024463437
58	0x3dc40c58	0.09572667
59	0x3c812f86	0.015769731
60	0x3d8b7b0f	0.06810581
61	0x3dcb0b17	0.099142246
62	0xb9bc4524	-0.00035909668
63	0x3ce1e0e2	0.027573053
64	0xbd8d4034	-0.068970114
65	0xbb8173b1	-0.003950559
66	0x3d98f4a4	0.074685365
67	0xbacf341f	-0.001580838
68	0xbd38763a	-0.045034625
69	0xbd9212d1	-0.07132495
70	0xbd49dd92	-0.04928357
71	0xbdb1b23e	-0.08676575
72	0xbd853f6e	-0.06506239
73	0xbc4c7bb2	-0.012480663
74	0xbc1fc33e	-0.009751139
75	0x3c9f350b	0.019434473
76	0xbc9ecaec	-0.01938387
77	0xbc6c9ddc	-0.0144419335
78	0xbc3e1cee	-0.011603577
79	0xbd51627a	-0.051119305
80	0xbb989ebd	-0.004657595
81	0x3d556cfe	0.052105896
82	0xbcfa70a1	-0.030571284
83	0x3533b92c	6.6952157e-07
84	0xbc18f010	-0.009334579
85	0xbcc6514a	-0.024208684
86	0xbd11c6fa	-0.03559015
87	0xbd865984	-0.065600425
88	0xbda3837a	-0.079840615
89	0xb7881ebb	-1.6226773e-05
90	0x3dbb98b3	0.091599844
91	0xbc77700a	-0.015102396
92	0xbc479cf9	-0.012183421
93	0x3c172b7f	0.009226679
94	0x3cbfc495	0.023409167
95	0x3d581827	0.05275741
96	0x3d9931ab	0.074801765
97	0xbaba9a7a	-0.0014236711
98	0xbcf14b42	-0.029454831
99	0xbad55ca0	-0.0016278215
100	0xbc57de22	-0.013175519
101	0xb9b7ef4a	-0.00035082764
102	0xbd2cfde9	-0.042234335
103	0x3db56460	0.08857036
104	0xbcbb35cc	-0.0228528
105	0xbd206fa4	-0.03916897
106	0xb3f328b8	-1.1322976e-07
107	0xbb82a076	-0.0039864136
108	0x3d1e7dbe	0.038694136
109	0x3c71e306	0.014763599
110	0x3c441ff5	0.01197051
111	0xbd6ac413	-0.057315897
112	0xbda6bd7b	-0.08141609
113	0x3c507c1e	0.012724904
114	0x3dbe8c79	0.09304137
115	0x3d745a9d	0.059656728
116	0xbd43a34f	-0.047763165
117	0xbc1ebfb0	-0.009689257
118	0xbd63745e	-0.0555309
119	0xb4de7e72	-4.1442723e-07
120	0x3ccec6bb	0.025241246
121	0x3d3f106c	0.04664652
122	0x3d996f4c	0.07491931
123	0xbb9fb9c2	-0.004874439
124	0x3b289be1	0.0025727677
125	0xbd65ef44	-0.056136385
126	0x3d2cd633	0.042196464
127	0x3daf918d	0.085726835
128	0x34452723	1.8361293e-07
129	0x3db5d69d	0.08878825
130	0xbd85f6d3	-0.065412186
131	0xbcc7ce48	-0.024390355
132	0x3d732763	0.059363734
133	0xbbb7696c	-0.005597284
134	0xbc9b668c	-0.018969797
135	0xbd3807f7	-0.04492947
136	0x3d4d4b22	0.05012048
137	0x3d1e6267	0.038668063
138	0x3d19722f	0.03746241
139	0xbd37c095	-0.044861395
140	0xbd810567	-0.062998585
141	0xbbd3bb2e	-0.0064615225
142	0x3c99b19c	0.018761449
143	0xbcea385b	-0.028591326
144	0xbc4311d8	-0.01190611
145	0xbc501e81	-0.012702585
146	0xbc151f4d	-0.009101701
147	0xbc8d01dd	-0.017212803
148	0xbc4f14c9	-0.012639233
149	0xbd9e150f	-0.0771886
150	0xbd94670e	-0.072462186
151	0xbd49f8c3	-0.049309503
152	0xbd1a13de	-0.037616603
153	0x3ce2d6ef	0.027690379
154	0x3b827a82	0.003981889
155	0xbc84640e	-0.016160991
156	0x3dae065e	0.08497308
157	0x3d2f9080	0.042862415
158	0x3d75c912	0.06000621
159	0xbd68f0cb	-0.056870263
160	0xbcd19de4	-0.025587983
161	0x3d2a9275	0.04164358
162	0xbd590953	-0.052987408
163	0xbc7e7a53	-0.015532094
164	0x3bacde96	0.0052755577
165	0xbc692764	-0.014230583
166	0xbd7cc76a	-0.061713614
167	0x3d306ebc	0.043074355
168	0x3da0a971	0.078448184
169	0x3c3b1923	0.011419567
170	0xbabc6967	-0.0014374674
171	0xbd929bd2	-0.071586266
172	0xbc317b5e	-0.010832636
173	0xb76daab4	-1.4166046e-05
174	0x3d2ca9b5	0.042154033
175	0xbb45db62	-0.0030190577
176	0xbcefa62a	-0.029254038
177	0x3d6898a6	0.056786202
178	0xbcadef26	-0.021232199
179	0x3d8889fc	0.066669434
180	0xbce16670	-0.027514666
181	0x3c5e7dce	0.013579799
182	0xbc50c646	-0.012742585
183	0x3cb466f9	0.022021757
184	0xbc8bb6b3	-0.017054891
185	0x3d5d45c7	0.054021623
186	0x3c0940b8	0.008377247
187	0x3d78df1c	0.06075965
188	0x3dc07c82	0.09398748
189	0xbd064c27	-0.03278747
190	0xb546e1dd	-7.408942e-07
191	0x3da60fba	0.08108468
192	0x3d7b047c	0.061283574
193	0xbd2ee6ff	-0.042700764
194	0x3b113a35	0.0022159938
195	0x3500fc31	4.80507e-07
196	0xbd7da679	-0.06192634
197	0x3c82fb5d	0.015989
198	0x3d095812	0.033531256
199	0x3c7c3804	0.015394215
200	0xbcb26531	-0.021776767
201	0x3db837ee	0.08995043
202	0xbbb30bed	-0.005464068
203	0xbd433355	-0.047656376
204	0xbbb8e27a	-0.0056422325
205	0xbc5f57be	-0.013631759
206	0xbc2a3925	-0.010389601
207	0xbd47996f	-0.04873031
208	0x3d20411f	0.039124604
209	0xbd15bdb1	-0.036557857
210	0xbd847fc4	-0.06469682
211	0xb59b541a	-1.1572877e-06
212	0x3daab63a	0.08335538
213	0x3d982e4f	0.07430708
214	0x3db258e1	0.087083586
215	0x3d85c317	0.06531351
216	0x3d6ebfba	0.058288313
217	0xba84703a	-0.0010104247
218	0xbd314f7e	-0.0432887
219	0xbc34e4ef	-0.01104091
220	0xbc46e9df	-0.01214072
221	0xbda4ae30	-0.08041036
222	0xbcd6b993	-0.026211536
223	0x3ca85227	0.020546986
224	0x3d5dea14	0.054178312
225	0xbb23712b	-0.002493928
226	0xbc1618d9	-0.009161198
227	0xb925ccb6	-0.00015811887
228	0xbc50da2f	-0.0127473315
229	0xbd51f570	-0.051259458
230	0x3d632165	0.05545177
231	0xbc3238f3	-0.010877836
232	0x3db8230b	0.08991059
233	0x3d5a2b13	0.053263735
234	0x3b82bc44	0.003989728
235	0x3c7a9b8a	0.015295872
236	0x3c920fa6	0.017829727
237	0xbb81a210	-0.003956087
238	0xbbaa82f7	-0.0052036005
239	0x3c2438d4	0.0100233145
240	0x3d0afcc3	0.03393246
241	0x3dbc8a54	0.092060715
242	0xbc41cf2c	-0.011829179
243	0xbcecdad0	-0.028912932
244	0xbc97144c	-0.018442295
245	0xbd2b78cd	-0.04186325
246	0x3ccee227	0.025254322
247	0x35de8684	1.6579438e-06
248	0x3d9e799f	0.07738041
249	0x3d23a2df	0.039950248
250	0xbd78702d	-0.060653854
251	0xbc10e404	-0.008843426
252	0xbb7212f8	-0.0036937576
253	0xbc3decc9	-0.0115920985
254	0x3c801b07	0.015637888
255	0xbd8fae17	-0.07015627

gc2.bias f4 [128]
0	0xb7f2bc33	-2.8936285e-05
1	0x3d63f2ec	0.05565159
2	0x3dbc15b7	0.09183829
3	0x3d7ff804	0.062492386
4	0xbbddcd73	-0.006768876
5	0xbd54c359	-0.05194411
6	0xbd94764f	-0.07249128
7	0xbcd9ce0d	-0.02658751
8	0xbd08ce54	-0.033399895
9	0xbd838610	-0.06422055
10	0x3d130e12	0.03590209
11	0xbcc9e636	-0.024645906
12	0x3d20a952	0.039223976
13	0xbcbdc159	-0.023163484
14	0xbc3beb7a	-0.011469716
15	0xbc71fa07	-0.014769084
16	0x3d9340f6	0.07190125
17	0xbc65d9be	-0.014028965
18	0xbd454f70	-0.04817146
19	0xbad4a4b4	-0.0016223402
20	0xbc5bd1f5	-0.013416757
21	0x3ba39995	0.0049926736
22	0x3d9afb30	0.075674415
23	0x3ca78eea	0.020453889
24	0x3cb7b635	0.02242575
25	0x3ceebda4	0.029143162
26	0xbd2bb5cf	-0.041921433
27	0xbc992267	-0.018693162
28	0x3d46eed7	0.04856762
29	0x3cf221e9	0.029557185
30	0x3d6f7a75	0.058466394
31	0xbcc9431d	-0.024568135
32	0x3dcbb209	0.09946067
33	0x3d879a61	0.06621242
34	0xbcac6f7c	-0.021049254
35	0xbc1f6585	-0.009728794
36	0x3d048378	0.03235194
37	0xbc7594c7	-0.014989085
38	0xbd1ae172	-0.037812658
39	0x3cc11c81	0.023573162
40	0x3c9be572	0.019030306
41	0x3d2562c6	0.0403774
42	0x3b094ee2	0.0020951559
43	0x3dbbeafd	0.0917568
44	0xbce785a4	-0.028261967
45	0xbc17a09b	-0.0092546
46	0x3d84db6f	0.06487166
47	0xbc1526d1	-0.009103493
48	0x3d11735a	0.0355104
49	0xbb6de15b	-0.0036297652
50	0xbc5849aa	-0.013201157
51	0x3c4d3c5b	0.012526597
52	0x3d587a94	0.052851275
53	0x3d9bf730	0.07615507
54	0x3d9ea313	0.07745948
55	0x3c4cbb31	0.012495802
56	0x3d9f55da	0.07780047
57	0x3c974205	0.018464098
58	0x3c9cebd7	0.019155426
59	0xbbc43a4a	-0.005988394
60	0x3b9a69a3	0.0047123
61	0x3d29bd9c	0.04144059
62	0xbbea8855	-0.0071573653
63	0x3d90b8b9	0.07066483
64	0xbcac5d30	-0.021040529
65	0xbcfea33e	-0.0310837
66	0x3d22067e	0.039556973
67	0xbbfeeb89	-0.007779543
68	0x3d90d132	0.07071151
69	0x3d9a3e6e	0.07531439
70	0x3cf04f39	0.029334651
71	0xbc999c77	-0.018751366
72	0x3b4db1fb	0.0031386602
73	0x3d618cad	0.0550658
74	0xbc00346c	-0.007824998
75	0xbc816ab1	-0.015797945
76	0xbc2d4fa6	-0.010578072
77	0xbc64ce1c	-0.013965156
78	0xbc427840	-0.01186949
79	0xbd3fcd29	-0.046826515
80	0x3da03ea9	0.078244515
81	0x3d89b2d4	0.06723562
82	0xbd47d7fd	-0.048789967
83	0xba57dacb	-0.0008234202
84	0x3da9afd5	0.082854904
85	0x3cc2979d	0.023753935
86	0x3d5c7010	0.05381781
87	0x3d0203d5	0.031741936
88	0xbd279093	-0.04090936
89	0xbbf576a7	-0.007490951
90	0x3d6d7e8f	0.057982024
91	0xbc799500	-0.015233278
92	0xbc466165	-0.012108182
93	0x3c7885f9	0.01516866
94	0xbc9f8fdf	-0.019477783
95	0x3cc86da4	0.024466343
96	0x3d73380a	0.059379615
97	0xbc17d497	-0.009266994
98	0xbbfecee0	-0.0077761263
99	0xbbac0ac3	-0.0052503063
100	0xbc623017	-0.013805411
101	0x3b29953b	0.0025876302
102	0x3db864b2	0.09003581
103	0x3ae96b02	0.001780838
104	0x3d81f922	0.063463464
105	0xbd18db92	-0.037318774
106	0xbbc6ef15	-0.0060709813
107	0xbd6c70f1	-0.057724897
108	0xbbe3b43e	-0.006948977
109	0x3c689c4e	0.014197422
110	0xbd0c039b	-0.034183126
111	0x3dc1b115	0.09457604
112	0x3cef98bf	0.02924764
113	0x3d752bb0	0.059856117
114	0x3dd49921	0.103807695
115	0x3d4c67d7	0.049903717
116	0xbbbea76d	-0.0058182986
117	0x3d43cce7	0.047802832
118	0x3dd061fe	0.101749405
119	0xb713e506	-8.8152065e-06
120	0xbb6990dc	-0.0035639321
121	0x3d3b76b2	0.045767494
122	0xbc75dba9	-0.015005984
123	0xbc3db84a	-0.0115795825
124	0xbc633505	-0.013867621
125	0xbd23c592	-0.03998334
126	0x3d48d454	0.049030617
127	0x3d94261b	0.072338305

gc3.weight f4 [128, 256]
0	0xafc0fb99	-3.5103367e-10
1	0x31da574a	6.3545587e-09
2	0x2ff5c15c	4.470263e-10
3	0xb3177af2	-3.5269245e-08
4	0x2fab5821	3.1167338e-10
5	0xb1c1d0eb	-5.6407905e-09
6	0x323c716f	1.0968832e-08
7	0x32770ffa	1.4380925e-08
8	0xb34dfc98	-4.7960015e-08
9	0x30a437e8	1.194846e-09
10	0x3308abc1	3.1821177e-08
11	0x32772c10	1.4387311e-08
12	0x33ada9e4	8.086843e-08
13	0x32740cfb	1.4205621e-08
14	0xaf1d4694	-1.4304141e-10
15	0x3217ac3d	8.828519e-09
16	0x31ad2694	5.0393485e-09
17	0x327c9229	1.47015635e-08
18	0xb2670ff1	-1.3449594e-08
19	0x308ba2a7	1.015981e-09
20	0x31b571b7	5.280721e-09
21	0xb22b459d	-9.969338e-09
22	0x2e21a8ba	3.675702e-11
23	0x3330a453	4.1127645e-08
24	0xb2f81bf0	-2.8883704e-08
25	0x31947061	4.320143e-09
26	0x31028810	1.8994832e-09
27	0x30b3f3ed	1.3093292e-09
28	0xb12451fe	-2.3911748e-09
29	0x318c3ca8	4.081432e-09
30	0x323cbf6c	1.09865645e-08
31	0xb34e2680	-4.7998128e-08
32	0x3200a5a7	7.488246e-09
33	0xafe2f4a6	-4.1282994e-10
34	0x33fb642a	1.1706318e-07
35	0xb34247d7	-4.5234483e-08
36	0x32089a51	7.951329e-09
37	0x32f3d254	2.838457e-08
38	0xb20eadfc	-8.305047e-09
39	0xae42f3d4	-4.4327056e-11
40	0xb16e47e8	-3.4674432e-09
41	0xb1a91d32	-4.9218665e-09
42	0x326ee3c8	1.3905215e-08
43	0xb2b0f0eb	-2.0598653e-08
44	0xb145c2ac	-2.8777931e-09
45	0x324725b9	1.1591902e-08
46	0xb2860a68	-1.5604385e-08
47	0xb20aa4da	-8.07014e-09
48	0xb1a61734	-4.8338737e-09
49	0x3275a4cd	1.4298348e-08
50	0x323650e0	1.0612183e-08
51	0xb28a8abb	-1.6128402e-08
52	0xafa1e70c	-2.9449898e-10
53	0x32a4ffa1	1.920836e-08
54	0x3010b439	5.2643007e-10
55	0xb111cd89	-2.121711e-09
56	0xb0e7ad72	-1.6856758e-09
57	0xb3b9e4f5	-8.656381e-08
58	0x3046cdff	7.232472e-10
59	0xb2216723	-9.394884e-09
60	0x322eab4b	1.01670805e-08
61	0x3284e1ec	1.546956e-08
62	0x317df20c	3.6953933e-09
63	0x31ff2f2f	7.426841e-09
64	0xb2c1c0b9	-2.2555797e-08
65	0xb2a7248c	-1.9457978e-08
66	0xafc5b43f	-3.5962164e-10
67	0xb28c8f16	-1.6363213e-08
68	0x30c2b4d4	1.4166752e-09
69	0xb2c25c20	-2.2626466e-08
70	0x32c70875	2.3170495e-08
71	0x3297d8bd	1.7677275e-08
72	0x322342b3	9.503014e-09
73	0x3282dba9	1.5233882e-08
74	0x332e3526	4.056087e-08
75	0x31843795	3.8480246e-09
76	0xb0206634	-5.83529e-10
77	0xb381c224	-6.0423446e-08
78	0xb2309ff4	-1.02809175e-08
79	0xb07f535c	-9.288692e-10
80	0x32b88c14	2.148412e-08
81	0xb1c8603e	-5.8317076e-09
82	0xae83fb05	-6.00178e-11
83	0xb22c5fdd	-1.00335145e-08
84	0xb2cf411e	-2.4127583e-08
85	0xb2e28233	-2.636907e-08
86	0xb203a792	-7.663305e-09
87	0x3248c354	1.1685945e-08
88	0x320160be	7.530785e-09
89	0xb29198dc	-1.6949734e-08
90	0xb1c81570	-5.8232033e-09
91	0x324e1266	1.19949615e-08
92	0xb40d3b60	-1.3153249e-07
93	0x303410fd	6.550776e-10
94	0x32a27ac7	1.8915115e-08
95	0x33d1c07a	9.767332e-08
96	0xb31efe50	-3.7018538e-08
97	0x2f6b0156	2.13736e-10
98	0xb16516f8	-3.3336942e-09
99	0x2ed1b8bc	9.537035e-11
100	0xb057b97b	-7.848013e-10
101	0x338f1dda	6.6643864e-08
102	0x328098a5	1.4970576e-08
103	0xb0385386	-6.7057504e-10
104	0x31ddfcff	6.460709e-09
105	0xb211f0f1	-8.494895e-09
106	0x330407d2	3.0740757e-08
107	0x301880e2	5.548043e-10
108	0x32cf4956	2.4131321e-08
109	0x32a3a0f4	1.904889e-08
110	0xb2d27604	-2.4500885e-08
111	0xaf4616d8	-1.8016111e-10
112	0xaf04e376	-1.208614e-10
113	0x306f60e5	8.708539e-10
114	0xb2179e08	-8.825289e-09
115	0xb1863bbe	-3.906705e-09
116	0xb2880750	-1.5835809e-08
117	0x328b5966	1.6222383e-08
118	0x3214b125	8.655012e-09
119	0xb00e2a28	-5.1719207e-10
120	0x33b1e215	8.283329e-08
121	0xb3243974	-3.823648e-08
122	0x3216ca26	8.777112e-09
123	0xb22109a8	-9.373629e-09
124	0x332cf992	4.0273854e-08
125	0x3123bd30	2.3827162e-09
126	0xb2431977	-1.1356284e-08
127	0x31877004	3.941752e-09
128	0xb2376124	-1.0674089e-08
129	0x32a63a97	1.9351587e-08
130	0xb24f3675	-1.2061368e-08
131	0xb20a4eac	-8.050545e-09
132	0xb311044c	-3.376435e-08
133	0xb216a168	-8.767849e-09
134	0xb1884e61	-3.9670316e-09
135	0x32ac5002	2.0059819e-08
136	0x2e06876c	3.058835e-11
137	0x31df193e	6.493024e-09
138	0x3183c444	3.8349146e-09
139	0x32b27055	2.077301e-08
140	0x3272e78a	1.41389e-08
141	0xb016f33c	-5.491534e-10
142	0xb37ffca1	-5.960158e-08
143	0x322d0cc0	1.0072824e-08
144	0xb2bfb08f	-2.2315616e-08
145	0x304fe268	7.5627904e-10
146	0x31b5d87a	5.292404e-09
147	0x330a6d49	3.2230023e-08
148	0x34114c68	1.3531974e-07
149	0xb3138efc	-3.4356148e-08
150	0x329cae21	1.8239975e-08
151	0x323ac47c	1.08713e-08
152	0x311f9894	2.3224276e-09
153	0xb212240a	-8.506513e-09
154	0x321d1cae	9.145124e-09
155	0x30a3f236	1.1928651e-09
156	0x2de5dd5e	2.6132593e-11
157	0x31dfdc0a	6.5151697e-09
158	0xb220fd05	-9.370756e-09
159	0xb1b2c1ac	-5.2024998e-09
160	0x3286620f	1.5644245e-08
161	0xb03210d8	-6.477996e-10
162	0x30974f59	1.1009248e-09
163	0x3197df86	4.42009e-09
164	0x31bfbe69	5.5804787e-09
165	0xadac0c2c	-1.9559541e-11
166	0x32346fbe	1.0502786e-08
167	0x31f3e132	7.0978325e-09
168	0x30994f22	1.1154706e-09
169	0xb013b20f	-5.3731325e-10
170	0xb1dc2558	-6.407088e-09
171	0xb174d6e3	-3.5628822e-09
172	0x32841b12	1.5379133e-08
173	0xb0574966	-7.832085e-10
174	0xb0c2c13d	-1.4170279e-09
175	0x318e3f08	4.1399097e-09
176	0x327a396e	1.4564973e-08
177	0x32db4fe2	2.5531282e-08
178	0xb0ebddbd	-1.7161522e-09
179	0x30ebd225	1.7158227e-09
180	0xb1484771	-2.914444e-09
181	0x30370e00	6.659491e-10
182	0xaf89a591	-2.5037797e-10
183	0x31b6a3cb	5.3155182e-09
184	0x31a9de36	4.94381e-09
185	0xb31223ff	-3.4026012e-08
186	0xafe92aec	-4.241295e-10
187	0x307ffdc7	9.31291e-10
188	0xb19c2b2c	-4.5451056e-09
189	0x311dc48c	2.295823e-09
190	0xb16e8af9	-3.4712555e-09
191	0xb2d6e894	-2.5018643e-08
192	0x3081f944	9.456831e-10
193	0xb1096230	-1.9991937e-09
194	0x2d853dd0	1.51478e-11
195	0x320ae457	8.084576e-09
196	0x30009217	4.6773735e-10
197	0x32b38176	2.0897215e-08
198	0x3332a22c	4.159135e-08
199	0xb29d35aa	-1.830161e-08
200	0x321116a6	8.4452605e-09
201	0xb1b27966	-5.1942832e-09
202	0x32328de7	1.03932285e-08
203	0xb3efb13a	-1.1161542e-07
204	0xb237b7b6	-1.0693773e-08
205	0xb28661fe	-1.5644215e-08
206	0x2e3e3d18	4.325526e-11
207	0x2dbf6908	2.176083e-11
208	0xb1dba65c	-6.3926517e-09
209	0x331b8b12	3.6215233e-08
210	0x302c05fe	6.258175e-10
211	0x32e599e0	2.6729083e-08
212	0x317dca9a	3.6931511e-09
213	0xb17efd1d	-3.7105743e-09
214	0x3297c215	1.7666972e-08
215	0xb072957e	-8.825153e-10
216	0x3233a877	1.0457476e-08
217	0x32b923d1	2.1553122e-08
218	0xb0cbe348	-1.4834791e-09
219	0xb31314a8	-3.424489e-08
220	0x2d9434f0	1.6849161e-11
221	0xb1b6ab10	-5.3163447e-09
222	0xae0a62f5	-3.146546e-11
223	0xb00f8013	-5.22051e-10
224	0xb260c491	-1.308321e-08
225	0x2f0c20d4	1.2744589e-10
226	0x302a8336	6.20321e-10
227	0x31ddf0c2	6.4593175e-09
228	0x31b0c373	5.144494e-09
229	0xb399f4d2	-7.16915e-08
230	0xb25e6230	-1.2944426e-08
231	0xb31c5be9	-3.6405172e-08
232	0x30575ab0	7.834542e-10
233	0x30a13865	1.173032e-09
234	0xae5253c8	-4.7822885e-11
235	0x2e0a3bf0	3.1430802e-11
236	0x30f779dd	1.8006251e-09
237	0xb0716e96	-8.783244e-10
238	0xadf0c626	-2.7372837e-11
239	0x32852811	1.5501458e-08
240	0x31299dc3	2.4682414e-09
241	0x32723cc6	1.4100072e-08
242	0xb20994da	-8.0082945e-09
243	0x3230e19d	1.0295847e-08
244	0x3282b871	1.5217866e-08
245	0xb1938c45	-4.29421e-09
246	0x320a2d2d	8.042929e-09
247	0x33def391	1.0381985e-07
248	0xaf849e20	-2.4123015e-10
249	0xb0307aa8	-6.420273e-10
250	0xb092f876	-1.0693515e-09
251	0xb1a966c8	-4.9302322e-09
252	0xb17fb9c7	-3.7212986e-09
253	0x31b0c5c7	5.144759e-09
254	0x3087af8f	9.87244e-10
255	0xb18168fc	-3.7663295e-09

gc3.bias f4 [256]
0	0xbc1d593d	-0.009603796
1	0x3d77f6d2	0.06053812
2	0xbc132282	-0.008980395
3	0x3c835f59	0.016036676
4	0xbc3baa11	-0.011454121
5	0x3d0626d9	0.03275189
6	0x3d20dd10	0.03927332
7	0x3d0d5f2e	0.0345146
8	0x3da6d6bc	0.08146426
9	0xbc0effa5	-0.008727943
10	0x3d82bd91	0.06383813
11	0xbd2a93af	-0.04164475
12	0x3d29ef95	0.04148825
13	0x3d264dfc	0.040601715
14	0xba0f9b73	-0.0005478181
15	0xbbc7ce23	-0.0060975715
16	0x3d67c32a	0.056582607
17	0x3d17d035	0.037063796
18	0x3cfee7ba	0.031116355
19	0xbbbc4ef7	-0.005746718
20	0x3b04022e	0.00201429
21	0x3d74d8a4	0.059776917
22	0xbb92a5b2	-0.004475319
23	0x3d7bad1e	0.061444394
24	0x3a0ba5aa	0.0005327115
25	0xbbd886fb	-0.006607888
26	0x3d95de9c	0.0731785
27	0xbc2c9840	-0.010534346
28	0xbc505e89	-0.012717851
29	0x3da6d9bd	0.08146999
30	0x3d9c2c64	0.07625654
31	0x3d6cab0d	0.057780314
32	0xbc033897	-0.008009098
33	0xbb94a439	-0.0045361784
34	0x3d311406	0.043231986
35	0x3d0854a4	0.033283845
36	0xbd54ec2d	-0.051983047
37	0x3d47d342	0.048785456
38	0x3cb83567	0.022486402
39	0xbb9bd421	-0.0047555123
40	0xbb8cf8eb	-0.0043021343
41	0x3d242cea	0.040081896
42	0x3cb696d2	0.022288714
43	0x3c9b05fb	0.01892375
44	0xbc919166	-0.017769527
45	0xbcfbc753	-0.030734694
46	0x3d82b6bd	0.06382511
47	0x3d92c156	0.07165782
48	0x3d8b1c1a	0.06792469
49	0x3da2b275	0.07944194
50	0x3d7143f2	0.05890269
51	0x3c8e5205	0.017373094
52	0xbcb7f146	-0.022453915
53	0x3c3b773c	0.011442002
54	0x3b307964	0.0026927823
55	0x3d0819aa	0.0332276
56	0x3d37ce64	0.044874564
57	0x3d3dac85	0.046307106
58	0xbcc41a3d	-0.023938293
59	0x3d704234	0.058656886
60	0xbcde2d46	-0.027121197
61	0x3d283561	0.04106653
62	0xbc096c4b	-0.008387635
63	0x3d3f54c2	0.04671169
64	0x3d6779fd	0.05651282
65	0x3d42b7a3	0.04753841
66	0xbcfea630	-0.031085104
67	0x3cafcf86	0.02146126
68	0xbbf80ea3	-0.007570104
69	0xbc03709e	-0.0080224555
70	0x3d6464c3	0.055760156
71	0x3da27c36	0.079338476
72	0x3d9daf97	0.07699507
73	0x3d0e1e3b	0.0346968
74	0x3cc62b55	0.024190584
75	0xbb37d917	-0.002805298
76	0xbcadea0b	-0.021229764
77	0x3d8e77fe	0.069564804
78	0x3a362098	0.0006947606
79	0xbcedf20d	-0.029046083
80	0x3cbe5270	0.023232669
81	0x3d32bc06	0.043636344
82	0xbc416088	-0.0118028
83	0xbc1fdbab	-0.009756963
84	0x3d54f339	0.051989768
85	0x3d7e1cd2	0.062039204
86	0x3b6e6e5b	0.0036381695
87	0xbcc484d6	-0.023989122
88	0x3da6d891	0.081467755
89	0x3ce7aa2e	0.02827939
90	0x3d272db9	0.04081509
91	0x3d99a58d	0.075022794
92	0x3da3a77a	0.07990928
93	0xbc12ea35	-0.008966972
94	0x3cf012f1	0.029305907
95	0x3d1bc108	0.038025886
96	0x3cbca759	0.023029016
97	0xbc12e6db	-0.008966173
98	0x3c727357	0.014798007
99	0x3cc25e56	0.023726624
100	0xbd0de3fc	-0.03464125
101	0x3c9d67f1	0.019214602
102	0x3d10d64c	0.03536062
103	0xbbffa784	-0.007801952
104	0x3d5cc05a	0.05389438
105	0x3d37c4b2	0.044865318
106	0x3a19663b	0.00058517203
107	0xbc20faa3	-0.009825381
108	0x3cb4585f	0.022014795
109	0x3d504c43	0.05085398
110	0x39a64c01	0.00031718615
111	0xbcd892de	-0.02643722
112	0xbc1bfa38	-0.009520106
113	0xbcce6bad	-0.025197828
114	0x3cfd0f65	0.03089113
115	0xbd2d9f00	-0.042387962
116	0x3bd5696c	0.0065128114
117	0xbca400e1	-0.02001995
118	0xbca556b4	-0.020182945
119	0xbd02c9b8	-0.031930655
120	0x3d5a5350	0.05330211
121	0x3da37732	0.07981719
122	0x3dabb325	0.083837785
123	0xbbe2cfe7	-0.0069217565
124	0x3d4453bc	0.047931418
125	0x3d6cc645	0.057806272
126	0x3d0a8e7c	0.03382729
127	0x3d01256b	0.031529825
128	0x3d707e5d	0.05871426
129	0x3d4f4fd5	0.050613243
130	0x3be8b19a	0.00710125
131	0x3d0d8816	0.03455361
132	0x3d2ff6c6	0.04295995
133	0xbcb28afc	-0.021794789
134	0x3cb7eea0	0.022452652
135	0x3d88fdc2	0.066890255
136	0xbc295be6	-0.010336852
137	0x3d85b77a	0.06529136
138	0xbc7225bd	-0.014779505
139	0x3d9e6e8d	0.0773593
140	0x3ca94c40	0.020666242
141	0xbbc9861b	-0.00615002
142	0x3da066ab	0.07832082
143	0x3d551bf9	0.05202863
144	0x3d8d3da5	0.068965234
145	0x3d484040	0.0488894
146	0x3c691964	0.014227245
147	0x3c3a1a8c	0.011358868
148	0x3d715dda	0.058927394
149	0xbc19299c	-0.009348299
150	0x3d16e7af	0.036842044
151	0x3d76780c	0.06017308
152	0xbcc002e1	-0.023438873
153	0x3ccdf87b	0.025142899
154	0x3ccf373e	0.025294896
155	0xbc0acd81	-0.0084718475
156	0xbb0e3020	-0.0021696165
157	0xbc3ef76e	-0.0116556715
158	0xbba8ac67	-0.005147505
159	0x3da3a4f6	0.07990448
160	0x3d6e23de	0.058139674
161	0xbd117307	-0.03551009
162	0xbc200d5d	-0.009768811
163	0x3bcf0811	0.0063181003
164	0x3caa11ad	0.020760382
165	0xbc6da3a4	-0.014504347
166	0xbbb72ed5	-0.0055902996
167	0x3d5021f6	0.050813638
168	0x3d30fe8e	0.043211512
169	0xbb46a943	-0.003031329
170	0xbbae3477	-0.005316313
171	0x3d500f2e	0.050795726
172	0x3d47c599	0.04877243
173	0xbcc21d63	-0.023695653
174	0xbcec176a	-0.028819758
175	0x3c011065	0.007877444
176	0x3ca4960f	0.020091085
177	0x3d2f4d03	0.042798053
178	0xbc714949	-0.014726945
179	0xbd0db882	-0.03459979
180	0xbbfdd7e8	-0.0077466853
181	0x3c9d1c6d	0.019178594
182	0x3cb0423e	0.021515962
183	0xbc15fb27	-0.009154118
184	0xbc30ef47	-0.010799236
185	0x3d8f1fcf	0.06988489
186	0xbb44e289	-0.0030042252
187	0xbb70cc89	-0.0036743006
188	0xbc8a12d6	-0.016854685
189	0xbbaebd5a	-0.005332631
190	0xbc2190be	-0.009861169
191	0x3c895855	0.016765753
192	0x3b9caa61	0.004781053
193	0x3d9e0099	0.07714958
194	0xbc1ceb7b	-0.009577627
195	0xbcb150f9	-0.021645056
196	0xbd1444f4	-0.03619857
197	0x3cea154e	0.028574612
198	0x3c30b5dd	0.010785547
199	0x3d819a9d	0.06328318
200	0x3d5dab02	0.054118164
201	0xba96a972	-0.001149459
202	0x3d0b58d2	0.034020253
203	0x3d8bcebd	0.068265416
204	0x3d3a7d9f	0.045529958
205	0x3d274b97	0.040843572
206	0xbc2c04c4	-0.010499183
207	0xbd13c6f7	-0.03607842
208	0x3d61ee05	0.055158634
209	0xbcef87cd	-0.02923956
210	0xbd0bf163	-0.03416575
211	0xbc8ec538	-0.017428026
212	0xbccb46ff	-0.024814127
213	0xbc4eb90b	-0.01261736
214	0x3d914d0d	0.070947744
215	0xbbf89180	-0.0075857043
216	0x3d8b34f1	0.06797207
217	0x3d8a46bc	0.06751773
218	0x3ce07561	0.02739972
219	0x3da692ab	0.081334434
220	0xbb88107f	-0.004152357
221	0xbcac3295	-0.021020213
222	0xbc3b2eeb	-0.01142476
223	0x3c5afa17	0.01336529
224	0xbbbd3eea	-0.005775322
225	0xbbfdf133	-0.0077497005
226	0xbc8be6c0	-0.017077804
227	0x3da4b82f	0.08042943
228	0x3cbb0ff7	0.022834761
229	0x3c234d0d	0.009967101
230	0x3d8b79a4	0.068103105
231	0x3da66f0c	0.08126649
232	0xbc3a2c25	-0.011363064
233	0x3cb511f7	0.022103293
234	0xbd44218b	-0.04788355
235	0xbd08f956	-0.03344091
236	0x3cad2b13	0.021138703
237	0x3d1d96d0	0.038473904
238	0xbcb58412	-0.022157703
239	0x3d16c809	0.036811862
240	0x3d1f1957	0.038842525
241	0x3d7333e0	0.059375644
242	0x3d2ccce4	0.042187586
243	0x3d7a3b36	0.061091624
244	0x3d01252b	0.031529587
245	0xbc3538f8	-0.011060946
246	0xbc816e8e	-0.015799787
247	0x3c7eb696	0.015546462
248	0xbd280d1b	-0.041028123
249	0xbd080034	-0.03320332
250	0xbb09c3ac	-0.002102117
251	0x3cf8cac0	0.030370116
252	0x3d0b43a1	0.034000043
253	0xbcd569e6	-0.026051473
254	0xbaee588d	-0.0018184349
255	0x3d62af1c	0.05534278

gc4.weight f4 [256, 256]
0	0x2f9b6f9e	2.8273645e-10
1	0xb1831bea	-3.8157753e-09
2	0xb1107e73	-2.1026636e-09
3	0x31dec149	6.4830243e-09
4	0x30be17e3	1.3831108e-09
5	0xb1a7770b	-4.8738733e-09
6	0x308b4a8b	1.0134767e-09
7	0x2ef8169a	1.1281749e-10
8	0x30f4f1bf	1.7822045e-09
9	0xb10a314f	-2.0109672e-09
10	0xb115d2c8	-2.180217e-09
11	0x310e7e3c	2.0735476e-09
12	0x30646992	8.309594e-10
13	0xb1b4abdf	-5.258229e-09
14	0x3037f9a4	6.6929773e-10
15	0x309c1f8f	1.1359463e-09
16	0x305c1e75	8.0078816e-10
17	0x3209adfc	8.014009e-09
18	0x31c0d0d2	5.6116756e-09
19	0x30369818	6.642735e-10
20	0xaedfb09c	-1.0172238e-10
21	0x2ec7dc97	9.088657e-11
22	0xb26333d2	-1.3224922e-08
23	0x31972640	4.399027e-09
24	0x3086f2c8	9.818786e-10
25	0x30c43e88	1.4278649e-09
26	0xb057a78b	-7.845464e-10
27	0x2f88c5d1	2.4878813e-10
28	0xb072e820	-8.8368957e-10
29	0x2f263ac0	1.5118484e-10
30	0xb18fa572	-4.1806567e-09
31	0xb20aa5f1	-8.070388e-09
32	0xb077b9b2	-9.0121965e-10
33	0x30889e61	9.940316e-10
34	0xb0501607	-7.570126e-10
35	0xb182586b	-3.79355e-09
36	0xb0e2500c	-1.6466415e-09
37	0xb0d8077f	-1.5718199e-09
38	0x2f04e454	1.2086449e-10
39	0xb1b5e4bd	-5.293798e-09
40	0xb111fe5f	-2.124487e-09
41	0x318fc898	4.1846526e-09
42	0xb11ed974	-2.3115634e-09
43	0xb244d0c7	-1.1456172e-08
44	0xafdcb304	-4.0144965e-10
45	0x327e4061	1.4799384e-08
46	0xb1b2189f	-5.183281e-09
47	0x31565690	3.1190304e-09
48	0x2ce50440	6.5090433e-12
49	0xb18e96a9	-4.149872e-09
50	0x3084c83c	9.661174e-10
51	0xb14432eb	-2.8550697e-09
52	0x31371da8	2.6646862e-09
53	0xb27109a8	-1.4030242e-08
54	0x30f39dab	1.7725389e-09
55	0xb08af590	-1.0110615e-09
56	0x30a9c046	1.2351016e-09
57	0x2fc8b8e4	3.651116e-10
58	0x308f0640	1.0406396e-09
59	0x31bb8c00	5.4583325e-09
60	0xb1a83e38	-4.896517e-09
61	0x30bcd045	1.3737994e-09
62	0x2f0d3e3b	1.2845984e-10
63	0x30713c7d	8.776125e-10
64	0xb09f4b54	-1.1590182e-09
65	0xb1ee5ef0	-6.937505e-09
66	0x2f9e32b5	2.8776062e-10
67	0xafd5a915	-3.8864614e-10
68	0x313bcdf1	2.7329146e-09
69	0xb202368b	-7.5793976e-09
70	0xb18246a6	-3.7915298e-09
71	0xafc1f165	-3.5278017e-10
72	0x3032fac9	6.511241e-10
73	0xae482e28	-4.551573e-11
74	0x3200af48	7.490435e-09
75	0xb17de744	-3.6947805e-09
76	0xb11206b2	-2.1249602e-09
77	0x30a7a546	1.2197823e-09
78	0xb0e54cf6	-1.6683817e-09
79	0xb0358bd6	-6.6046135e-10
80	0x302e7b3d	6.3475963e-10
81	0xb1a77cd6	-4.874532e-09
82	0xb0622ae6	-8.2279283e-10
83	0xb1482763	-2.912622e-09
84	0x327d50b0	1.4744884e-08
85	0xaf10da12	-1.3174198e-10
86	0xb0529a49	-7.661681e-10
87	0xb1ae3c90	-5.0709517e-09
88	0xb0eda770	-1.7291608e-09
89	0xaeb71474	-8.32551e-11
90	0xafd879fe	-3.9376852e-10
91	0xb165ec65	-3.345826e-09
92	0xb00e9ae6	-5.1879423e-10
93	0x312b8078	2.49568e-09
94	0xb07d686e	-9.218927e-10
95	0xb0caf290	-1.4766375e-09
96	0xaf576719	-1.9590764e-10
97	0x31255946	2.4061406e-09
98	0x2fbd3d6c	3.4422543e-10
99	0x31e6947b	6.7107613e-09
100	0xb20a8c61	-8.064576e-09
101	0xb012ca13	-5.3401655e-10
102	0xaf34fe48	-1.6461243e-10
103	0xb0aa282e	-1.2380548e-09
104	0x31993bd0	4.459686e-09
105	0x323db488	1.1042296e-08
106	0x2fc10344	3.5108816e-10
107	0xb0056684	-4.85308e-10
108	0x30b48210	1.313369e-09
109	0xacd93580	-6.1734506e-12
110	0x2f0b3733	1.2661587e-10
111	0xb082cb21	-9.516478e-10
112	0xb12c1a8f	-2.504439e-09
113	0xadc1899a	-2.2002667e-11
114	0xb0de4c28	-1.6174271e-09
115	0x30e6292e	1.6746406e-09
116	0xb1559295	-3.1078902e-09
117	0x30e79ec8	1.685259e-09
118	0x30c6cbe8	1.446435e-09
119	0xb1e9420e	-6.788702e-09
120	0xb11935e7	-2.229507e-09
121	0x30b7b1be	1.336552e-09
122	0x31b0e32c	5.1481006e-09
123	0xb1ff9d65	-7.4393705e-09
124	0xb057eab9	-7.8550105e-10
125	0x3098f4d1	1.1129037e-09
126	0x3153c6e0	3.0817588e-09
127	0x30fb6034	1.8289996e-09
128	0x31d5145b	6.20143e-09
129	0x31b1125b	5.1534648e-09
130	0xb20f287d	-8.3329015e-09
131	0xb0d77ce9	-1.567881e-09
132	0x2fa4d4f8	2.998275e-10
133	0xb266159e	-1.3392677e-08
134	0x2f871aa4	2.4575286e-10
135	0x2f44c305	1.7895381e-10
136	0x31879f14	3.947102e-09
137	0xb1117bee	-2.1170723e-09
138	0x30d7efcf	1.5711467e-09
139	0x3289f133	1.6058584e-08
140	0x30e7b978	1.6860175e-09
141	0x31d89eef	6.304496e-09
142	0x30534024	7.68525e-10
143	0xb039b84b	-6.7564504e-10
144	0xb05eba2c	-8.1027696e-10
145	0xb0f49a6a	-1.7797224e-09
146	0x30e9815f	1.6989751e-09
147	0xb227c6f8	-9.76592e-09
148	0x2f1d1de2	1.4289683e-10
149	0xb169a741	-3.4001035e-09
150	0xb1530fce	-3.0713525e-09
151	0xb025ef5e	-6.036681e-10
152	0x3129eaf6	2.4726297e-09
153	0xac8ff900	-4.091949e-12
154	0xb15d3a96	-3.2193035e-09
155	0xb0c06e5c	-1.4001205e-09
156	0xb05d6d18	-8.0554363e-10
157	0xb0420b42	-7.0592787e-10
158	0xb21ef74d	-9.25304e-09
159	0x30683b69	8.4485535e-10
160	0x321b8bf6	9.054011e-09
161	0xb005282a	-4.8442195e-10
162	0x31baabf6	5.432862e-09
163	0xb189bc13	-4.0086063e-09
164	0x326b3d43	1.369273e-08
165	0x30ba95db	1.3575873e-09
166	0x30abe984	1.2508257e-09
167	0x30b5bec8	1.3223707e-09
168	0xb0e1e9d0	-1.6437358e-09
169	0xb0d0f485	-1.5203488e-09
170	0xafd9abd3	-3.9594159e-10
171	0xb089514e	-9.99117e-10
172	0x31d1baec	6.103951e-09
173	0x311c72b3	2.2766187e-09
174	0xb11abb46	-2.2516402e-09
175	0xb2442ee3	-1.1419362e-08
176	0x2fa761e0	3.0446667e-10
177	0x31874458	3.936787e-09
178	0x3064673b	8.3092616e-10
179	0xb1a90e73	-4.92019e-09
180	0xaff78b92	-4.502821e-10
181	0xb18540a9	-3.8781605e-09
182	0xb175acac	-3.5750345e-09
183	0x3116b135	2.1928603e-09
184	0xb1b5f163	-5.295236e-09
185	0x3284bbe3	1.5452263e-08
186	0xb2764403	-1.4334549e-08
187	0xab912240	-1.0312376e-12
188	0xb03081ea	-6.4213046e-10
189	0x3270f66b	1.4025868e-08
190	0x2dd43a6b	2.4127552e-11
191	0x3233b80c	1.0461019e-08
192	0xb0b3e612	-1.3089354e-09
193	0xb13f3d05	-2.7828844e-09
194	0xb0aaff12	-1.2441623e-09
195	0x30856089	9.704461e-10
196	0xb1461507	-2.8824745e-09
197	0xb12c5b4e	-2.5081195e-09
198	0xb19f3f5c	-4.634712e-09
199	0xb042b6ac	-7.083638e-10
200	0x31005926	1.8677127e-09
201	0xb0a2f0df	-1.1855511e-09
202	0x30b5a73f	1.3217017e-09
203	0x2f37a33d	1.6701747e-10
204	0xb18b4561	-4.05332e-09
205	0xaf752a30	-2.2297608e-10
206	0x320776b5	7.885025e-09
207	0x2f90c23c	2.633146e-10
208	0x301911ee	5.5686555e-10
209	0x3280d3f6	1.499755e-08
210	0x31b368b7	5.2214904e-09
211	0x30bd303b	1.3765268e-09
212	0x31909e6d	4.2089625e-09
213	0x3159981e	3.1664125e-09
214	0xb1b5fc02	-5.2964433e-09
215	0xb13dad9c	-2.7601805e-09
216	0xb23a5a08	-1.0847096e-08
217	0xb090a5e0	-1.0524523e-09
218	0x30d1a210	1.5252812e-09
219	0x2d0e8240	8.100687e-12
220	0x309670c2	1.0945984e-09
221	0xafe2e096	-4.1268738e-10
222	0xb0e00424	-1.6299322e-09
223	0xb21f617c	-9.2771835e-09
224	0x30392d54	6.7367023e-10
225	0xb11f4d8e	-2.318163e-09
226	0x30a1d5c7	1.1775051e-09
227	0x2ff9c312	4.5431442e-10
228	0xb19627b4	-4.3700883e-09
229	0xb2565bf4	-1.2477347e-08
230	0x2facd798	3.1439806e-10
231	0x31af8e5e	5.1093556e-09
232	0x2fbeed9c	3.472963e-10
233	0x2eac0778	7.822981e-11
234	0xb08ad81f	-1.0102247e-09
235	0xb20cfc7c	-8.206481e-09
236	0x31b5a609	5.2866693e-09
237	0x315c5c6e	3.2066754e-09
238	0x2f3afc78	1.7006296e-10
239	0x2f7c06a4	2.2921626e-10
240	0xb1877649	-3.9424646e-09
241	0xb2885361	-1.58704e-08
242	0x310196a1	1.8857593e-09
243	0xb169b171	-3.4006826e-09
244	0xb075f45d	-8.947774e-10
245	0xb080a812	-9.360994e-10
246	0xb1b5d93f	-5.2924913e-09
247	0x2efd68a0	1.1523693e-10
248	0xb2761e64	-1.4325995e-08
249	0x31e077ac	6.532863e-09
250	0xb13d9566	-2.7588043e-09
251	0x2ea79b18	7.621831e-11
252	0xb0f037de	-1.7478177e-09
253	0xb03ef0d3	-6.946383e-10
254	0x311f96f5	2.3223354e-09
255	0x30da9dd8	1.590645e-09

gc4.bias f4 [256]
0	0x3d6924f2	0.05692
1	0x3d9a77d7	0.07542389
2	0xbbb9a701	-0.0056656604
3	0x3d6b6d34	0.05747719
4	0xbbdea5c8	-0.006794665
5	0x3d9b0241	0.07568789
6	0x3cb35807	0.02189256
7	0xbc57b525	-0.013165747
8	0x3d9b711a	0.07589932
9	0x3cc22a22	0.023701731
10	0xbc51c683	-0.012803677
11	0x3d1bfd3e	0.038083307
12	0x3d0cf42f	0.03441256
13	0xbc472840	-0.012155592
14	0xbce01197	-0.027352137
15	0x3cfd943b	0.03095447
16	0xbc70f4c1	-0.014706791
17	0x3cd743fe	0.026277538
18	0x3b8dc2de	0.0043262085
19	0xbcd22a8d	-0.025655055
20	0x3d215f1f	0.039397355
21	0xbd44df6d	-0.048064638
22	0x3d8d1c71	0.068901904
23	0x3d74a0cc	0.05972366
24	0xbbb96fc7	-0.005659077
25	0x3d327420	0.043567777
26	0x3d9d0c3e	0.07668351
27	0xbc1bf106	-0.009517914
28	0x3d8779b5	0.06615011
29	0x3d5e2758	0.05423674
30	0x3d0b0e2f	0.033949073
31	0xbbef90b4	-0.007310951
32	0xbcb97531	-0.022638889
33	0x3daf5796	0.085616276
34	0x3a8673c6	0.0010257892
35	0x3d267d74	0.040646985
36	0xbceeafca	-0.029136557
37	0xbc91f79b	-0.017818263
38	0x3d49687b	0.049171906
39	0x3c32deb5	0.010917355
40	0xbc97b207	-0.018517507
41	0x3d821714	0.06352058
42	0xbcf895ca	-0.030344862
43	0x3da2913d	0.07937858
44	0x3cd1058c	0.02551534
45	0xbd151603	-0.036397945
46	0x3cf43f50	0.029815346
47	0xbc8b48d2	-0.017002497
48	0xbd14d73f	-0.036338087
49	0x3d597247	0.0530875
50	0x3d8295d1	0.063762315
51	0x3d108f4a	0.0352929
52	0x3cb0b0dc	0.021568708
53	0x3ce8ada5	0.028403113
54	0x3c8d7b02	0.017270569
55	0x3d6542d5	0.05597194
56	0x3cc4adbf	0.02400863
57	0xbcfef56c	-0.031122886
58	0xbd01c503	-0.031682026
59	0x3d8cd87c	0.068772286
60	0x3d4b3ba7	0.049617436
61	0x3d62d967	0.055383112
62	0x3d6e3c69	0.05816308
63	0x3d5d98dc	0.054100856
64	0x3d9ee689	0.07758815
65	0x3d82e262	0.06390835
66	0x3cbe93de	0.023263868
67	0x3cf4d507	0.029886736
68	0x3d9d03e3	0.07666757
69	0x3d7a9231	0.061174575
70	0xbbd81181	-0.0065938835
71	0x3b8b162d	0.004244587
72	0xbacdcfc4	-0.0015702178
73	0xbc929146	-0.017891537
74	0xbcb70393	-0.022340572
75	0x3d4c75d0	0.049917042
76	0x3d58d386	0.0529361
77	0xbc6e44fe	-0.014542816
78	0x3bf75b27	0.007548708
79	0xbcca8e23	-0.02472598
80	0xbcd24119	-0.025665807
81	0xbca5252a	-0.020159323
82	0x3d7442b7	0.059633937
83	0x3d882e96	0.066495106
84	0x3c91153c	0.01771032
85	0xbc11bc38	-0.0088949725
86	0x3d9ba53a	0.07599874
87	0xbb8b03d5	-0.0042424
88	0x3d8130e9	0.06308157
89	0xbaec74fd	-0.0018040236
90	0x3d4109bd	0.047128428
91	0x3d6991cc	0.05702381
92	0xbc0e7daa	-0.008696953
93	0xbcaa1ff3	-0.020767188
94	0xbb99a882	-0.004689277
95	0x3c954d8c	0.018225454
96	0xbc13b04d	-0.009014201
97	0x3c1a0659	0.009400927
98	0x3d30f06c	0.043198034
99	0x3d14f6ac	0.036368057
100	0x3ccbc1c0	0.02487266
101	0xbd11f306	-0.035632156
102	0x3cf19f99	0.029495047
103	0xbd2ebaa7	-0.042658474
104	0x3d8f1315	0.069860615
105	0xbcfe2b75	-0.031026581
106	0x3d6e1493	0.05812509
107	0xbc051ac7	-0.00812406
108	0x3d2749c2	0.040841825
109	0xbca54321	-0.020173611
110	0xbb9c1055	-0.004762689
111	0xbc39a931	-0.011331842
112	0x3c783cac	0.015151184
113	0xbad2c97f	-0.0016081779
114	0x3d957903	0.07298472
115	0x3d486693	0.048925947
116	0x3b9c0f3d	0.0047625587
117	0xbd0e0b28	-0.03467861
118	0x3dabfe88	0.08398157
119	0xbc80bcf8	-0.015715107
120	0x3d42336d	0.047412325
121	0x3da51217	0.08060091
122	0x3d9af6f3	0.07566633
123	0x3d1e62ec	0.038668558
124	0x3be2ca6a	0.0069211023
125	0x3d9d15b3	0.076701544
126	0x3d5696ae	0.052389793
127	0x3d54602e	0.051849537
128	0x3cdc6f4c	0.02690854
129	0x3d5f5982	0.05452872
130	0x3d57952b	0.052632492
131	0x3d244e70	0.040113866
132	0x3d9b6da8	0.07589275
133	0xbd267326	-0.040637158
134	0xbb02b049	-0.00199415
135	0xbcc99f5d	-0.024612123
136	0x3d261ff4	0.040557817
137	0x3cbf431c	0.02334743
138	0xbc1850a4	-0.00929657
139	0x3d581c99	0.052761648
140	0xbc216503	-0.009850743
141	0x3d453e3e	0.048155062
142	0x3d750309	0.059817348
143	0xbd5ca41c	-0.053867444
144	0xbc61696d	-0.013758046
145	0x3dade909	0.084917136
146	0xbc1d07bc	-0.009584364
147	0x3d9703af	0.073737495
148	0x3d2da5d7	0.042394485
149	0x3d82de91	0.063901074
150	0xbd10b05e	-0.035324447
151	0x3d73264e	0.059362702
152	0x3ce6106b	0.028084
153	0xbc9b6da6	-0.018973183
154	0x3d9a699c	0.07539675
155	0xbb814c1d	-0.003945841
156	0xbc3260fb	-0.01088738
157	0x3d90d0fe	0.07071112
158	0xbcc636d3	-0.024196064
159	0x3bf8e916	0.0075961454
160	0xbc98637d	-0.018602127
161	0xbc781ea2	-0.015144022
162	0x3b9e2e1c	0.004827274
163	0x3c8517a2	0.01624662
164	0xbd1998b4	-0.037499145
165	0xbd188527	-0.03723636
166	0x3daf876c	0.085707515
167	0x3cc44216	0.023957293
168	0x3d8ceeac	0.068814605
169	0xbcb859e3	-0.022503799
170	0xbc7d2864	-0.015451524
171	0xbbac7b32	-0.0052637095
172	0x3d471e33	0.048612785
173	0x3d89ab56	0.06722133
174	0x3d8bc24b	0.06824168
175	0xbd04183a	-0.032249667
176	0xbcb856f1	-0.022502394
177	0xbb02ce25	-0.0019959297
178	0x3c69a5f7	0.0142607605
179	0x3d6cf04a	0.057846345
180	0xbd6910f3	-0.05690093
181	0xbbb5502a	-0.005533238
182	0x3d54d3f2	0.05195994
183	0xbce1de4b	-0.027571818
184	0xbc85b09a	-0.016319562
185	0x3d1114ba	0.035420157
186	0xbc531888	-0.012884267
187	0xbc8caef4	-0.017173268
188	0x3c1d1a36	0.009588769
189	0x3c112fb4	0.008861471
190	0xbb88659a	-0.0041625025
191	0x3d9af85b	0.07566901
192	0x3cdf7d17	0.027281327
193	0x3d213e59	0.0393661
194	0x3d258b7a	0.04041622
195	0xbc1022ad	-0.00879733
196	0x3bc53876	0.0060186936
197	0x3d430201	0.047609333
198	0xbc0f9486	-0.008763438
199	0x3d30ead6	0.043192707
200	0x3daf3955	0.08555857
201	0x3ce96ae6	0.028493356
202	0x3cca7656	0.02471463
203	0xbc454976	-0.01204144
204	0xbbe3b660	-0.006949231
205	0x3d8d3c5d	0.06896279
206	0xbb80f8e0	-0.003935918
207	0xbc92844d	-0.017885352
208	0xbc4023b9	-0.011727267
209	0x3d8bfa56	0.06834857
210	0x3c72b912	0.014814632
211	0x3d89d943	0.067308925
212	0xbc45f1af	-0.012081548
213	0x3d9d041c	0.076667994
214	0x3d34a709	0.04410461
215	0x3ce4f562	0.027949039
216	0x3d46bf80	0.048522472
217	0x3d1af60f	0.037832316
218	0xbc51c828	-0.012804069
219	0xbc5e81d8	-0.013580762
220	0x3c971a7e	0.01844525
221	0xba1132b4	-0.00055388664
222	0xbd1717c6	-0.036887906
223	0x3d71b755	0.05901273
224	0x3d3f79ba	0.046746947
225	0x3bc7084a	0.006073986
226	0x3c5143ec	0.0127725415
227	0xbd1ac0f3	-0.037781667
228	0xbcb1f8ce	-0.021725085
229	0x3bda7557	0.00666682
230	0x3d0b5ebe	0.0340259
231	0x3db15ad6	0.08659904
232	0xbc704713	-0.014665383
233	0x3c4134ca	0.011792371
234	0x3a8d0002	0.0010757449
235	0xbbe2c61c	-0.006920589
236	0xbbf58b4b	-0.0074934117
237	0xbc0f9ca3	-0.008765372
238	0x3d69f90e	0.057122283
239	0xbbeeb4fd	-0.007284759
240	0x3d14656f	0.036229547
241	0x3ca09853	0.019603884
242	0x3d8bcdbc	0.0682635
243	0x3d4fe4a1	0.050755147
244	0xbc284967	-0.010271407
245	0x3d9a417c	0.075320214
246	0x3c81286c	0.015766345
247	0xbc24f4f3	-0.010068166
248	0x3c342399	0.010994815
249	0x3ccb42ac	0.024812065
250	0xbd5f16b0	-0.054464996
251	0x3daa3311	0.083105214
252	0xbc2b48d3	-0.010454374
253	0xbc32ef5a	-0.010921324
254	0xbd314e2d	-0.043287445
255	0x3bda0212	0.006653079
